artifacts/lstm/20260130_184252/best_model.pt (torch, 260344 bytes, 13 tensors)

lstm.weight_ih_l0 f4 [256, 7]
000000 6a be b2 bd ab fc cd bd d6 80 27 be 1b d2 94 be
       -0.08727725 -0.10057958 -0.16357741 -0.29066548
000010 2c d6 39 be e0 74 bd bd 95 a9 a3 3d 1e f6 c2 bc
       -0.18148106 -0.09250808 0.079913296 -0.023798998
000020 c4 18 71 be ca 28 18 bd c0 a2 1b be c2 d5 a8 3c
       -0.23544604 -0.037148274 -0.15198803 0.02060974
000030 05 53 49 bd 34 ca 05 bb 1f 26 d1 bd 73 75 e8 bd
       -0.04915144 -0.0020414712 -0.10212349 -0.11350527
000040 17 41 06 bd c7 02 96 bd b5 c6 11 be 1d 6c 03 be
       -0.03277692 -0.073247485 -0.14235957 -0.1283421
000050 e1 ea 1b be cb 97 d7 3d ca 99 57 be c7 53 07 3c
       -0.15226318 0.10526999 -0.2105476 0.00825972
000060 70 a3 12 bd e0 f6 90 bd 52 77 3e be 2d 02 11 be
       -0.035800397 -0.07078338 -0.18600205 -0.14160986
000070 47 cf 1d be 89 df 15 be e7 58 4f 3c 9e a2 91 3d
       -0.15411101 -0.14636053 0.012655473 0.07111095
000080 e5 a4 4d be cd bf 94 bd 98 62 d6 3c 90 e4 fe 3d
       -0.20082434 -0.072631456 0.02617006 0.124459386
000090 91 b4 7b 3e d3 3b 62 3d c0 60 77 bd 2c 47 14 bd
       0.245806 0.055232834 -0.060395002 -0.036200687
0000a0 da 76 ac 3c e8 88 9b bd ce e0 2d 3e e4 60 80 bd
       0.021052767 -0.07594472 0.16980287 -0.062684804
0000b0 51 0f 7b bd 41 5a 25 be ea 82 e3 bd 2c 70 6a be
       -0.061293904 -0.1614771 -0.11108954 -0.22894353
0000c0 87 fb 53 be af a3 35 3c cb 40 41 3d 12 d7 03 bd
       -0.20701419 0.0110863885 0.047180932 -0.03218753
0000d0 c9 2c c9 3b a1 af 1b be 83 84 1a bd f3 bc 28 3e
       0.006139372 -0.15203716 -0.03772403 0.16478328
0000e0 66 ce 81 bd 07 14 7f bc c0 da 1e be 4d 7b f6 bc
       -0.063381955 -0.01556874 -0.15513134 -0.030088091
0000f0 30 d8 d9 bd 93 90 89 3c 2f a1 8c bd 6f bc 1c be
       -0.106369376 0.016792571 -0.06866681 -0.15306257
000100 3d a8 1b be 1a ef a9 bd c0 41 bf 3d 1b f3 39 3c
       -0.15200897 -0.08297558 0.09338713 0.011349465
000110 e7 c4 0a 3c f3 5d 14 3e 2c a1 44 3d d2 ad 83 bd
       0.008469797 0.14488964 0.048005268 -0.06429638
000120 7a 11 f9 bb a5 d5 2e bd b7 43 15 be 77 79 80 bd
       -0.0076009603 -0.042684216 -0.14576612 -0.062731676
000130 c5 b7 3f be 60 41 eb 3a c7 9a 84 3d fd 32 e1 3d
       -0.18722446 0.001794856 0.06474834 0.10996053
000140 a6 03 80 bd 81 32 cd 3b 13 24 ea bd a0 17 96 bd
       -0.06250696 0.006262124 -0.11432662 -0.07328725
000150 99 fe c5 bc 45 d3 23 3d e7 c9 a1 3d 50 78 4d 3e
       -0.024169253 0.039996404 0.07899838 0.20065427
000160 78 48 d3 bd c2 36 30 bb da 14 d9 3d 68 60 0e 3e
       -0.10316557 -0.0026888107 0.1059968 0.13903964
000170 12 09 d8 bc 67 8f 07 be 2c 0b 84 be c5 fb 06 bd
       -0.026371513 -0.13238297 -0.25789773 -0.03295495
000180 ff 54 64 be 5d 00 53 bd 22 5c f3 3c e0 e8 17 3d
       -0.22298048 -0.05151402 0.029707018 0.03708732
000190 5f d4 ec bd e6 4c 48 be a1 0c 49 bd 5f 50 de bc
       -0.11563944 -0.19560584 -0.04908431 -0.027137933
0001a0 83 13 8f bc dc 13 5a bd 66 91 4a be e8 9e 3f be
       -0.017465359 -0.053241596 -0.19782028 -0.18712962
0001b0 63 4a 7f bd 1a 91 2e be 46 64 be bd 3e d8 78 bc
       -0.0623268 -0.1704754 -0.092964694 -0.015188275
0001c0 8e 86 77 bc 08 5b b8 3d 82 54 a1 3d 4d 54 c6 bc
       -0.015107764 0.09001738 0.07877447 -0.02421012
0001d0 b4 79 75 3d 4a 0c 99 3d 93 44 8d bc 54 0f 7f 3c
       0.05993052 0.07473047 -0.017244613 0.015567619
0001e0 51 c8 b0 bd 73 e1 4d be 12 09 9a bd b9 65 e1 bd
       -0.08631957 -0.20105533 -0.07521261 -0.1100573
0001f0 c2 80 2a be ed 61 c3 bc 76 b7 41 3d b2 27 5d 3e
       -0.1665068 -0.023850406 0.047294103 0.21597174
000200 f0 76 12 be d0 c2 78 3d 4c b3 b2 bd f2 02 61 be
       -0.14303184 0.060732663 -0.087256044 -0.2197378
000210 53 8e 83 be e2 a2 38 bc d8 cd 0a be 22 f1 f7 3a
       -0.25694522 -0.011269303 -0.13555086 0.0018916468
000220 1a be 3b be ae 87 7c bd f4 29 b8 bd e7 90 41 bd
       -0.18334237 -0.06165283 -0.08992377 -0.04725733
000230 63 eb e4 3b 6f d9 a0 3e 18 4f fa 3c ce 67 7e 3d
       0.006986068 0.3141589 0.030555293 0.062110715
000240 5e dd d9 3c 45 c4 56 bc b6 05 1a 3d f9 c4 14 bd
       0.026594814 -0.013108318 0.037603103 -0.03632066
000250 53 48 b1 bd 83 cf 8f bc e9 41 cd bd ff bb 6f 3c
       -0.08656373 -0.017555004 -0.10022337 0.014632224
000260 17 a6 2c 3d ea 45 0e bd 4c 92 c9 bd e5 9e 1c 3e
       0.042150583 -0.034734644 -0.09842357 0.15294988
000270 5d 7b e3 3d 91 1b 21 3d c9 37 54 bd a3 0b 6a be
       0.11107514 0.03933293 -0.051811013 -0.22856002
000280 c0 71 1d bd d0 c5 65 bd 00 e9 5a be 57 fd c7 bd
       -0.03843856 -0.05609685 -0.21377945 -0.097651176
000290 9c 72 f1 bd 4e da 2e 3d 2f 2e fb bd e2 7c 00 be
       -0.11789438 0.04268866 -0.12264668 -0.12547639
0002a0 04 28 9e 3c 4a b7 80 be 6a 09 2f be 78 c6 38 be
       0.01930619 -0.25139838 -0.17093435 -0.1804446
0002b0 ee 89 47 3c b8 00 52 bd a6 00 86 3b 77 40 1d bd
       0.012178881 -0.051270217 0.004089433 -0.038391557
0002c0 be 7b fb 3d ca 27 4e be 58 b4 70 3c 16 2c 37 be
       0.12279461 -0.20132366 0.014691435 -0.17887911
0002d0 db 83 44 be 3a cb 6f bd 20 55 3e 3c cc 47 12 3e
       -0.19190924 -0.05854342 0.011616975 0.14285201
0002e0 8b 6f 18 be 6b 01 9e 3d d8 00 b5 bd ba da bd bc
       -0.148863 0.07715114 -0.088380516 -0.023175586
0002f0 57 84 d4 3d 87 a4 9d 3d 83 77 88 bc f8 47 08 3e
       0.10376804 0.07697397 -0.01665855 0.13308704
000300 4d fd 1c bd 74 98 63 3e 23 c6 41 3d 44 58 d7 3d
       -0.038327504 0.22226125 0.0473081 0.10514882
000310 a0 a4 c8 bd e1 d6 ac bd dd 46 c9 bd 71 a1 22 bb
       -0.09797025 -0.084394224 -0.09827969 -0.0024815465
000320 c6 59 bb 3c b9 bb 18 bd b0 ca 43 3c 09 7b 81 3e
       0.022869956 -0.0372884 0.01195018 0.2528918
000330 13 21 4e 3d 3a b8 21 be f6 51 00 3e 56 99 d3 3d
       0.05032451 -0.15792933 0.12531266 0.10331981
000340 b5 8f 89 3c 72 c4 90 ba ce 5f f4 bd a1 32 b9 bd
       0.016792158 -0.0011044873 -0.11932336 -0.0904286
000350 0d 62 b6 bd f6 e7 eb bb c8 26 09 be 53 b8 22 bd
       -0.089054205 -0.0071992828 -0.133937 -0.039726567
000360 55 7e 24 be 7a 92 04 bd e8 e0 0e be 02 c9 4e be
       -0.16063817 -0.032366253 -0.13952982 -0.20193866
000370 aa 70 99 bd c0 63 81 bb ba 5b af 3b 30 9f 16 be
       -0.07492192 -0.0039486587 0.005351511 -0.14709163
000380 0a 11 83 bd 90 c0 67 bd 15 95 c7 3d 38 1d 1b 3e
       -0.06399734 -0.056580126 0.09745232 0.15147865
000390 62 97 ab 3c a3 7f 4f be 83 76 56 3d 53 00 8b bd
       0.020946208 -0.20263533 0.052359115 -0.06787171
0003a0 57 e1 58 be 55 fa 5a bd b2 20 c2 bd 68 d1 41 be
       -0.2117971 -0.05346139 -0.094788924 -0.18927538
0003b0 24 90 ef bd c4 b1 a5 3d 6f 1d f9 bd 99 9a 29 be
       -0.116974145 0.08090547 -0.12163817 -0.1656288
0003c0 a5 27 09 be 20 aa 36 3c e4 ac 3a be 9e 44 ab bd
       -0.1339403 0.011148959 -0.18230015 -0.08362697
0003d0 94 03 59 be 13 af 8b bd 98 fb c4 bc e4 81 8e bc
       -0.21192771 -0.06820502 -0.02404575 -0.017395921
0003e0 29 49 a4 bd a7 72 05 3d 18 44 b2 3d d9 9c 29 bd
       -0.08021767 0.032580044 0.08704394 -0.041409347
0003f0 07 1b d9 bc 45 eb 65 3e 37 df 1f 3d 0e 97 46 bb
       -0.026502145 0.2245303 0.039031234 -0.0030302438

lstm.weight_hh_l0 f4 [256, 64]
000000 93 8a f6 bc 0d fe c4 bd 5b 45 c1 3d 6a 9b 04 3d
       -0.030095374 -0.09618769 0.09437057 0.032374777
000010 a5 df b0 bd 7d 2c fc bd 07 f7 02 3e cf b9 cc bc
       -0.08636407 -0.12313173 0.12789546 -0.024990944
000020 88 82 88 be 2c f6 c7 bd fa 9a 39 3e cd d6 a3 bc
       -0.26662087 -0.097637504 0.18125525 -0.019999886
000030 6a 3c 4d bc bd ee 62 bc 70 ee 86 3d db cb 4c 3d
       -0.012526611 -0.013850865 0.06588447 0.0499991
000040 c1 c0 8d 3d 3f 7a 89 bd 6a 85 1e 3e 07 ab 0c be
       0.069215305 -0.0671277 0.15480581 -0.13737117
000050 9f fe c2 bd 4b dd 08 3e 26 2f 69 3d 9f d8 d3 3d
       -0.09521221 0.13365667 0.05692973 0.103440516
000060 8c 36 a8 bd 69 f2 9e 3d 34 a5 0e 3d db cb 82 3c
       -0.08213529 0.0776108 0.03482552 0.015966346
000070 f6 2f 8c bd 1e fb 16 3d 2d ca 7a be 66 80 c9 3c
       -0.06845085 0.036860578 -0.24491186 0.024597358
000080 a5 ce 9d 3c 96 e3 13 be de 07 46 bd f9 f8 9c bd
       0.019263575 -0.14442286 -0.048347346 -0.07664675
000090 5f 1d f4 bd 3f 0a 1c 3e 5c c0 c5 3d 31 cd df 3d
       -0.119196646 0.15238284 0.0965583 0.10927809
0000a0 8e aa 84 3d 4a 7c 60 3d 27 d8 c6 bd 39 30 6f 3e
       0.06477843 0.05480603 -0.097091965 0.23358239
0000b0 59 ac 4d 3e 32 2a c2 3d ab 78 9b 3e 56 a7 70 3e
       0.20085277 0.09480704 0.303655 0.23501334
0000c0 12 68 e3 3d db 1a b1 3c 3c bd 71 3e 47 da 8c 3c
       0.11103834 0.021619251 0.23607343 0.017193926
0000d0 73 25 d2 3d df ae dd 3b 98 00 41 3e d9 2c 4f bd
       0.10261049 0.006765231 0.18847883 -0.05057988
0000e0 b1 4d 19 be 0a 8d 52 3e fc d2 4a 3e 5e 2e cd bd
       -0.14971043 0.20561615 0.19807047 -0.100186095
0000f0 79 ae 26 be 67 4d 2a bd d0 3a 8b 3d df 4f 08 be
       -0.16277494 -0.041577723 0.06798327 -0.13311718
000100 70 ed 5b bb 9c b7 a8 bc e7 02 0b 3e a4 e3 6a bc
       -0.0033558272 -0.020595364 0.13575326 -0.0143365
000110 c2 38 54 3c cf bf 3d 3c 49 e3 82 3d f1 4a 74 3d
       0.012952985 0.011581375 0.063910075 0.059641782
000120 87 a9 f3 bd 90 35 8e 3d b4 51 1d be 7b 2a 27 be
       -0.11897569 0.0694381 -0.15363199 -0.16324799
000130 33 80 a2 bc 8d 08 ff bd b2 12 6c 3c 33 1e b2 bc
       -0.01983652 -0.12452803 0.014408754 -0.021742916
000140 1d 3c d9 bd 48 fb 65 bd fb c8 12 bd b7 aa 9f 3b
       -0.10607169 -0.056147844 -0.0358362 0.0048726457
000150 e8 28 f4 bc 60 ac de 3c 50 5a f7 bc 12 67 c2 3c
       -0.029804662 0.027181804 -0.030194432 0.023730788
000160 ac f5 4a 3d aa 48 43 3d 01 46 44 3e 28 b1 9c bd
       0.049550697 0.04767672 0.1916733 -0.076509774
000170 76 50 f5 bd 60 cc 19 bd 78 b2 95 bd b9 bd 58 bd
       -0.11978237 -0.037548423 -0.07309431 -0.05291531
000180 51 8f ef bb 1b 67 f2 3d b8 89 3a bd 7c cf 19 bd
       -0.007310786 0.11836072 -0.045541495 -0.03755139
000190 fd bb e1 bc 0d 47 97 bd a7 9d 7d bd 05 5e b0 3b
       -0.02755546 -0.07386599 -0.061917927 0.0053823018
0001a0 08 c6 ea bd 70 8f 1d bd e6 99 aa bc 18 12 aa 3d
       -0.11463553 -0.03846687 -0.020825338 0.08304232
0001b0 ab 20 f0 3d 1a de 85 bb 18 55 43 3c 67 ca c4 3a
       0.11724981 -0.0040853145 0.011922143 0.0015013934
0001c0 c8 64 1a bc 28 39 b0 bd 77 a3 2c be 3b d1 2f bc
       -0.009423442 -0.08604652 -0.16859232 -0.010731037
0001d0 f3 1a ba 3d 8d f5 8a bc 0f b2 38 3e cc 3e db 3d
       0.090871714 -0.01696279 0.18036674 0.10705337
0001e0 86 e4 b0 3d 8a 8e 52 3c 36 19 3d bd 7f 8a 02 bc
       0.086373374 0.012851367 -0.04616662 -0.00796759
0001f0 a2 b5 4a bd 83 fd 67 be cc d8 df 3d c4 86 3e 3b
       -0.049489625 -0.22655301 0.109300226 0.0029072026
000200 f1 8a d8 3d a6 ce 2e be 9d 24 bb 3d ec f9 4f 3e
       0.10573376 -0.17071018 0.09137843 0.20310181
000210 c5 e1 b5 3d 1a 23 13 3e 06 54 8a bc 07 37 70 3d
       0.08880953 0.14368859 -0.016885769 0.05864623
000220 3d 0c 7f 3d 2f f4 81 bc 7c 0d 25 be 36 fc a0 3c
       0.06226753 -0.015863506 -0.16118425 0.019651514
000230 92 ff 08 3e 75 dd 9e bd 4d 76 ae 3d ff bb 5f 3d
       0.13378742 -0.07757083 0.08518658 0.054622646
000240 5d 54 87 bb 76 79 8d 3b 86 39 ce bd d1 e0 2c 3e
       -0.00412993 0.004317458 -0.100695655 0.16882636
000250 62 0f b2 3d 14 7a 31 3d ba 46 d3 3d cc f9 7a ba
       0.0869434 0.043329313 0.103162244 -0.0009573966
000260 d7 54 3b be b9 32 82 bb c6 14 4c 3d fa 34 7a bd
       -0.18294083 -0.003973332 0.0498245 -0.06108568
000270 3f fa 6a 3c f2 bb a0 bb 53 bc 88 bd 50 fd 8a bd
       0.01434189 -0.0049052173 -0.06676545 -0.06786597
000280 10 44 82 bc 95 7e f4 bd 20 76 df bd 5f c0 d7 3d
       -0.015901595 -0.11938206 -0.109112024 0.10534739
000290 2b b6 bc 3d 3f 3b 8a bd 36 69 1b bd 3e 42 86 3d
       0.09214433 -0.067495815 -0.037942134 0.065556034
0002a0 ab e9 25 be 62 a8 2f 3e 5c b8 f9 3c 66 cc 49 bd
       -0.16202419 0.17154077 0.030483417 -0.049267195
0002b0 49 d1 6b 3d e5 c0 66 3d bb 12 02 bd 9c fd 4f 3d
       0.057572637 0.056336302 -0.031756144 0.05077897
0002c0 2e d9 83 bd 3c e4 2e 3c 1c ae 98 b7 6c f0 9d bd
       -0.06437908 0.0106745325 -1.8200888e-05 -0.077118725
0002d0 e1 c2 53 3d 71 2f 62 3d 7d b0 d3 3d 58 04 f3 3d
       0.051699523 0.055221025 0.10336397 0.11866063
0002e0 00 5d 0a bd d9 46 0a be ce 54 56 be 72 0d d6 3d
       -0.033780098 -0.13503589 -0.20930788 0.10451783
0002f0 16 45 4e bd 58 66 de 3d 7c 99 1d 3e b5 08 14 3b
       -0.050358854 0.10859364 0.15390581 0.0022588198
000300 7f 1c 1b 3e a2 b3 22 be 14 d2 46 3e b5 45 53 3e
       0.15147589 -0.15888837 0.19416076 0.2063206
000310 0e c1 50 3e e0 38 ee 3c 09 de 20 be 67 4d 07 3e
       0.20386145 0.029079854 -0.157097 0.1321312
000320 73 05 ca bd bb 49 0b be d5 2c 95 be 67 3c 29 3d
       -0.098643206 -0.13602345 -0.29135767 0.04131737
000330 5b 34 c5 bd 69 c2 76 be 2d 49 bb 3d 53 c9 52 3e
       -0.09629127 -0.24097599 0.091448165 0.20584612
000340 33 30 81 be 55 50 36 3e 80 d9 78 be fc 1b c6 3d
       -0.25232086 0.17804082 -0.2430172 0.09673306
000350 f3 6a a6 3c 94 3c cc 3d a0 21 00 be 8f a7 5c 3e
       0.02031467 0.09972492 -0.12512827 0.21548294
000360 92 28 42 be 09 67 67 3e 5e d4 94 3d 4e 9c 5e be
       -0.18960789 0.22597899 0.07267068 -0.21739313
000370 e9 b0 2a be da 14 30 be 0f a2 af bc d8 df 75 3d
       -0.16669048 -0.17195454 -0.02143958 0.060027927
000380 89 ab 9d 3e 16 1a ec bd d3 9b 1f be 36 a8 99 3d
       0.30794933 -0.11528413 -0.15586786 0.07502787
000390 e3 22 48 bc 5d f1 63 3e 58 dc 3e 3d 31 87 86 3d
       -0.012215349 0.22260042 0.046596855 0.065687545
0003a0 e9 d9 0a be c8 d8 85 3e 0c e9 23 be ba 58 fd bd
       -0.13559689 0.26141953 -0.16006869 -0.12370439
0003b0 00 d4 f7 3b 1d d0 18 3d 37 5e c3 bd e2 41 8b 3c
       0.007563114 0.037307847 -0.095394544 0.016999189
0003c0 d9 d4 a8 bd cb 9e 61 be 30 5d 03 bd a5 0f ff bd
       -0.082437225 -0.22033231 -0.032071292 -0.12454156
0003d0 a1 20 4a bd 80 c3 9a 3e c8 34 cf bc 35 45 b5 bd
       -0.049347524 0.3022728 -0.025293723 -0.08851091
0003e0 8b 73 c8 bc a2 77 8c 3a 05 03 74 be e6 d4 0c 3e
       -0.024469158 0.0010716806 -0.23829277 0.1375309
0003f0 e5 94 57 be c3 72 45 be 49 f9 3e 3e ac 45 ca 3d
       -0.21052893 -0.1928206 0.18649782 0.0987657

lstm.bias_ih_l0 f4 [256]
000000 89 81 35 be 02 eb 94 bd 79 a1 9a 3c 6b 0c b2 bc
       -0.17725195 -0.07271387 0.018875824 -0.021734437
000010 42 83 45 bd 20 47 22 3c bc c9 1e be 39 04 1f be
       -0.04822088 0.009904653 -0.15506643 -0.15528955
000020 6a 47 9c 3c e3 b5 67 bd bd f3 13 bd 85 7d 54 be
       0.019077022 -0.056569945 -0.03612112 -0.20751007
000030 6f 10 62 be 12 c1 15 be 01 a1 6a be 45 1d 4b 3c
       -0.22076581 -0.14624432 -0.2291298 0.012397115
000040 34 57 29 be 1b ea ec bd 97 a0 26 3d fe 58 75 be
       -0.16537172 -0.115680896 0.040680494 -0.23959729
000050 af 1d 8c be ee 06 d3 bc 24 83 0c be 29 e4 0d be
       -0.27366397 -0.02576014 -0.13721901 -0.13856567
000060 f9 9e eb bd e9 8e 9a 3c 7c 39 4d be b8 9f 33 be
       -0.11504931 0.018866973 -0.2004146 -0.17541397
000070 d7 40 e3 3d e6 78 c3 bc b1 2f 1f be fd 09 81 be
       0.110963516 -0.02386136 -0.15545537 -0.25202933
000080 02 5f 26 be a6 32 74 3b 02 41 90 3d bb 76 1e be
       -0.1624718 0.0037261634 0.07043649 -0.1547498
000090 ce 40 22 be 7f 7e a8 3c 83 27 fc bd 5e 89 5c be
       -0.15845034 0.02056813 -0.12312224 -0.21536776
0000a0 09 6d 26 be d8 2b 80 bd 31 f7 cf 3b a4 41 50 3d
       -0.16252531 -0.062583625 0.006346606 0.05084385
0000b0 91 02 07 be 56 05 0b 3d af 04 9e 3c 80 f4 2d 3c
       -0.13184573 0.033940636 0.019289343 0.010617375
0000c0 f0 c5 82 bd 49 2d 1c 3d 25 b3 af 3d 8f bd 9d 3d
       -0.0638541 0.038129125 0.08579091 0.07702171
0000d0 c8 96 0c be 10 73 76 bd f5 6b 92 3d 63 4f 2d 3d
       -0.13729393 -0.060168326 0.071494974 0.042312037
0000e0 4d a0 d8 3d ea d9 66 3d ae aa d3 bd e1 14 4d be
       0.1057745 0.056360163 -0.10335289 -0.20027496
0000f0 18 97 19 3d f0 4c 32 bd 1a 31 85 bd db 73 5a be
       0.03749761 -0.043530405 -0.06503506 -0.21333258
000100 af f7 6f be 1f dd d3 3c 57 88 72 bd d8 88 a7 3d
       -0.23434328 0.025862275 -0.059212055 0.08180398
000110 04 1d 1c be e2 85 33 be 9c 2c 9b bd b8 42 18 bd
       -0.15245444 -0.17531541 -0.07576868 -0.037173003
000120 3f bb 12 3d 2c e7 0e be 14 56 78 bd 09 e5 f6 bc
       0.035823103 -0.13955373 -0.060628965 -0.03013851
000130 13 0d 9f 3c d5 e2 1c be a3 e2 27 be d5 f0 83 3d
       0.019415414 -0.15320905 -0.16395049 0.064424194
000140 4f 10 83 be 5f 01 55 3d a1 d7 90 be dc 77 1e bd
       -0.2559838 0.05200326 -0.28289512 -0.038688526
000150 11 8d b4 be 59 22 00 bd 50 c9 90 be b1 7f 8c bd
       -0.35263875 -0.031282756 -0.2827859 -0.06860293
000160 cb b8 94 3d e1 b3 58 be df e5 a9 bd c7 df 56 be
       0.07261809 -0.21162368 -0.082957976 -0.20983802
000170 53 14 76 3d ca 57 4d be 6a 13 9c bd 1e 87 8f bd
       0.060077976 -0.2005302 -0.076208904 -0.070081934
000180 c9 76 41 be 87 bf bb bc 2b 0a 51 3c d3 5f 43 be
       -0.18892969 -0.022918476 0.012758772 -0.19079523
000190 88 26 57 be 39 37 34 3d 15 37 b4 3c 49 71 b6 bc
       -0.21010792 0.043997977 0.021998921 -0.022270815
0001a0 5f 0e 35 be cd 76 93 bd 8b bf 76 3d d0 a2 bf be
       -0.17681263 -0.07200394 0.060241263 -0.37428904
0001b0 52 21 9d be 3c a6 e5 bd 47 eb 1e be 89 07 19 bc
       -0.30689484 -0.11213347 -0.15519439 -0.009340175
0001c0 f7 b7 51 3d d5 d9 bd bd 00 ef be bc ba 52 ba 3d
       0.051200833 -0.09270064 -0.023307323 0.0909781
0001d0 9b 47 a1 bc 9a 93 96 be bb 13 43 bd da f5 7a bd
       -0.019687464 -0.29409486 -0.04762624 -0.06126962
0001e0 2e 68 aa bd cf 7e c6 3c 34 56 05 bd bf 27 d5 bd
       -0.08320652 0.024230389 -0.032552913 -0.104079716
0001f0 7d 00 05 3e 53 23 c8 bd 1c 3a 05 be 5a fe c3 be
       0.12988468 -0.097723626 -0.13010448 -0.38279992
000200 8e 59 66 bc 62 a9 c3 3d 32 25 ce bd 8a e0 b3 3c
       -0.014059437 0.095537916 -0.10065688 0.021957655
000210 69 ef d3 bd 21 d4 11 3e 68 54 2a be ee 05 87 3d
       -0.10348398 0.14241077 -0.16633761 0.06592928
000220 58 81 1e 3e 1f fc 12 bd b2 00 2e bd 01 de 90 3b
       0.15479028 -0.035884973 -0.04248113 0.004420996
000230 70 0a 95 bd f4 33 f4 3d f5 9f 87 bc 17 60 93 bc
       -0.072773814 0.11923972 -0.016555766 -0.017990155
000240 8e 4c cc 3c 14 2c c7 bd 1e 89 eb bd 25 7d 11 bd
       0.024938848 -0.09725204 -0.115007624 -0.035519738
000250 ba 4c 32 ba 4f c3 00 3e 51 d5 6f bc b7 fe 13 3c
       -0.0006801594 0.12574504 -0.014638261 0.009032897
000260 34 ac 2d 3d 44 80 ee 3c c4 41 4e 3d 37 5c b2 bd
       0.042400554 0.029113896 0.050355688 -0.08708995
000270 89 05 de 3d 58 53 c9 bd 35 df 9f 3d ad 1b 11 bd
       0.108408995 -0.0983035 0.07806245 -0.035426784
000280 b4 cf b6 bb c6 8b 0d 3d ba 21 02 3e 73 1a f6 3c
       -0.0055789594 0.034557126 0.12708178 0.030041909
000290 c3 c5 2d bd 24 d6 a1 bd 88 50 26 bc 2f 75 d9 bc
       -0.04242493 -0.07902172 -0.010151036 -0.026545135
0002a0 81 c4 ac 3c 61 57 5c bd 53 87 6b bc a0 0c b1 bd
       0.021089794 -0.05379427 -0.0143755255 -0.08644986
0002b0 22 c7 1b bd 7d 7f d9 bd 6b 4d 0a be 5d b1 6e 3d
       -0.038031705 -0.106200196 -0.13506095 0.058274616
0002c0 a4 7a a7 bc a1 2e 0e 3d 29 76 7d bd 47 f3 30 bc
       -0.020444222 0.034712438 -0.061880264 -0.010800189
0002d0 98 ed 84 3d 95 23 62 3d d6 bd 86 bd dc ca b2 bd
       0.0649063 0.055209715 -0.06579177 -0.087300986
0002e0 89 22 54 bd be bf 06 be a5 27 09 bd 08 1a b8 bc
       -0.051790748 -0.13159081 -0.033485074 -0.02247335
0002f0 f8 04 f3 3d 52 b6 14 3d 43 e3 2d bd 1d c3 02 3d
       0.11866182 0.036306687 -0.04245306 0.031924356
000300 43 50 61 be 38 9f 84 bd 45 27 96 3d a3 a0 0d 3e
       -0.22003274 -0.06475681 0.07331709 0.1383081
000310 2a ca 56 3c ca e3 85 ba 75 25 a6 bd 1e 70 9f bc
       0.013109723 -0.0010214981 -0.08112613 -0.019462641
000320 ce 19 e6 bd 4e 1a 3e be 5c 84 90 bb e3 b3 5a bd
       -0.112353906 -0.18564722 -0.0044103097 -0.05339421
000330 64 ca fa bd 8a 98 9c 3d 3a 84 6b be 79 f3 48 bd
       -0.12245634 0.07646282 -0.22999659 -0.04906032
000340 86 b6 29 be ff 64 28 be 4c ff a5 bd e0 d4 00 be
       -0.16573533 -0.16444777 -0.08105335 -0.12581205
000350 2c 21 49 be b1 a0 fa bd a0 88 aa bd 96 14 09 be
       -0.1964156 -0.12237681 -0.083268404 -0.13386759
000360 2a 59 3d 3c e6 2a 58 3d 77 e5 40 bd c6 50 a0 3b
       0.011556903 0.052775286 -0.047093835 0.0048924414
000370 ed 55 12 bc 6d bd 3f be ad 98 cb bd ae 2b dd bd
       -0.008931619 -0.18724604 -0.0994123 -0.10799347
000380 b2 2c 62 be b2 de c8 3d 4a 9e b8 3d e1 f9 5a bd
       -0.22087362 0.09808101 0.09014566 -0.05346096
000390 8c d3 07 be 47 62 f3 3d 1c 3b db 3d a4 7f 13 be
       -0.13264292 0.11883979 0.107046336 -0.1440416
0003a0 7f b7 58 bd 57 89 bf bd e0 82 d7 bd 5b 1a e6 bd
       -0.05290937 -0.09352367 -0.10523009 -0.11235496
0003b0 eb 5e 16 be 52 f8 34 3d c8 56 c8 bd 3d 2c 85 3d
       -0.14684646 0.04418213 -0.09782177 0.065025784
0003c0 31 09 9c 3b b0 a8 06 bd 03 37 13 bd 0e 76 fc bc
       0.004761838 -0.032875717 -0.035941135 -0.030818012
0003d0 bf 04 ec bd b1 91 74 3c f6 d5 a9 3c 28 7f a2 3d
       -0.11524343 0.014927314 0.020731907 0.079344094
0003e0 8d 1c 4a 3d 09 05 ad bd 9d 1f dc bc c9 8f 27 be
       0.049343634 -0.08448226 -0.026870543 -0.16363443
0003f0 07 88 c3 bc 89 af 84 be 29 3a 9d bd 0b fc 12 be
       -0.023868574 -0.25915173 -0.07677109 -0.1435396

lstm.bias_hh_l0 f4 [256]
000000 57 ef 27 be 70 69 d6 bd 39 85 4d bd da 7b b7 3c
       -0.16399895 -0.10469329 -0.05017588 0.022397924
000010 0e 70 e0 bd 54 26 cc bc 99 e1 5d be 39 4f 47 be
       -0.10958873 -0.02492062 -0.2166809 -0.19463815
000020 74 a6 e3 3d 79 ad 05 be a2 ba 38 bb a6 be 88 3c
       0.11115733 -0.13054456 -0.0028187414 0.01669247
000030 58 db 62 be dd 7c b2 bd 5c 8b 70 be 56 e2 63 3d
       -0.22153986 -0.08715222 -0.23490661 0.055635773
000040 87 e4 4e be eb ca 9c 3c b1 84 d9 bd 6b a0 1a be
       -0.20204364 0.019139728 -0.10621012 -0.15100257
000050 6f 48 9a be 7f 9f 53 bb c5 d0 c4 bd c0 ce f9 bc
       -0.30133387 -0.0032291112 -0.09610132 -0.030494094
000060 ab e3 30 3d 63 23 14 be 55 06 58 bd 58 4a ad bd
       0.04318587 -0.14466624 -0.052740414 -0.084614456
000070 24 58 92 3d 41 d1 11 be 14 2b 09 bc 49 85 4b be
       0.07145718 -0.1423998 -0.008372087 -0.19875063
000080 bd e6 9d bd 51 f6 af 3d 6d 4b 53 bb 9f df 94 bd
       -0.077100255 0.08591903 -0.0032241002 -0.07269215
000090 c6 74 5d be e0 5c bd bc 6f b5 ab bd c8 1b a0 bb
       -0.21626577 -0.023115575 -0.08384215 -0.0048861243
0000a0 6c ec 34 bd 47 0c d0 3d 90 50 d2 bc 18 55 44 be
       -0.044170782 0.10158592 -0.02567318 -0.19173086
0000b0 13 6a 75 be b2 58 9d bd 62 a5 8b bd 35 a3 27 3d
       -0.23966245 -0.07682933 -0.06818654 0.04092713
0000c0 0d 95 1d be 80 c3 f4 bd d7 cc 5f 3d c1 8a 78 37
       -0.1538889 -0.11951351 0.05463871 1.4814258e-05
0000d0 40 c9 38 be de ec dd bd 68 af 37 3d 21 3c 96 bd
       -0.18045521 -0.108361945 0.044845015 -0.073356874
0000e0 f2 a5 7b bd 32 68 a2 3d c8 4b e9 bd 14 d9 95 be
       -0.061437555 0.0793003 -0.11391407 -0.2926718
0000f0 74 a4 a1 bc fa 7f aa bc 09 dd 7b 3c 59 28 02 3d
       -0.019731738 -0.020812977 0.015372523 0.03177676
000100 1f c5 0e be e4 ae da 3c 10 8c 03 bd a3 d9 58 3c
       -0.13942383 0.026694722 -0.032115996 0.013235482
000110 8e 96 4a 3d a2 74 31 be 63 93 3a bd fd 56 41 bc
       0.049459986 -0.17329648 -0.045550715 -0.011800525
000120 5a 93 88 bd 04 bc 5f bd 6f 10 23 be 30 83 1b be
       -0.0666873 -0.054622665 -0.15924238 -0.15186763
000130 01 57 9a 3d 4e 14 24 be e5 d3 43 bd c6 92 52 bd
       0.07536126 -0.1602337 -0.0478095 -0.051409505
000140 48 ff 32 be 6e a9 fe 3c a4 88 a1 be 30 3b e3 bd
       -0.17480195 0.03108665 -0.3154956 -0.110952735
000150 30 57 b5 be 93 f3 16 be 0b 29 8d be 5a 56 21 be
       -0.3541808 -0.14741354 -0.27570376 -0.15755597
000160 e5 67 55 3d 1f c1 49 be 53 7b 11 be bc 22 5c be
       0.052101035 -0.19702576 -0.142072 -0.21497625
000170 92 c0 48 3d e4 e4 ec bd f3 2b 69 bd 8a c2 86 be
       0.049011774 -0.11567095 -0.05692668 -0.26320297
000180 c0 e1 53 be 99 e9 93 3d 57 eb e0 bd f6 50 9d bd
       -0.20691586 0.072222896 -0.109823875 -0.07681458
000190 6f 99 6a bd ec a9 f8 3d db 8b ee 3c 48 ce 68 bb
       -0.057275232 0.12141785 0.029119423 -0.0035523344
0001a0 40 6d 14 be bb 50 b0 3d 07 07 b9 bc 91 cb ac be
       -0.144948 0.08609148 -0.022586359 -0.3374906
0001b0 c9 3a 75 be ad de 5b bd ec 8e a7 be f2 4c fd bd
       -0.23948206 -0.053679157 -0.32726228 -0.12368192
0001c0 6e b6 09 3d 67 e0 d6 3c 35 97 16 3d 8e 58 b2 bd
       0.033621244 0.02623005 0.036765296 -0.08708297
0001d0 96 72 f0 bd 84 d7 9e be c7 37 35 3e ea 34 ba bd
       -0.117406055 -0.310238 0.17697059 -0.09092124
0001e0 b5 f8 75 ba 09 a0 bc bd af 71 61 be 67 be ba bd
       -0.00093830685 -0.09210212 -0.22016023 -0.091183476
0001f0 78 1e 0b 3e 45 ce 76 bd 95 f8 04 3d 5c e6 83 be
       0.13585842 -0.060255308 0.03246363 -0.25761688
000200 9e e7 9d bc 4b bc 6c 3c 1a 70 90 3c 31 07 44 be
       -0.019275483 0.014449189 0.01763158 -0.19143368
000210 20 c8 80 3d c6 75 92 3d 23 9f cb 3c c6 91 05 3d
       0.06288171 0.0715137 0.024856156 0.032609724
000220 de 5d c1 3d 56 c1 bf 3c 90 7f 11 3e c1 87 cf 3d
       0.09441732 0.02340762 0.14208817 0.10133315
000230 26 4f b1 3c 06 3d a3 bd d3 15 e6 bd d0 fe 99 bd
       0.021644186 -0.07970624 -0.112346314 -0.07519305
000240 3a ea aa bb 23 47 ba bb d0 d2 0d be 60 60 fa bd
       -0.0052159103 -0.0056847497 -0.1384995 -0.12225413
000250 a5 fb 74 3d 40 31 0c 3d f7 85 5f bd 12 08 d8 bd
       0.0598103 0.034226656 -0.05457112 -0.10548414
000260 2b 18 01 3d ce 9f 88 3d e3 f6 fd bb 46 fe 92 bd
       0.03151719 0.06671105 -0.0077503785 -0.07177405
000270 f8 05 0f 3e f4 36 bd bd e9 c9 d9 3d 4d 97 23 3e
       0.1396712 -0.09238997 0.106342144 0.15975685
000280 3b 62 a2 bd 26 50 1c 3d 07 9a 4d bd fb a1 73 bc
       -0.07928892 0.038162373 -0.05019572 -0.014870162
000290 6d 36 1b 3c 9b da 9e 3a 6c 7e 14 be 62 92 49 bc
       0.009473425 0.0012119593 -0.14501351 -0.012302967
0002a0 31 23 d5 3d 77 79 cd bd 2c ef d2 3d dd 48 bf 3c
       0.10407103 -0.10032933 0.10299525 0.023350174
0002b0 89 68 02 bd 2e 54 9d bd d1 70 8a bd b6 11 18 be
       -0.031837974 -0.076820716 -0.06759799 -0.14850506
0002c0 03 ee c3 bd 56 09 8d 3d 61 30 4a bd e9 e0 80 3d
       -0.095668815 0.06886546 -0.049362544 0.06292898
0002d0 a7 41 88 bc 84 9b 3c 3d 41 86 21 be a5 96 dc bd
       -0.016632868 0.04604675 -0.1577387 -0.10770921
0002e0 34 62 2f 3d 91 b2 ac 3c c4 61 39 3d 2d 8c c2 3b
       0.042818263 0.02108124 0.045259252 0.0059371204
0002f0 e0 61 d5 3c 8d a0 7e 3d 2b 91 ed bb e6 6d aa bc
       0.026047647 0.062164832 -0.0072499714 -0.020804357
000300 52 98 84 bc 44 3b 41 3d 70 c0 33 3d f5 1c ed 3d
       -0.016185913 0.04717566 0.043884695 0.11577789
000310 35 43 88 bd 26 7a 19 be bc 93 2c be 83 5c 35 bc
       -0.06653444 -0.14988002 -0.16853231 -0.01106942
000320 5f a5 b4 bd 16 f2 e0 bd c9 8b 35 be cf 47 1a be
       -0.088206045 -0.10983674 -0.17729105 -0.15066455
000330 23 97 c5 bd 1a c6 af 3c 84 c7 8e be 1a 6e 8b 3d
       -0.09647968 0.021456767 -0.27886593 0.068081096
000340 b0 2f d2 bc ea 80 0c be 40 6f 14 be 38 d5 1e be
       -0.025657505 -0.13721052 -0.14495564 -0.15511024
000350 b4 62 4c be 03 1f a2 3d 6e c7 02 be de 57 1a bd
       -0.19959527 0.07916071 -0.12771389 -0.037681453
000360 66 55 a8 3d 5e d9 90 3d e6 bc 72 bd 9f aa 33 be
       0.082194135 0.070727095 -0.05926218 -0.17545556
000370 10 53 4f bd 1d 03 5a be 3e 15 13 be a0 a1 82 be
       -0.050616324 -0.2129025 -0.14363572 -0.25513935
000380 86 5f 90 bc 2d 38 aa bd a2 01 af 3b 05 da 86 bd
       -0.017623674 -0.08311496 0.005340771 -0.06584553
000390 5a 9d 73 be e7 3f f3 3d c0 c0 ca bd 95 90 a3 bd
       -0.23790494 0.11877423 -0.099000454 -0.07986561
0003a0 37 cc a3 bc 3e 00 f6 bc e5 c4 73 bd d9 62 d3 bd
       -0.019994838 -0.030029412 -0.059513945 -0.10321588
0003b0 8f ae c3 bd c8 0b 1b 3c 2b 4b b3 3d 83 53 f5 bd
       -0.09554779 0.009463258 0.087545715 -0.11978819
0003c0 d4 48 f7 bd 5f f8 bd bd 83 f8 45 3d a3 bc 65 bd
       -0.12074438 -0.09275889 0.048332702 -0.0560881
0003d0 a9 ae 83 be 83 a5 0e be 5d 8a 3f bc 26 fe f2 bd
       -0.25719193 -0.13930325 -0.011690703 -0.11864881
0003e0 b2 0e 9d 3d 3f 2e f0 3c de 79 f6 bd df 75 fd bd
       0.076688185 0.029318927 -0.12034963 -0.12375998
0003f0 1b 1b 4e bc af ee c9 bd b0 41 39 bd 3d 81 2e be
       -0.012579705 -0.098599784 -0.04522866 -0.17041488

lstm.weight_ih_l1 f4 [256, 64]
000000 df eb dd bc 8a 8c 5e bd 89 64 8c bd db 13 35 3e
       -0.027090011 -0.054333247 -0.06855113 0.17683356
000010 f6 26 fc 3c 6d 50 7e bd 69 9a 34 3d e5 35 88 3c
       0.030780297 -0.06208842 0.04409257 0.016627261
000020 e9 01 f6 bd eb 48 9c bd db 8c 9e 3d 3e d2 3c bd
       -0.12012083 -0.076310955 0.0774171 -0.04609894
000030 dd f1 63 be 9f 7d c8 3d 4a d1 41 3e ff 60 d2 3a
       -0.22260232 0.09789585 0.18927494 0.0016050636
000040 f9 c8 b8 bc 07 99 d4 bc 27 ae f5 3d 83 01 ef bd
       -0.022556769 -0.025951875 0.119961075 -0.1167021
000050 3a 03 fb bb c4 3e 50 be 28 ad 70 bd 8f fa 2f bc
       -0.0076602967 -0.20336443 -0.058758885 -0.01074089
000060 bb 00 e8 bd 18 65 85 bc 04 d9 b8 ba 42 b8 40 3e
       -0.11328264 -0.016283557 -0.0014102762 0.18820289
000070 7d d7 3f be 2c 59 fc bd ee 9e 57 be d3 db 8a bd
       -0.18734546 -0.12321696 -0.2105672 -0.067802094
000080 c5 26 c5 3d a9 f0 fc bc f7 12 e8 3c cb f7 bf 3d
       0.09626535 -0.030876474 0.028329356 0.09373435
000090 31 ed e3 bc 26 ee a5 3d 3e 7e 6d 3d d5 d9 91 bc
       -0.027823063 0.08102064 0.057981722 -0.017804066
0000a0 dd 01 01 be 4c a1 a4 3d 1d 99 0c be 2a b4 48 bd
       -0.12598367 0.080385774 -0.13730283 -0.048999943
0000b0 3e 1e c6 bd 27 c5 41 bd 90 77 c1 3d b0 72 7f 3e
       -0.09673737 -0.04730716 0.09446633 0.24946094
0000c0 aa a0 41 3c d1 ec 0d bd 17 06 b7 3d e0 49 15 be
       0.01181809 -0.034649674 0.089367084 -0.14578962
0000d0 91 1b cd bd 85 4b 98 3d f3 a9 cf 3d 01 1b 46 3e
       -0.100150235 0.07436279 0.10139837 0.19346239
0000e0 04 b4 70 3d 98 48 d8 bd 0e d8 0c 3e cc 38 07 3e
       0.058765426 -0.10560721 0.13754293 0.1320526
0000f0 44 59 14 bc d0 32 e8 bd 1d 5f 14 3e c2 f1 bd 3d
       -0.009054486 -0.11337817 0.14489408 0.09274627
000100 dc 3f 04 3d 74 24 4f bd 1c d5 40 bd 53 79 26 3e
       0.032287464 -0.050571874 -0.047078237 0.16257219
000110 53 a0 98 3d f8 7b 13 bd 72 0e 89 bd 81 4f ce bd
       0.074524544 -0.036006898 -0.06692208 -0.10073758
000120 d4 a7 f3 bd 69 7e 5c bd b5 5c 86 3d d8 b9 0d be
       -0.11897245 -0.05383149 0.06560651 -0.13840425
000130 a7 79 1e 3e 3b 47 8a 3d 9e 8d 2b 3e 27 37 18 3c
       0.15476094 0.067518674 0.16753241 0.009290493
000140 a2 72 aa bd 5a df c7 3d 6c b7 96 bd a2 10 7e 3d
       -0.08322646 0.09759398 -0.07359204 0.06202758
000150 f7 29 e7 bd 02 8f d7 3d 8f 06 fa 3d a1 27 de 3c
       -0.11287301 0.105253235 0.12208282 0.027118506
000160 b7 ef a6 3c 88 4b b0 3d 14 fc ee 3c 0e a9 98 bd
       0.020377977 0.086081564 0.029172935 -0.074541196
000170 c9 77 51 be 07 c7 5a 3d 34 e3 50 be 10 c2 90 bd
       -0.2045585 0.053412464 -0.20399171 -0.070682645
000180 ab 47 7a 3c aa 84 40 bd 3b 85 2e bc 6a 83 fa bc
       0.015275876 -0.04700152 -0.010651882 -0.030580241
000190 ef 4c 53 be b4 e8 50 3d c7 c1 89 3c 04 2d c7 3d
       -0.20634817 0.051003173 0.016816033 0.09725383
0001a0 44 d0 49 bd ea 78 2b 3d 1f 1f 27 be 48 b1 58 3c
       -0.049270883 0.04186336 -0.16320466 0.013225861
0001b0 d3 64 f9 bc c3 67 8f 3c ec 7f c9 3d e4 da 1f 3e
       -0.030443585 0.017505532 0.09838852 0.15610844
0001c0 28 f7 d0 39 d0 eb 6f bd 9b 4b 84 3d 86 ae d3 bd
       0.00039856997 -0.058574498 0.06459733 -0.10336022
0001d0 8c 95 b7 3b e1 3b b6 3c 26 fd 51 3e 8f 4a 3b 3e
       0.005602544 0.02224535 0.20506725 0.1829016
0001e0 62 3e 98 bd 84 6b 0f 3e 88 ae 29 be ae c4 c0 3c
       -0.074337736 0.14005858 -0.16570485 0.023531284
0001f0 46 2c 06 be c0 b0 98 bb b8 40 d4 3d 7e 72 08 3e
       -0.13102826 -0.004659742 0.103639066 0.13324925
000200 82 30 73 3c 0b 0d 0b be b6 a3 81 bd 0c ad 7d bd
       0.014843108 -0.13579194 -0.063300535 -0.06193261
000210 6b 90 c0 bd e6 a0 80 3e f7 4a 17 3d 15 f8 00 be
       -0.094025455 0.25122756 0.036936726 -0.12594636
000220 03 f7 ff bd ff 2f be 3d d0 8f 9b 3c 5c f5 58 be
       -0.124982856 0.09286498 0.018989474 -0.21187347
000230 67 a3 e1 bc 7e d4 de 3c ed cb 8f 3d 6c 34 a1 bd
       -0.027543737 0.027200934 0.07021318 -0.07871327
000240 64 99 3b 3d ae e0 b3 3d 7b 37 41 bd 2e e7 95 3d
       0.04580058 0.087830886 -0.04717205 0.07319485
000250 58 60 ac 3d 1c 3d 95 3d 0d 38 14 bd ef 2e ff 3d
       0.084168136 0.07287046 -0.036186267 0.12460124
000260 bc 8c 97 3d 07 68 85 bb b4 12 21 3e 1d 15 56 3b
       0.0739989 -0.004071239 0.15729791 0.0032666393
000270 59 56 c9 bd a7 10 5d 3e 84 0b 29 be 31 e7 c6 bd
       -0.09830923 0.21588384 -0.16508299 -0.09712065
000280 ed 00 8f 3d 5b 28 82 bd 03 2c 09 be f5 4f cd bd
       0.069825985 -0.063553534 -0.13395695 -0.10025016
000290 12 f6 6a 3b 8a e9 2e 3d c4 ba 0f 3e 42 8b 2d 3d
       0.0035852236 0.04270319 0.14036089 0.042369135
0002a0 e3 27 c8 bd c7 62 af bd 08 bd fd bd 24 11 a5 3d
       -0.09773233 -0.08563762 -0.123895705 0.0805991
0002b0 0e 72 bb bc bf 99 a4 3d da c8 89 bd 9d 12 46 bb
       -0.022881534 0.08037137 -0.067277625 -0.0030223497
0002c0 6f 96 ee 3d d0 f5 80 3d 62 ae 0e 3e 30 70 40 bd
       0.11649787 0.06296885 0.1393371 -0.04698199
0002d0 b2 47 09 3c b7 ff 11 3e b7 9a 3b 3d 18 0c ce 3d
       0.00837891 0.14257704 0.045801844 0.100609004
0002e0 25 e7 24 3d 12 fd 0b 3e 73 c5 5a bd f5 b1 89 3d
       0.0402595 0.13670757 -0.05341096 0.06723396
0002f0 18 78 7c bc c9 5d 53 be 14 cd de 3d f2 5e ee 3d
       -0.015409492 -0.20641245 0.10878959 0.11639203
000300 bf c8 f2 3d a0 08 bc 3d e1 e4 7f 3d 64 bb c2 bd
       0.118546955 0.091813326 0.062474135 -0.09508398
000310 13 92 e0 3c 04 ab ac 3d 97 c1 53 bd f6 db c6 bc
       0.027413404 0.08431056 -0.051698294 -0.024274807
000320 0c 49 56 bd 0f 24 19 3e af 0b cf bd f8 53 8d bd
       -0.052315757 0.14955162 -0.1010965 -0.069007814
000330 fb f1 fe bd c1 f5 88 bd f8 bb 3e bd ce 4c 7c bd
       -0.12448498 -0.06687499 -0.04656598 -0.061596684
000340 ed a7 0e 3d 64 c0 11 3d 09 d1 1a bd 10 e2 cb 3d
       0.034828115 0.03558387 -0.037797008 0.099552274
000350 aa f8 5f 3a 05 50 de 3c 6d 88 12 3e d4 04 06 bd
       0.0008543829 0.027137766 0.14309855 -0.03271945
000360 98 83 2b 3d c9 00 8b 3b 51 5e 77 bc 95 52 d5 3b
       0.041873544 0.004242037 -0.01509817 0.0065100887
000370 02 1a 52 3d bc ce a7 3d bb 84 23 bc b2 e8 b7 3d
       0.051294334 0.08193728 -0.009980376 0.0897993
000380 da f0 c5 3c 85 06 b4 bd 56 4e 95 bd 12 f3 fd bd
       0.024162699 -0.08790306 -0.07290332 -0.123998776
000390 a5 c1 23 3d 84 fd 4f 3d 8e de cd bd 0f a8 cf 3d
       0.039979596 0.05077888 -0.100522146 0.101394765
0003a0 e0 f6 49 bd 0a 0a 1b be 35 e1 13 be ef eb 1a 3d
       -0.049307704 -0.15140548 -0.14441378 0.03782266
0003b0 e6 b2 ec bc 0d b3 53 3c 8b cd 68 bd 5c 54 bf bc
       -0.0288939 0.012921107 -0.056836646 -0.023355655
0003c0 d9 3f ca bd 63 f0 14 3d 4f 28 6e 3d f7 3a 35 bd
       -0.09875459 0.036362063 0.05814391 -0.044245686
0003d0 2f db d6 bc a5 74 2f 3d d6 dd 28 3e 75 4d 99 bc
       -0.026227562 0.04283585 0.16490874 -0.018713692
0003e0 92 43 67 3c 28 51 af 3c ec 2b 26 3d 56 cb a3 3d
       0.014115231 0.021401003 0.04056923 0.079977676
0003f0 94 c1 f8 bd 6d 16 b5 bd fc da dd bd e6 8e 34 3d
       -0.12146297 -0.08842168 -0.108327836 0.04408159

lstm.weight_hh_l1 f4 [256, 64]
000000 d5 ff 09 bd 7f e0 cf bd ac 97 04 be bf b9 dc bd
       -0.033691246 -0.10150241 -0.12948483 -0.10777616
000010 3e 04 85 3d 32 77 f4 3d 02 4a 9c 3d 56 1c 0e 3e
       0.0649495 0.11936797 0.07631303 0.13877997
000020 49 fa 2a bd ea 7a a2 bd d8 65 83 bd 8f c0 e8 bd
       -0.041742597 -0.079336 -0.064159095 -0.11364853
000030 ec 2f cc bd 60 32 d5 3d 97 73 ea bd 91 78 8c 3d
       -0.09970078 0.10409999 -0.11447828 0.06858934
000040 30 a6 d0 3d 29 d5 36 be 9a 14 f9 bb ad dc 6a 3d
       0.10187948 -0.17854752 -0.007601333 0.05733936
000050 a1 14 bf bd ef e7 bb 3c 79 86 ae 3d 99 0e 08 3e
       -0.093301065 0.022937743 0.085217424 0.13286819
000060 c9 62 6b ba 7f 3d 03 be 13 f5 80 bd aa b4 71 3c
       -0.0008979259 -0.12816428 -0.06296744 0.014752546
000070 90 c1 32 be 2c 60 97 bc 64 00 0a bc d9 86 86 3c
       -0.1745665 -0.018478476 -0.008422945 0.016421722
000080 32 2b c9 3d 51 59 13 3e b6 0f ec 3d 55 c2 c4 bd
       0.09822692 0.1438954 0.11526434 -0.096073784
000090 39 a0 4c 3e e4 88 ff 3c a4 22 ae 3c 13 3a 02 be
       0.19982995 0.031193204 0.021256752 -0.12717466
0000a0 55 79 00 3c 7a bc 93 bd e1 1e bc 3d d3 df 8e bd
       0.007841428 -0.072136834 0.09185577 -0.06976285
0000b0 a4 5d d0 bc 90 1b 07 be 6b 29 b2 bb e6 2c 7d 3d
       -0.025435276 -0.13194108 -0.0054370663 0.061810397
0000c0 ea bb 6f 3d 9b 1e a0 bd 5e 96 8e 3d 14 15 90 3d
       0.05852882 -0.078183375 0.06962274 0.0703527
0000d0 66 96 ce bd 52 12 0f be 2b af 16 be 5e 7c 4b 3d
       -0.1008728 -0.13971832 -0.14715259 0.049679153
0000e0 9d ea 07 be 34 35 ac 3d db 0f e1 bd d3 d8 a4 bd
       -0.13273092 0.08408585 -0.10989352 -0.080491684
0000f0 3a 8b 7f 3b 69 4e 6e 3c 58 33 79 3d a1 8d bd bd
       0.0038992898 0.014545062 0.06083998 -0.09255529
000100 cc fe d9 3d 8c 77 08 3c cb 6b 79 3d 7e 4a 78 3c
       0.10644302 0.008329283 0.060893815 0.015154479
000110 8f d0 f0 3c 60 73 00 be 02 27 14 3d 00 b8 56 bc
       0.029396323 -0.12544012 0.036170013 -0.013105392
000120 bf 9b 8c bd e3 54 b6 bd 45 0e a8 bb 4e ee 37 3b
       -0.06865644 -0.089029096 -0.005128654 0.0028065625
000130 3d 4f 0d be b8 28 ea bd f0 bd 9e 3d aa 00 ad bd
       -0.13799758 -0.11433548 0.077510715 -0.08447392
000140 8c c3 07 3e 3a 20 cf bc 68 6c 2d 3c 79 6f c4 bd
       0.13258189 -0.025283922 0.010584928 -0.09591574
000150 74 fb 10 3e 73 f3 4e 3d b2 52 a6 3d a3 07 0f 3b
       0.14158422 0.05052514 0.08121242 0.002182462
000160 f8 20 ee bd 59 c0 17 3d e5 2c 8a 3c fd de 95 3d
       -0.11627382 0.03704867 0.01686711 0.07317922
000170 46 f4 f2 3d 2c fe 11 be 03 09 e5 3d d1 16 81 3b
       0.11862998 -0.14257115 0.111833595 0.0039394875
000180 c9 8f ef bc c9 48 1c 3e c3 f0 02 3e 8e d0 03 bd
       -0.029243367 0.1526214 0.12787156 -0.032181315
000190 0d 9c 0a be ab 70 24 bd 3e b4 61 3d 44 aa 26 be
       -0.13536091 -0.04014651 0.055103533 -0.16275889
0001a0 b1 d0 89 3d b7 d8 3b bc 2c 98 cc bd b4 b7 13 3e
       0.06729258 -0.011465243 -0.09989962 0.14425546
0001b0 7f f4 b5 3d ee 1d 05 be 36 14 fc bd cf 59 bb 3d
       0.088845246 -0.12999699 -0.123085424 0.09147989
0001c0 66 47 a8 3d cd 52 ab 3d a3 40 9a 3d 48 39 56 bc
       0.08216743 0.08365402 0.0753186 -0.01307518
0001d0 e1 10 b4 bd d3 e0 e3 bc 06 e9 95 3c aa d9 12 3e
       -0.08792282 -0.027817165 0.01829959 0.14340845
0001e0 cb a7 59 bc e2 48 fd bd 64 19 26 3d 88 d1 bc bc
       -0.013284634 -0.12367417 0.040551558 -0.023049131
0001f0 42 91 ab bc 52 46 99 3d 3a 65 33 3d e9 0e de 3c
       -0.020943288 0.07484116 0.04379771 0.02710672
000200 7f 75 0d 3e aa 0e a0 bd cd 9e 67 3c e5 85 30 3e
       0.13814352 -0.07815297 0.014136982 0.17238577
000210 56 5e 45 bd e8 d8 6f bc d2 4d a5 3a 73 5d 4c 3d
       -0.04818567 -0.014639117 0.0012611693 0.049893808
000220 9c a8 89 bb 87 a8 e8 3d bd 05 1a 3c 58 42 18 3e
       -0.004201008 0.11360269 0.009400782 0.14869058
000230 84 e1 c2 3d 53 7f 75 3d 5f 8a 45 bd e7 bf d1 bd
       0.0951567 0.05993588 -0.048227664 -0.102416806
000240 b0 c5 9c bc 8a 6f 8a 3d f9 d2 fd bd b3 de e8 3c
       -0.019137233 0.06759556 -0.123937555 0.028426504
000250 35 6d 66 bd d7 71 a1 3d 71 5a 33 3d ac 9d fe 3d
       -0.05625649 0.07883041 0.043787424 0.12432417
000260 b9 ce 0c bc 64 0e 3b 3d 74 f9 90 bd 7f d4 ba 3d
       -0.008594208 0.04566802 -0.070788294 0.09122562
000270 54 56 fc 3d c4 93 b3 3d 95 6b 03 bd 08 c1 cd 3d
       0.12321153 0.087684184 -0.03208502 0.100465834
000280 57 0d 79 bd b8 c5 9d bd 8b 34 84 bd e9 3b 59 3d
       -0.060803737 -0.077037275 -0.06455334 0.05303565
000290 25 7a 4f be 26 8b 09 3e a0 ed 72 3c 08 22 f1 bd
       -0.20261438 0.13431987 0.014827162 -0.11774069
0002a0 e6 fe f5 3c 42 d1 dd bd 6c dd 9b 3d d9 db 15 ba
       0.030028772 -0.108309284 0.07610592 -0.0005716659
0002b0 4e 01 99 3d bc 5b 8a 3c a0 8c 1d 3e cf 85 23 bd
       0.07470952 0.016889445 0.15385675 -0.03992253
0002c0 6b ec d5 bd fd e0 77 bd a1 46 36 bd 4b 5b 9f bd
       -0.10445484 -0.0605173 -0.04450095 -0.077810846
0002d0 b0 f0 e6 bc f1 a8 a0 bd 05 9e d1 3b e6 c2 62 bd
       -0.02819094 -0.07844723 0.006397011 -0.05536165
0002e0 d6 d9 bf 3d 16 0b c9 ba 98 88 96 bd e0 60 c1 3a
       0.09367721 -0.0015338387 -0.07350272 0.0014753602
0002f0 5b e4 cd bd d5 01 ca bd 68 84 0f 3e dd 2b 04 3e
       -0.10053321 -0.09863631 0.14015353 0.12907358
000300 01 2d 36 3c 13 6b 0f 3d d5 02 63 bd b8 35 ab 3c
       0.011119128 0.035014223 -0.055422623 0.020899639
000310 b0 fb 38 be dc 0e d0 3b 9d 36 00 be 63 6d 14 3e
       -0.18064761 0.0063494276 -0.12520833 0.14494853
000320 dc 30 b0 3c 50 d8 d8 3c c9 f3 94 bd 63 18 90 3d
       0.021507673 0.026470333 -0.07273061 0.070359014
000330 8f 46 29 bc 4b f2 92 bd 85 ce 80 bd 3a bd bf 3d
       -0.010331764 -0.0717512 -0.062893905 0.09362264
000340 ad 2c e8 bd b1 4a ce bd 33 3b 15 be 12 43 ff bd
       -0.11336646 -0.1007284 -0.14573364 -0.124639645
000350 d9 5b bb 3d 89 57 46 3d 21 4e f1 bd f2 05 70 3d
       0.09148378 0.048423324 -0.1178248 0.05859942
000360 68 e4 46 3c 1c ba 16 bd 38 d0 7a bd ee 4e 38 bd
       0.012139417 -0.03679858 -0.06123373 -0.04499715
000370 43 40 6b bd 61 64 5f bb f9 f3 a6 3d 44 2d 30 3c
       -0.05743433 -0.003408693 0.08152003 0.01075298
000380 7c ce 6b bd 59 f0 fd 3c c1 f6 75 bd 2a ae d7 bc
       -0.057569966 0.030998396 -0.060049776 -0.026328165
000390 e5 af a2 bd 8e 5e cb bd 77 bb be 3d bb d2 90 3d
       -0.079437055 -0.09930144 0.093131 0.07071444
0003a0 23 ea 42 bc 5f 3f 67 bd f1 12 90 3d 91 c9 9f bd
       -0.011896643 -0.05645692 0.07034863 -0.078021176
0003b0 4c 0c 57 3d a9 b9 f5 3c 27 c0 0a 3e 5a 72 4d 3d
       0.05250196 0.029995756 0.13549863 0.050157882
0003c0 12 8e 3f be 22 33 6e bd 83 81 c1 3d a8 fd 87 bd
       -0.1870654 -0.058154233 0.094485305 -0.06640178
0003d0 2f ce f4 bd 2c 14 b3 bc 60 56 b0 3d fb a0 6c bd
       -0.11953389 -0.021860205 0.08610225 -0.05777071
0003e0 e3 9d b1 3c bb c1 96 bd 09 d5 d1 3c d2 62 52 bd
       0.021681732 -0.0736117 0.025614278 -0.051363774
0003f0 75 73 2a bd b7 f5 29 bd 5a 44 f3 3d 6e 48 e1 bc
       -0.041614015 -0.041494098 0.118782714 -0.027500357

lstm.bias_ih_l1 f4 [256]
000000 39 42 03 be bd 6a 9d be 84 3b 31 be 47 d8 64 be
       -0.1281823 -0.30745497 -0.1730786 -0.22348128
000010 48 bc 4a bd 0d eb 22 be 05 f1 b3 be 9e 21 b1 bd
       -0.049495965 -0.15909977 -0.3514482 -0.0864899
000020 5f b4 b4 be 7b a8 c2 3d 4b 46 02 be 68 b2 87 bc
       -0.35293862 0.09504791 -0.12722127 -0.016564563
000030 89 1e e6 bd 7b aa a1 be 27 32 a7 bb c1 51 ba bd
       -0.11236293 -0.3157538 -0.005102414 -0.090976246
000040 6e c9 23 3e 5d 54 31 be 8c 2c a8 bc d0 0e 95 bd
       0.15994808 -0.17317338 -0.020529054 -0.07278216
000050 5f 1a d5 bd bb d0 ec bd 39 37 69 be 59 a6 8e bd
       -0.104054205 -0.1156325 -0.22774972 -0.06965322
000060 ef 1f 81 be 0f 70 03 be 18 37 46 be 6b 8a 50 be
       -0.25219676 -0.12835716 -0.19356954 -0.20365302
000070 64 64 2f 3c e6 ce 61 3d 5a f5 98 bc 82 e8 92 be
       0.010705087 0.055128954 -0.01867168 -0.28693014
000080 52 b6 84 be d4 46 8b bd 4b 21 67 be b6 e4 f5 bd
       -0.2592035 -0.06800619 -0.22571294 -0.12006514
000090 60 0c f4 bd b7 d5 d7 bd c3 e0 0e be ac 39 86 be
       -0.11916423 -0.1053881 -0.13952927 -0.26215875
0000a0 cd ef 9c be 48 01 97 3b fe e6 64 bd 49 48 5c bd
       -0.30651703 0.004608307 -0.055884354 -0.053779874
0000b0 ac a7 a7 bd ae c2 0f be 24 0a 14 be 8d 13 48 be
       -0.08186278 -0.14039108 -0.14456993 -0.19538708
0000c0 1b 16 e8 3d 23 a2 34 bd 45 c7 0b be 85 00 77 3d
       0.11332341 -0.044099938 -0.13650234 0.06030323
0000d0 e6 bc 62 be 69 f8 d2 bb ea a2 38 bd 70 c5 d2 3d
       -0.22142372 -0.006438304 -0.045077242 0.102915645
0000e0 8e d3 93 be e3 b8 ec bd 0a b2 41 be a4 ef ce 3d
       -0.2887234 -0.11558702 -0.18915573 0.101043016
0000f0 aa ca c9 bc 21 81 9d be 5b 22 e1 be a6 89 b9 bd
       -0.02463277 -0.3076258 -0.43971524 -0.090594575
000100 b9 66 9b bd 8d b7 75 be a0 3f 49 bd 51 8b 5c be
       -0.07587952 -0.239958 -0.049132943 -0.2153752
000110 01 df d1 3d e2 3e 8d be a0 72 ba be c0 73 04 be
       0.10247613 -0.27587038 -0.36415577 -0.1293478
000120 d2 46 8e be e2 dc fa 3d 87 14 a3 bd e1 e4 6d 3e
       -0.27788407 0.12249161 -0.079629 0.23231842
000130 5a e7 96 bd 96 f2 e7 bd 37 32 19 be 45 28 d3 bd
       -0.073683456 -0.113255665 -0.14960562 -0.10310415
000140 8b 9b 5d 3e 15 68 5a be a0 6a 90 3c 70 f8 3e 3a
       0.21641366 -0.21328767 0.017628968 0.0007284945
000150 54 2a 43 be 7e 45 1f be c0 7d 38 be be 41 a6 bd
       -0.19059116 -0.15553853 -0.1801672 -0.08118008
000160 41 64 17 bd e9 ac 13 be 32 ba 84 3c 81 9c 54 be
       -0.036960844 -0.14421429 0.016202066 -0.20762827
000170 46 b3 73 be 54 c9 12 bd ab 17 73 3d bb 19 8b be
       -0.23798856 -0.035836533 0.059348743 -0.27168068
000180 22 29 60 be ad bf a9 be aa 5a 80 bd 26 3d f9 3c
       -0.21890691 -0.3315405 -0.06267293 0.030424666
000190 55 58 25 bd 63 49 0c be c1 6c 91 bd 47 4c e6 bd
       -0.040367443 -0.1369987 -0.07100821 -0.112450175
0001a0 3d cb bd be 8c a7 06 3e e1 ca 0d be c1 6d 8a 3c
       -0.3706912 0.13149852 -0.13846923 0.016898038
0001b0 bd 29 08 be a0 32 62 be b3 64 9b bc ba e7 8c bd
       -0.13297172 -0.22089624 -0.018968916 -0.06880136
0001c0 70 2a 8a bd 1a 78 35 3d bd b6 68 be c3 b4 6d be
       -0.067463756 0.04430399 -0.22725959 -0.23213486
0001d0 ed 15 52 be 30 23 38 be a1 74 0b be c0 17 af 3b
       -0.20516177 -0.17982173 -0.13618709 0.0053434074
0001e0 2c 2c e1 bd c5 5e 30 be 5e b5 21 be 5e e0 90 3d
       -0.10994753 -0.17223652 -0.15791842 0.07074045
0001f0 81 6b 02 be 3c 98 14 be a7 93 b1 be c0 e1 16 be
       -0.12736322 -0.14511198 -0.34682962 -0.14734554
000200 48 3c 90 3c 46 1a 6f bd 92 60 06 3d 65 3e ea bb
       0.01760687 -0.058374666 0.03280694 -0.0071485513
000210 5e 19 c2 bc ed d3 66 bd 89 58 b4 bd ec 72 74 3d
       -0.023693737 -0.056354452 -0.08805949 0.05967991
000220 4c 3d dd bd 04 e2 71 bb 2b 24 95 bd ac dd 90 bc
       -0.10802707 -0.0036908397 -0.07282289 -0.017683826
000230 8b 54 c6 3b 93 df 00 3d d8 c8 93 3d 2d 71 f8 3c
       0.006052559 0.031463217 0.07216042 0.030327404
000240 bb c0 d1 3d 23 8f 2f bd df 82 58 bd be 47 89 3d
       0.102418385 -0.042861115 -0.052859183 0.06703137
000250 5c 23 16 3d 02 dc b1 3d 60 8b 06 bd 14 b5 cb bc
       0.036654815 0.08684541 -0.032847762 -0.024866618
000260 d1 49 3b bd 9a 83 79 bd 50 3b 1f bd 4a 81 26 bd
       -0.045724694 -0.06091652 -0.038874924 -0.040650643
000270 63 52 a2 3d d3 64 27 3d 2d 50 7f bc 80 5f 3f 3d
       0.0792587 0.040867638 -0.01558308 0.046721935
000280 30 c0 1d bd 2c df 34 3c 3f 2d db bc 01 29 a9 3d
       -0.038513362 0.011039536 -0.026754973 0.08259774
000290 5a 4a ab bb dc 78 22 bd dc 31 24 bd f5 e7 e0 3c
       -0.0052273693 -0.03966604 -0.040086612 0.027454356
0002a0 fe c3 86 bd a7 94 a2 bd ae 5e ac 3c ce 41 b7 bc
       -0.06580351 -0.079385094 0.02104124 -0.022370245
0002b0 d1 55 88 3d 8d 78 a0 3c 64 9d 04 3d 78 47 27 3b
       0.06656993 0.019588733 0.032376662 0.0025524776
0002c0 13 ba d1 3d 67 69 a0 3b cf 4a 97 bd 25 56 98 3d
       0.10240569 0.0048953774 -0.073873155 0.07438306
0002d0 42 1f ce 3c 3c d0 87 3c a9 c6 56 3d fc ac 07 3d
       0.02516139 0.016578786 0.05243555 0.033123955
0002e0 63 1d 94 bb ed 09 55 bd 3f 83 d0 bc 4b 71 95 bd
       -0.0045201047 -0.05201142 -0.025453208 -0.072969995
0002f0 ce b9 d8 bd ab 7a df bb a0 c3 4d 3d 7e d8 87 bd
       -0.105823144 -0.006820043 0.05023539 -0.066330895
000300 6a fe 86 3d 05 44 66 be 85 2c 95 be fc cd b9 bd
       0.065914944 -0.22486885 -0.29135528 -0.090724915
000310 ac 40 82 3c bd 62 b8 bd d3 8d 28 be a9 b2 35 be
       0.015899979 -0.09003208 -0.16460352 -0.17743935
000320 df e9 a9 be 2a 18 90 3d 6b 30 02 be b4 cc d7 bc
       -0.33186242 0.07035859 -0.12713782 -0.026342727
000330 55 88 d0 bd 48 fc 7c be c0 89 a1 bc 65 8d 91 be
       -0.10182253 -0.24705613 -0.019719005 -0.28428188
000340 ad 7a 93 bc c1 b2 21 be 29 ee 93 3c d5 92 51 bd
       -0.018002832 -0.15790845 0.0180579 -0.05116542
000350 ed 3d 99 be 20 d3 dc bd 29 24 22 be 0c e0 45 bc
       -0.29930058 -0.107824564 -0.15834107 -0.012077343
000360 02 83 9d bd 7c 5b 95 bb 58 ce 46 be 5e 68 08 be
       -0.076910034 -0.004558025 -0.19414651 -0.13321063
000370 97 b8 ce 3c 3e 5c 45 bc 3a a1 bd 3c e7 f4 59 be
       0.025234504 -0.012045918 0.023148168 -0.21284829
000380 7a 71 80 be 32 b0 2e bd 7a c9 94 be 9e 62 d6 bc
       -0.25086576 -0.0426485 -0.29059964 -0.026170071
000390 a7 80 51 be d2 09 45 be 4c d2 1e be b2 dd b7 bd
       -0.20459233 -0.19242027 -0.1550991 -0.08977832
0003a0 ab 59 91 be 2c ea cf bd fd 25 25 be 43 04 80 bd
       -0.28388724 -0.101520866 -0.16127773 -0.06250813
0003b0 51 00 8c bd ba 90 c6 bd 79 6d 69 be 4f 99 e0 bd
       -0.06835998 -0.09695573 -0.22795667 -0.10966741
0003c0 10 7f 11 bd 17 c0 fb 3d 64 9d 1b be 0b c0 0a bc
       -0.035521567 0.122924976 -0.15196759 -0.008468638
0003d0 1d 27 27 bd 1d 63 35 bd 3f 7b 27 be 1a 48 b7 bd
       -0.040808786 -0.044283975 -0.16355608 -0.08949299
0003e0 36 9c 8f be 14 9a 04 bd d6 d9 60 bc cb f6 0b 3e
       -0.28048867 -0.032373503 -0.013723811 0.13668363
0003f0 3e d2 2f be 4f 0a d1 bd b1 8f ce be 3a d6 20 be
       -0.17170045 -0.10207044 -0.40344003 -0.15706721
