artifacts/lstm/20260203_093121/best_model.pt (torch, 260344 bytes, 13 tensors)

lstm.weight_ih_l0 f4 [256, 7]
000000 77 0e 8f 3d f7 24 14 be 97 8b fc bd 5a fb 99 bd
       0.06985181 -0.14467226 -0.12331312 -0.07518645
000010 d7 49 50 3d 01 b1 66 be 09 2e 61 3d 47 6f d1 bc
       0.05085167 -0.22528459 0.054975543 -0.025565756
000020 b2 9c c0 bd d2 89 e3 3d 2f af dc bb 69 17 15 3d
       -0.09404887 0.111102715 -0.0067347507 0.03639928
000030 fa d1 d9 bd 53 0f 21 be c7 d2 5b 3d e3 2a 55 bd
       -0.10635753 -0.15728502 0.05366781 -0.052042853
000040 92 84 b9 3d a8 5c 40 bc a3 6e af bd 1b 67 59 3d
       0.09058489 -0.011740841 -0.08566024 0.053076845
000050 64 df 8a 3c a4 19 b5 3c 26 30 d3 bd 63 cc e4 3d
       0.016952224 0.022106953 -0.10311918 0.11171796
000060 b9 92 38 3d ae fe c0 3d 48 ca ba bd 26 77 4d ba
       0.0450618 0.09423576 -0.09120613 -0.0007837884
000070 4e 58 1c 3d 21 f9 48 3d 45 c2 69 3d 3d 5a b1 bd
       0.03817015 0.049065713 0.057070035 -0.0865979
000080 c0 d3 3a 3e 4e bf 11 3d c3 84 2b 3c c0 73 1d 3d
       0.18244839 0.035582833 0.010468665 0.038440466
000090 db 1d 33 be e5 8f 74 bc dc 52 8b bd 2d e8 b3 3d
       -0.17491858 -0.014926885 -0.068029135 0.087845184
0000a0 a3 c9 79 3c d1 7b 06 bd 79 5b 95 bd 5d 1a 25 bd
       0.015245828 -0.032832924 -0.07292838 -0.040308345
0000b0 d4 9f a2 bd ea 31 e3 bb c3 01 3e 3e 36 fe 84 be
       -0.07940641 -0.0069334405 0.1855536 -0.25975198
0000c0 f5 d6 3f be ea e0 87 bc d1 a0 15 bd 2f 7a a2 3d
       -0.18734343 -0.01658674 -0.03653032 0.07933461
0000d0 94 72 26 be 77 eb 2f be ad 0e 91 3d c6 18 99 bd
       -0.16254646 -0.17179666 0.07082877 -0.07475428
0000e0 90 a1 c4 bd 3b 62 23 be a2 76 19 be 34 81 fa 3b
       -0.09601128 -0.1595544 -0.14986661 0.0076447967
0000f0 de aa 35 bc e3 5f fe bc 06 3b 2a be 37 57 e7 bc
       -0.011088101 -0.031051582 -0.16624078 -0.02823983
000100 46 bc 07 bd 8b 70 a0 3d f4 13 09 bc 97 02 a0 bd
       -0.033138536 0.07833966 -0.008366574 -0.07812994
000110 eb d9 cb 3c 20 5d f8 bd b0 fd f6 bd 74 d7 08 be
       0.024884185 -0.12127137 -0.12060106 -0.13363439
000120 29 f4 a5 bd 40 32 0b 3e d0 1a ab 3d 97 a3 dd 3d
       -0.081032105 0.13593388 0.083547235 0.10822218
000130 65 bd 03 be 65 a5 2b be 8d c4 85 3b d5 f8 85 3c
       -0.12865217 -0.16762312 0.0040822686 0.016354004
000140 81 10 99 3d ed 1e 45 be b4 8d a3 3d 95 a6 d8 3d
       0.07473851 -0.19250078 0.07986012 0.10578648
000150 05 0b 8d 3c fa 4a 00 be 60 44 5c bd 6b 20 83 bd
       0.017217169 -0.12528601 -0.053776145 -0.064026676
000160 cf 45 16 be 10 57 85 bd 61 00 22 3d fd 44 5e bd
       -0.14675067 -0.065107465 0.039551143 -0.05426501
000170 7a c5 ea 3d 02 65 69 3b 93 3b 1e bd 97 c1 f9 3d
       0.11463447 0.0035613184 -0.038631033 0.121951275
000180 7e ad a2 bd de 08 10 bd 3b 28 c7 bd 96 ef 01 bd
       -0.07943247 -0.035164706 -0.0972447 -0.031722628
000190 7b 1c 27 bd 5e af 0a be e0 74 b6 3d 2e 1f 6b bd
       -0.040798645 -0.1354346 0.08909011 -0.057402782
0001a0 cf 6d 05 be b5 6c de 3d e1 2b 0d 3e 76 b3 54 3e
       -0.1303017 0.10860578 0.1378627 0.20771584
0001b0 93 ea f0 3d 28 bc 9f 3d a8 dc 80 3d e2 2f 4b 3e
       0.117634915 0.0779956 0.06292087 0.19842485
0001c0 ab e4 9d bc 26 af 5d bc 3e b7 01 bd 03 48 40 be
       -0.019274076 -0.013530528 -0.031668894 -0.1877747
0001d0 2b 38 bb bc 99 ea 35 bc 7f 23 96 bc c0 e0 2b bd
       -0.022853931 -0.011103296 -0.018327473 -0.041962385
0001e0 65 a6 3c 3d 4a 56 00 bd 5f 22 b8 3d 32 83 3f 3d
       0.046057124 -0.03133229 0.08990931 0.046755977
0001f0 e1 0b 00 bd e9 6d 73 bd 33 4a 4f be 68 20 88 bd
       -0.03126133 -0.05943099 -0.20243149 -0.06646806
000200 5d a6 9a bd ad 8b b2 3d 44 19 c1 3d 43 88 4b 3d
       -0.075512625 0.08718047 0.09428647 0.049690496
000210 6a 8e 72 bd 02 ab 1e be e1 e9 cc 3d 95 3e 25 3e
       -0.059217848 -0.15494922 0.10005546 0.16137154
000220 ff 4d 05 bd 96 f8 5a bc c2 3a 97 bd 26 3e 8a bd
       -0.032545086 -0.013364932 -0.07384254 -0.06750135
000230 ae 02 f8 3c 26 cb 32 3e d5 f2 1e 3d 2f 0c 02 3e
       0.030274715 0.17460307 0.0388058 0.1269996
000240 22 e2 be 3d 9c ef 58 3e 27 20 18 3e 79 d6 03 be
       0.09320475 0.21185154 0.14856015 -0.12874784
000250 ce f4 ec bb 7e ed f7 bc bd 7b 01 3e 7b 28 8d 3d
       -0.0072313314 -0.030264612 0.12644859 0.06892487
000260 b7 7f 36 3e e3 32 2e 3d 51 7c f5 3d 56 1a a7 bb
       0.17822157 0.042528998 0.11986602 -0.005099575
000270 96 d8 ee bd be 82 3c be ba 1a 77 3d f2 a1 b5 bc
       -0.11662404 -0.18409249 0.060328223 -0.022171948
000280 96 94 ca bd 5a 24 09 be c0 67 86 bc 09 02 6b 3d
       -0.09891622 -0.13392773 -0.016406894 0.057374988
000290 c5 e4 80 bd 95 b4 40 bd 89 ee 13 be 39 b5 de bd
       -0.06293634 -0.047047216 -0.14446463 -0.10874409
0002a0 83 eb ef bd 81 0f 0f be ad 3a 67 3d 63 80 11 be
       -0.11714842 -0.13970758 0.056452442 -0.14209132
0002b0 7a 89 a3 bd b0 7f f4 bc 91 fe bb bd e5 7e 05 be
       -0.07985206 -0.029846042 -0.09179414 -0.13036688
0002c0 ae 36 5a 3d 2e 95 30 be a0 d6 0e 3b 07 ae ed bd
       0.053274803 -0.17244408 0.0021795407 -0.11605459
0002d0 af 49 92 bd 3a 22 ff 3c ec fc 6a 3d fa a8 91 bd
       -0.0714296 0.03114425 0.05737011 -0.07112308
0002e0 c0 4d af 3d 71 3d ea bd da 2f 0a 3d 21 2a e9 bd
       0.085597515 -0.114375 0.03373704 -0.113849886
0002f0 8b e6 c3 bc 08 84 bf bd ea ab e9 bd d8 4c 63 bd
       -0.023913642 -0.09351355 -0.11409743 -0.055493206
000300 8f 63 95 bc 9d 7d 16 be 0f 0d 0a 3d 0c 26 ec 3d
       -0.01823595 -0.14696355 0.03370386 0.11530694
000310 44 87 eb 3d b9 fe b0 bd c1 eb ca 3b ea e9 d9 3c
       0.11500409 -0.086423345 0.006192655 0.026600797
000320 d4 0f 2f 3d f8 4f aa bd fa 0b 62 3d 5e 48 6c bc
       0.042739704 -0.08316034 0.055187203 -0.014421551
000330 69 f8 1d bd 5d 16 90 bd cb 88 e7 3d 5f 44 08 3c
       -0.03856698 -0.070355155 0.11305388 0.008317082
000340 a2 cb c8 3d 73 73 92 bd 35 a3 1c bd 17 cd c1 bd
       0.09804465 -0.071509264 -0.038241584 -0.09462946
000350 d3 f7 88 bd 5a c1 a8 bd 08 5f 4b bd 9c d9 88 bd
       -0.06687894 -0.08240004 -0.049651176 -0.06682131
000360 28 40 5d bb e8 8d cf bc a6 9c dd bd d1 09 74 bd
       -0.0033760164 -0.02533622 -0.10820894 -0.059579674
000370 96 59 a1 3d 40 1e d5 3c 8a d6 af bd 92 f1 94 bd
       0.07878415 0.0260154 -0.08585842 -0.072726384
000380 b7 f4 44 bd 05 c4 b6 bc b7 ae 0d 3d ad 1b d1 39
       -0.04808494 -0.022310266 0.03459045 0.00039884206
000390 f9 f6 17 3d 87 1f 19 3e 9d 7f 0c be e6 b0 45 bc
       0.037100766 0.14953433 -0.13720556 -0.012066102
0003a0 3c ec 83 3d cf 5f f4 3a 33 51 52 be 45 a8 81 bd
       0.064415425 0.0018644276 -0.20538788 -0.06330923
0003b0 d7 83 e6 bd 8d 64 16 bd 36 09 24 be a0 c3 53 be
       -0.11255615 -0.036716986 -0.16019139 -0.20680094
0003c0 47 18 e5 bd 3a aa 99 3b a7 2f e8 3d 58 96 42 be
       -0.11186271 0.004689482 0.11337214 -0.19002664
0003d0 70 db 11 3c 83 81 68 3d b6 6b d7 3d 46 27 56 bd
       0.008902416 0.056764137 0.10518591 -0.052283548
0003e0 da 61 0d bd a3 bf 00 3e d5 fc dd 3d 6c b7 b0 bd
       -0.034517147 0.12573104 0.108392395 -0.08628735
0003f0 e5 cf c0 bd ce 30 c9 3b 29 9f 22 3d ad 0c d9 ba
       -0.09414653 0.006139851 0.03970257 -0.0016559564

lstm.weight_hh_l0 f4 [256, 64]
000000 64 86 ef bd 5b d5 f9 bc c3 95 f1 3d e2 02 9a 3c
       -0.11695555 -0.030497244 0.11796143 0.018800203
000010 df 59 ac 3d 3a 9b cf bb 7e 43 17 be 49 32 54 3b
       0.08415579 -0.006335643 -0.1477184 0.0032378605
000020 ff 19 ff bb ec 76 e0 bc 11 21 d5 bd 04 0a b9 bd
       -0.0077850814 -0.027400456 -0.104066975 -0.090351135
000030 09 03 2c 3d 7c 09 63 3c d5 b5 27 bd e4 a5 81 bd
       0.041995082 0.013857242 -0.040944893 -0.06330469
000040 91 53 5c 3d 93 49 9e bd e4 87 b3 bd cc a9 2a bd
       0.053790633 -0.07728877 -0.087661535 -0.041665837
000050 6f 8a f1 3d 06 8a e0 bd c3 c8 d5 bd 90 fb 60 3d
       0.11793982 -0.10963826 -0.10438683 0.05492741
000060 bf 8f ab bb 8b 11 2a 3c 40 f6 b3 3d 27 ce 4c bd
       -0.0052356417 0.010380159 0.08787203 -0.05000129
000070 c4 e1 97 3d 12 3b e8 bd 40 6d fb 3d b9 85 07 3d
       0.07416108 -0.11339392 0.12276697 0.033086512
000080 63 f4 0d be a2 f2 8a bd 1f 4e 33 3c 85 9d 0b 3c
       -0.13862757 -0.0678456 0.0109439185 0.008521442
000090 2b 51 52 bd 2a 9b 1a 3e d1 81 ce bd e4 a7 5b bd
       -0.05134694 0.15098253 -0.10083354 -0.05362691
0000a0 63 5c d0 3d c0 2a 7e bb 34 fd c8 3c 08 69 d6 bc
       0.10173871 -0.0038782805 0.0245348 -0.02617313
0000b0 4f fc d6 bd a2 55 de 3d ef 36 f6 3d 23 e4 3e be
       -0.10497343 0.10856177 0.120221965 -0.18641715
0000c0 a6 b5 80 3d 51 0c d4 bc 08 92 73 bd 90 e5 0c bc
       0.06284647 -0.02588478 -0.059465438 -0.008599654
0000d0 e0 d8 cf 3d dc 1a f2 bd a7 2f c8 bd 0b 81 95 bd
       0.101487875 -0.11821529 -0.09774714 -0.073000036
0000e0 0a ad 8d bd 79 90 6a 3d b3 97 5d 3d 05 64 22 3e
       -0.0691777 0.057266686 0.05409975 0.15858467
0000f0 59 09 af bc 31 70 ab bd ce ab c6 3d c5 b7 0a be
       -0.021366762 -0.08371008 0.09700738 -0.13546665
000100 d8 9f 0c be bf 5c 9f 3d b2 b0 4b 3d 63 2a 8d 3d
       -0.1373285 0.07781362 0.049729057 0.0689285
000110 36 e7 c3 3c 1c dd df bd f2 ba e6 3d 46 c7 9b bd
       0.02391396 -0.10930845 0.11266126 -0.07606368
000120 5a fa a6 bd 22 88 3a bd 03 da 95 3d 1a 04 07 3e
       -0.081532195 -0.045539983 0.07316973 0.13185158
000130 56 14 09 be 9b 3c 35 3d 34 79 82 39 13 be fc 3d
       -0.13386664 0.04424725 0.00024885836 0.12340941
000140 b2 3d eb bd 29 82 80 3d e9 8a 5a 3c fd e9 a4 3d
       -0.11486377 0.06274826 0.013338783 0.08052442
000150 3d ce ec 3d cf c9 30 3e 43 05 99 bd 29 7c bf bd
       0.11562774 0.17264484 -0.07471707 -0.093498535
000160 aa 1a ef bd a2 7a 91 3d bf 8f 3c 3e 42 38 a9 bc
       -0.11675008 0.071034685 0.1841421 -0.020656709
000170 09 28 ff 3d 03 b7 3d be 1a 8c 2b bc fe e5 98 3d
       0.12458808 -0.18526845 -0.0104704145 0.074657425
000180 c7 39 23 3d 14 41 75 3d ae 86 f7 3c c5 0d a7 bd
       0.039850023 0.059876516 0.030215587 -0.08156923
000190 7a f4 bb 3d af 07 e0 3d a7 a4 8c 3c 4d cd 25 bd
       0.091774896 0.109389655 0.017168356 -0.040478993
0001a0 7e 12 d9 3d 35 2d b9 3d 21 51 19 bd 85 47 90 3d
       0.1059923 0.09041826 -0.037430886 0.07044891
0001b0 de 73 35 3c 3c dd 70 3c 2c 61 05 bd 31 04 5e 3d
       0.011074988 0.014701184 -0.032563373 0.054203216
0001c0 44 ae bf bd fc 5c f6 3b dc 88 a3 3b 06 00 56 3d
       -0.093594104 0.007518409 0.00499068 0.052246116
0001d0 c8 80 52 bd 0a 93 61 3d 58 87 25 3e 4c 58 9c bd
       -0.051392347 0.055071868 0.16164911 -0.07634029
0001e0 33 34 52 3e c9 54 09 3e 6a d8 9e bd 2d d2 0c 3e
       0.20527725 0.13411249 -0.077561215 0.1375205
0001f0 6a 13 c1 bd c2 c9 5d 3d b5 0f 51 bd 36 8d 0a be
       -0.09427531 0.05414749 -0.05104037 -0.1353043
000200 97 74 38 3d 0d 8e b8 3d 17 ce d7 bd 6e 88 8c bd
       0.045033064 0.09011469 -0.105373554 -0.068619594
000210 cc c8 9d 3d e7 d9 53 bd c2 9d 04 3b 92 db ac bd
       0.077043146 -0.05172148 0.0020235633 -0.08440317
000220 d2 8c 6b 3c e6 f8 83 bd 10 98 a4 bd a0 94 9f bd
       0.014376836 -0.06443958 -0.08036816 -0.0779202
000230 09 7b 18 bd c5 13 d6 3d 2c f5 85 bd 22 fb 86 3d
       -0.03722671 0.104529895 -0.065409034 0.065908685
000240 76 af 6f bd 3c 45 bf 3d 1a 42 d0 3c 99 8e e3 bd
       -0.058516942 0.09339377 0.025422145 -0.11111183
000250 1a e7 e2 bb aa 2f fa bd 77 90 01 3e b4 e8 b0 3d
       -0.006924522 -0.122161224 0.12652765 0.086381346
000260 fe 71 e3 bd 09 2a a6 bd 52 ea b3 3d 47 e1 d1 3d
       -0.11105727 -0.08113486 0.087849274 0.10248046
000270 3f ec 8b 3b c8 4a f9 3d a4 3c b8 bd 62 25 cc bc
       0.004270106 0.121724665 -0.08995941 -0.02492017
000280 30 ef d0 3d d6 fb 3d 3d 79 64 ad bd f2 34 d1 ba
       0.102018714 0.046382748 -0.08466429 -0.0015961214
000290 2b 8b a8 3d 31 9e f8 3d 14 bf 65 3d a3 77 93 bd
       0.08229669 0.121395476 0.05609043 -0.07200553
0002a0 b4 5d c8 bd 34 6e 0a 3e 3b 25 9d 3d 4a ff e7 3d
       -0.097834975 0.13518602 0.07673117 0.113279894
0002b0 1c 90 d3 bc 79 9c 4a bd 83 e4 f0 bc e3 bc 2b be
       -0.025825553 -0.04946563 -0.029405838 -0.16771273
0002c0 42 4f aa bd e2 c5 a2 bd ba ba c1 bc 4a 2f f3 3d
       -0.083158985 -0.079478994 -0.023648608 0.11874254
0002d0 60 cc df bc ca 76 96 3d 44 c1 15 3b 48 09 05 3d
       -0.027319133 0.07346876 0.002285079 0.032479554
0002e0 de 9c b1 3c 32 49 ae bd a5 79 a1 3d 29 25 af 3d
       0.021681245 -0.08510055 0.0788453 0.085520096
0002f0 3d ff b3 3c d9 cf dd 3d 33 11 91 3d ca 71 c4 3c
       0.021972293 0.108306594 0.070833586 0.02398004
000300 b0 2f b2 bd 90 05 a3 bd bf e4 ac 3d 09 89 7b 3d
       -0.08700502 -0.07960045 0.08442067 0.061409984
000310 3a cd 57 3d 76 40 0c 3c d6 5b dc bd b1 c7 17 bc
       0.052685954 0.008560291 -0.10759704 -0.009263919
000320 f5 81 f9 bc 17 c2 c4 3d 56 c6 2e 3d 71 92 3c bb
       -0.030457476 0.09607332 0.042669617 -0.002877381
000330 d6 68 bf 3d e9 c5 f3 3d e3 35 45 bd 79 da 37 bd
       0.09346168 0.11902983 -0.048147094 -0.044886086
000340 5f 7a c6 bd b4 c0 f1 bd da 79 42 bd 62 96 0c be
       -0.09691309 -0.11804333 -0.047479488 -0.13729241
000350 04 79 14 3d bb ac ed bd ac 02 81 3d d3 69 eb bd
       0.036248222 -0.11605211 0.06299338 -0.11494794
000360 34 f4 a7 3d ed cf 42 3d e2 bb 6b 3d bc 3c 62 3c
       0.08200875 0.047561575 0.057552226 0.0138084255
000370 aa 78 9a 3d 83 b6 82 bd 40 a2 87 bc 42 e2 43 3e
       0.07542546 -0.063824676 -0.016556859 0.1912928
000380 ef e0 d3 bd 31 0b 9b 3d 45 e3 43 bd ef ad 5e 3d
       -0.10345637 0.07570494 -0.047824163 0.054365095
000390 c3 86 e1 bc 11 16 28 3e 56 f9 0c 3d 9e 69 04 be
       -0.02753008 0.16414668 0.034417473 -0.12930915
0003a0 f2 60 56 bd 11 7b a5 3d 8c 73 c5 3d 75 62 01 be
       -0.052338548 0.08080114 0.096411794 -0.12635215
0003b0 29 84 3d bd 6f e4 aa 3d 6d 57 98 3d d1 b2 27 be
       -0.046268616 0.083443515 0.0743855 -0.16376807
0003c0 b0 21 00 be 94 b1 be 3d 43 c3 35 3d c8 46 b9 3d
       -0.12512851 0.09311214 0.04437567 0.090467036
0003d0 06 32 1a be 8d 3b 06 be e4 df f0 3c 1c f6 08 3d
       -0.15058145 -0.13108654 0.029403634 0.033437833
0003e0 9e 71 9c 3d 77 af 66 3d 07 78 36 bd 3a ba 04 3e
       0.07638858 0.05631968 -0.04454806 0.12961665
0003f0 91 48 da bc 83 d1 37 bd eb 70 64 3d 3c b3 e2 bd
       -0.02664593 -0.04487754 0.05577175 -0.110693425

lstm.bias_ih_l0 f4 [256]
000000 80 3d d1 3d 29 43 4c bd f1 2d 41 bd 0b 11 bc 3d
       0.10216808 -0.049868736 -0.047162954 0.09182938
000010 b7 33 1d bd 33 03 35 bd 80 22 74 bc b0 00 a0 bd
       -0.038379397 -0.044192504 -0.014900804 -0.07812631
000020 a8 45 6f 3d 04 23 45 3e 2a f8 8c bd 5b bc a6 3d
       0.05841604 0.19251639 -0.06883271 0.08141395
000030 2e 64 21 3d 05 8d ec bd 24 c0 af 3d 98 e7 9f 37
       0.03940218 -0.11550335 0.0858157 1.9062121e-05
000040 03 7a ee 3d 46 02 c1 3d 04 bd b2 3d c6 d7 e5 3b
       0.11644366 0.09424262 0.08727458 0.0070142476
000050 a3 e7 41 bd bd 11 26 bb a1 ac 0f 3d 91 89 aa bd
       -0.047340047 -0.0025340163 0.03507674 -0.0832702
000060 5d f6 76 3d e7 43 88 3b 7c 31 86 3d e0 04 8d bd
       0.060293544 0.004158485 0.06552407 -0.068856955
000070 91 40 ad bd 1a 30 13 3d 40 94 e0 bc 94 35 fa 3d
       -0.08459581 0.035934545 -0.027414441 0.122172505
000080 38 91 67 bd 63 75 00 3e bd e7 ba 3b ba 59 03 3e
       -0.056534976 0.1254478 0.005703895 0.12827197
000090 56 33 a3 bc 22 e6 81 bd 5f d7 ee 3c ac 0c 09 3e
       -0.01992194 -0.063427225 0.029155431 0.1338374
0000a0 fe 5d c1 3d b3 d0 0d 3e d1 47 cd 3d 52 e1 f1 bc
       0.09441756 0.13849144 0.100234635 -0.029526386
0000b0 eb 1a b7 bc f4 91 16 3e 7e 55 0f 3e 87 e9 09 bd
       -0.022351703 0.14704114 0.13997456 -0.033669975
0000c0 df 62 e2 3d a9 aa 00 3e c4 57 7e 3d 29 ba 62 bd
       0.110540144 0.12565102 0.06209542 -0.055353317
0000d0 3e 14 bb bd d7 3b 95 3d c9 eb 1e 3e d3 1a de bd
       -0.0913472 0.07286804 0.15519632 -0.1084496
0000e0 cf 68 76 bc e4 d4 3c 3d 79 4f 90 bd 73 57 22 3d
       -0.015039637 0.046101466 -0.07046408 0.03963418
0000f0 0e a7 18 3e 13 23 db 3d ff 43 a4 3c 47 a4 da 3d
       0.14907476 0.10700049 0.020051954 0.10675865
000100 8a 9d ed bc 22 8b 05 3e f8 4f 7d bd 91 5f cc 3d
       -0.029005785 0.13041356 -0.061843842 0.09979165
000110 85 98 c5 3d 1e a7 c5 3c 6f 4c 67 bb 6f b8 e1 3d
       0.096482314 0.02412754 -0.003529336 0.11021506
000120 d8 b5 73 3d a8 9b 11 3e b9 ec b0 bd 32 af 85 3d
       0.05949959 0.14219534 -0.08638901 0.065275565
000130 ae 52 05 3e f4 26 73 bd f7 87 88 3d e2 c3 0a bd
       0.13019821 -0.05936332 0.06666558 -0.033878215
000140 20 eb fa 3d 61 85 c2 3d b8 3a d4 3d 84 52 01 3e
       0.12251878 0.09498096 0.10362762 0.12629133
000150 b1 d0 25 3e 58 5f 3c bd c4 12 af 3d 57 87 d8 bc
       0.1619289 -0.045989364 0.08548501 -0.026431723
000160 1e 99 c7 bd ad 50 e4 3d 4c 49 da 3d be 9a bb 3d
       -0.09746002 0.111482 0.106585115 0.09160374
000170 77 c7 27 be 0c 91 d0 3d 6f 99 7b 3d 10 6c 1a 3e
       -0.16384684 0.101839155 0.061425623 0.15080285
000180 0c d4 2f bb 51 36 17 3e a4 9a 0e 3e 19 63 84 bd
       -0.002682927 0.14766814 0.13926178 -0.06464214
000190 08 6b 8f bd de a6 95 bc e1 90 00 3e a2 ac ef 3d
       -0.070028365 -0.018268045 0.12555267 0.11702849
0001a0 ca 36 d3 bd 1c 69 d3 bc 2b 25 19 3e ef 6f 5e 3a
       -0.103131846 -0.025806956 0.14955585 0.00084853073
0001b0 8a 7d 5b bd 78 f5 0f 3d b6 80 db bb f6 85 e7 3d
       -0.05358652 0.035146207 -0.006698693 0.11304848
0001c0 74 a0 90 bd a4 5f bf 3d 3f f0 66 3c a1 72 10 bd
       -0.07061854 0.09344414 0.014095365 -0.03526557
0001d0 4c 14 a2 3d 3e d5 8a 3d eb 6c 12 3e e3 f7 1c bd
       0.079140276 0.06778954 0.14299361 -0.03832234
0001e0 ef ef 32 3e 56 e0 86 3d 0c 1c 98 3d f2 9e 79 3c
       0.1747434 0.065857574 0.074272245 0.015235649
0001f0 9b dd c2 3c 83 34 5c 3c 05 7e e3 3d c9 2b 5b bd
       0.02378731 0.013440254 0.11108021 -0.053508554
000200 e7 1e d2 bd c2 8a 4c 3d 7f bc 99 3d 5f 9d 09 be
       -0.102598004 0.049937017 0.07506656 -0.13438939
000210 e0 fb f2 3d 43 3e 94 bd 26 07 a8 bd 93 0f cc 3c
       0.118644476 -0.07238438 -0.082044885 0.02490977
000220 cf 60 98 3d ed a7 d5 3d 5d 84 29 bc b9 52 0b be
       0.0744034 0.1043242 -0.010346499 -0.13605775
000230 ff 4e 79 3d fc 4b 5a 3c 19 ff 59 bd ab d0 24 bb
       0.060866352 0.01332378 -0.053221796 -0.002514879
000240 2a 51 80 3c b6 d6 a5 bd 26 42 27 bd 47 39 ff bd
       0.015663702 -0.080975935 -0.04083457 -0.12462097
000250 64 fb d2 3d 10 38 d4 bd c2 7a 01 3e 21 c6 d3 3c
       0.10301855 -0.103622556 0.12644485 0.025851311
000260 3c 15 65 3b ad e0 ee bb f8 92 1e be d7 c7 b7 bd
       0.0034955284 -0.007289967 -0.15485752 -0.08973663
000270 24 ce a7 3d 90 d5 83 bd 61 20 57 3d 35 d7 d0 3d
       0.08193615 -0.06437218 0.052521113 0.101972975
000280 a8 8e ec 3d 29 93 d6 bc d9 d3 2f 3d 08 98 eb 3d
       0.11550647 -0.026193218 0.042926643 0.11503607
000290 1e 05 8b 3d 67 ef 2c bb 1c b1 8c bc 80 37 9e 3d
       0.067880854 -0.0026387812 -0.017174296 0.077254295
0002a0 e2 a2 94 3d 06 0a 31 bd 3a 17 a5 3d 41 90 d8 bd
       0.0725763 -0.04322245 0.08061071 -0.10574389
0002b0 a6 9d e6 3c 7c 31 b9 bd 62 b8 a1 3d 09 15 d5 bc
       0.028151345 -0.090426415 0.07896496 -0.026011007
0002c0 a3 51 e1 bc d3 53 94 bc 18 16 e5 bd 80 aa 9b bd
       -0.027504748 -0.018106377 -0.11185855 -0.0760088
0002d0 ed 92 77 bd cb dd ec bd 1a b5 06 be 42 d0 88 bd
       -0.060442854 -0.11565741 -0.13155022 -0.06680347
0002e0 6f 15 b7 bd 08 c0 8f 3d d4 84 de bd a7 6d 8c 3d
       -0.08939635 0.07019049 -0.10865179 0.06856852
0002f0 df 66 1b 3c 37 ac a1 3d 17 22 6b bd 7b 7e 17 3c
       0.009484976 0.078941755 -0.057405557 0.009246464
000300 3c 57 2b 3e 5e af cd 3d 68 96 31 bc c2 f7 55 bd
       0.16732496 0.10043214 -0.010839082 -0.052238233
000310 f4 a8 4b bd d0 ba c3 3c cc 54 11 3d 3d d6 ac 3d
       -0.049721673 0.02389279 0.03548126 0.084393
000320 8a 23 90 bd 6d fc 1d bd 92 05 a9 bd 50 5b c0 3d
       -0.070380285 -0.03857081 -0.082530156 0.093924165
000330 85 34 22 bd 38 7d c5 3d 58 be 5e 3d 97 e4 19 bd
       -0.039600868 0.09643024 0.054380745 -0.037571516
000340 71 13 8d 3d ec 89 92 3d cb 28 fe 3d 1d 59 fe 3c
       0.06888474 0.07155213 0.124101244 0.031048352
000350 79 5f 9e 3d 88 7a 32 3d d7 2f 71 bc 23 7b af 3d
       0.07733054 0.043573886 -0.014720879 0.08568408
000360 c6 cc 2a 3d a3 ff e1 3d 97 95 26 bd 35 11 e1 bd
       0.041699193 0.11035087 -0.040670004 -0.1098961
000370 f8 12 08 3e d9 3d 51 3d cf 17 8b 3b 01 70 0b bd
       0.13288486 0.051084373 0.0042447816 -0.034042362
000380 f1 e9 c4 3d ae fa 1e 3e 91 ae 7e 3d 70 4a 09 3e
       0.09614933 0.15525314 0.0621782 0.13407302
000390 91 35 79 bb 72 de 2c bc 12 56 a9 3a 4d 22 75 3d
       -0.0038026313 -0.010551082 0.0012919328 0.059847165
0003a0 a4 f8 c3 3d bd b7 ec 3b 70 1b d9 3d 16 bc 8e bc
       0.09568909 0.0072240517 0.106009364 -0.01742367
0003b0 b8 fd c4 3c c8 1f 57 3d da 9e b3 3d 80 03 8d 3d
       0.024046764 0.052520543 0.08770533 0.06885433
0003c0 f0 29 d1 bc 34 aa 66 bc 13 28 34 3b 5a bb aa bb
       -0.025532693 -0.0140786655 0.0027489706 -0.0052103223
0003d0 3b b0 f5 bd a5 b2 20 bd 1e 30 2a 3e 60 9b 60 bb
       -0.11996504 -0.03923287 0.16619918 -0.0034272298
0003e0 07 41 00 3e 51 66 74 bd 83 b4 ff 3d 98 f1 10 bd
       0.12524806 -0.05966789 0.12485602 -0.03538665
0003f0 d3 3f e7 3d 9c 2e 3c bd b5 22 8a bd 95 8a 86 bd
       0.112914704 -0.045942888 -0.06744901 -0.06569401

lstm.bias_hh_l0 f4 [256]
000000 3e 1a 94 bd 3e 61 40 3d 16 ad 8b 3b 75 ba 9c 3d
       -0.07231568 0.046967737 0.004262577 0.07652751
000010 4c f4 e5 bc 7e 40 f3 3c 7b 51 e5 3d 16 9b 37 bd
       -0.028070591 0.029693838 0.11197182 -0.044825636
000020 6c 55 03 3d 12 76 00 3e c1 de ff 3d c4 50 a4 bd
       0.032063887 0.1254504 0.12493659 -0.08023217
000030 df b5 e3 3d 8e 3c 0f bc 3e 28 64 bd bd f6 9c bb
       0.111186735 -0.008742465 -0.05570244 -0.0047901557
000040 a4 4b d9 3b 2a d3 82 3c 28 9f d8 bd 2d 5f c4 bc
       0.0066313315 0.015969831 -0.10577232 -0.023971165
000050 07 78 4b 3d a6 58 16 bd 50 1b 1e 3d ca d3 83 3d
       0.049675014 -0.036705635 0.038600266 0.0643688
000060 41 49 a2 3d d7 c7 b7 bd 50 bf 48 bd 55 e4 9f bd
       0.07924128 -0.08973663 -0.049010575 -0.07807223
000070 d1 f5 d7 bc 2a 2f 71 bd c4 d3 1b 3e 6b a9 89 bd
       -0.026362332 -0.05888287 0.15217501 -0.06721767
000080 38 2a 16 bb 76 e5 df bc d5 6c 63 bb 67 42 a7 3c
       -0.0022913348 -0.027331095 -0.003470232 0.020417405
000090 5e 2d 8d bc a5 48 10 3e bf 09 5b 3d 84 45 da 3a
       -0.017233547 0.14090212 0.05347609 0.0016652797
0000a0 7f 88 50 bd 85 09 84 bd 38 af 13 3e a5 67 01 3e
       -0.050911423 -0.06447128 0.1442231 0.12637194
0000b0 2a 43 97 3d f2 94 38 3c 53 f9 5e 3d d1 75 99 3d
       0.073858574 0.01126598 0.054436993 0.07493175
0000c0 03 0d a6 bd 83 75 12 bd a9 43 93 bb 5e 11 00 3e
       -0.081079505 -0.0357566 -0.0044941497 0.12506625
0000d0 4b 67 8c bd a4 3a d8 bb 4b f0 95 3d ba dd 53 3d
       -0.06855639 -0.0065987874 0.07321223 0.051725127
0000e0 5e 65 3e 3e 86 e3 e4 b9 07 50 f3 3d 74 dd 4a bc
       0.18593356 -0.00043657067 0.118804984 -0.0123819
0000f0 be 2c 89 b9 34 cf 62 bc d8 78 98 3d 1f 63 40 bd
       -0.00026164012 -0.013843346 0.07444924 -0.04696953
000100 91 46 ae 3d 36 f6 33 bd 5f 27 a2 3d ea 85 89 bd
       0.08509553 -0.043935977 0.07917666 -0.06714995
000110 49 59 a1 bd ad 4f da bd 1c 6f 6c bd 3d 07 28 bd
       -0.07878358 -0.10659728 -0.05772315 -0.041022528
000120 f9 32 09 bc 6b dd f5 3d a0 d1 b2 3d 55 50 5d bd
       -0.008373969 0.12005123 0.08731389 -0.05403169
000130 27 dd ca bd c5 a5 5f 3d 42 68 f9 3d 1e 04 ee 3d
       -0.09905463 0.05460145 0.12178089 0.11621879
000140 92 40 8f 3d 0f d2 8d bd 96 37 22 bb 28 9c c3 3d
       0.06994738 -0.06924831 -0.002475237 0.09551269
000150 a9 80 7c bc be 11 25 3e 19 ba 05 bd fc b6 cf bc
       -0.015411534 0.1612005 -0.03264818 -0.025355808
000160 b1 fe 61 bd 37 13 eb 3d 6c 40 c7 3d e7 6a 8c bc
       -0.055174533 0.11478274 0.09729084 -0.017140819
000170 58 52 e5 bd dc 31 ab bc 84 4d 16 bd 10 4b e6 3d
       -0.111973464 -0.020897798 -0.03669502 0.11244786
000180 92 ea 65 3d 24 61 04 3e f9 34 95 3d 11 a7 0e 3e
       0.056131907 0.12927681 0.07285494 0.13930918
000190 20 c5 28 bd 2c 29 da 3c 45 b0 0d 3e a9 5d a2 bd
       -0.041203618 0.02663096 0.13836773 -0.079280205
0001a0 f2 1d ba bd 8f 92 d0 3d 82 ef d1 3d ae 7a 3a bd
       -0.09087743 0.10184204 0.102507606 -0.045527153
0001b0 32 b1 3c bc ef 85 e5 3d be bd 36 3d 77 26 45 bc
       -0.011516856 0.112071864 0.044614546 -0.0120330965
0001c0 81 96 ec bd aa b6 d1 bd 73 37 d8 3c b3 e8 3f 3d
       -0.11552144 -0.102399185 0.026393628 0.04685278
0001d0 83 b7 8a bc a0 09 cf 3d 0b 40 73 bd 6e d5 04 3e
       -0.016933208 0.10109258 -0.059387248 0.12972042
0001e0 da 4f 9e 3d 3e 39 3b bc 7e 55 32 bd 69 c4 0b 3e
       0.07730074 -0.011427222 -0.043538563 0.13649143
0001f0 b7 73 c4 bd 54 2f 7e bd e7 09 ad 3d 82 1d 63 3d
       -0.09592383 -0.062056854 0.08449154 0.055448063
000200 f9 68 c3 bd 03 27 41 3d 5c e0 00 3e 10 ad ce bb
       -0.09541506 0.047156345 0.12585586 -0.0063072518
000210 d2 a3 d3 3d 02 62 0f 3d 26 e3 86 3c a5 a5 06 bd
       0.103339806 0.035005577 0.016465735 -0.032872815
000220 88 90 60 bd ac 2e f6 3c c8 f7 84 bd b1 0c 9f 3c
       -0.054825336 0.030051552 -0.06492573 0.019415231
000230 9e 27 47 bd ed 16 32 3d 78 d8 d8 3d 42 46 e0 bc
       -0.048621766 0.043478895 0.10588163 -0.027377252
000240 a9 3f 19 3d 37 e9 8f 3d 9a e7 d1 bd 2f c1 d7 bd
       0.037414227 0.07026904 -0.102492526 -0.10534894
000250 67 c7 a7 bc 92 1b 95 3c 06 b2 0e 3e 2b d9 ca 3d
       -0.020480825 0.018201623 0.13935098 0.09904703
000260 ba a1 cd bd 8f 4d 9c 3d 59 c0 82 3d 13 c3 98 bd
       -0.100406125 0.07631981 0.06384344 -0.074590825
000270 da 41 2f 3d 04 84 aa 3d ad 90 d5 bc 04 13 b0 bd
       0.04278741 0.08325961 -0.026069963 -0.08597377
000280 ab 7c 86 bd cb 35 e5 bd e0 76 c4 3d 8e e9 9b 3c
       -0.06566747 -0.11191901 0.09592986 0.019032266
000290 df 7d 36 3d ac 2b 0b 3e 10 3c 8d 3d a5 35 af bc
       0.044553634 0.13590878 0.06896222 -0.021387884
0002a0 48 7c 89 3c 4b 6f 86 3d 86 53 94 3d b7 be 9b bc
       0.016782895 0.06564196 0.07242493 -0.019011838
0002b0 5d dc a2 bc f0 d8 f2 3d 7e cc 1c 3d b3 a3 e0 bd
       -0.019880468 0.11857784 0.038280956 -0.10968723
0002c0 eb 19 b7 3c b4 6b 01 bd cc fb ea 3d ec f8 17 3d
       0.022351226 -0.031596854 0.11473808 0.037102625
0002d0 df 84 82 3d 1c dc 55 bd 9a 06 9c 3a dc 3c ec bb
       0.063729994 -0.052211866 0.0011903823 -0.0072094034
0002e0 26 b4 ae 3c 58 36 09 3d 8d d7 95 3d 9d 4e 5d 3d
       0.021326136 0.033499092 0.07316504 0.05403005
0002f0 29 c9 84 bb 5d 49 08 be 11 18 41 3d 67 f7 90 bd
       -0.0040523005 -0.13309236 0.047142092 -0.07078438
000300 b5 79 02 bd 40 96 43 3b f3 f6 97 bd 3c 89 80 3d
       -0.03185435 0.0029844195 -0.07420149 0.062761754
000310 7e 7d ad 3d f2 46 95 3d 67 19 2c 3c 6c dd aa bd
       0.08471201 0.07288922 0.010504103 -0.08343014
000320 ea c8 57 3d 62 7c ef 3d 4a ea bc 3d d4 42 cf 3d
       0.05268184 0.11693646 0.092243746 0.10120168
000330 48 ee 15 bd 56 19 b4 bc 6e 3e c9 bd d5 ee 90 3c
       -0.036604196 -0.021984737 -0.09826361 0.017692009
000340 01 4d 38 bd 77 9c 9e 3c 7f 8e 75 bc 1a 26 b0 bd
       -0.04499531 0.019361718 -0.014987587 -0.08601017
000350 b0 a5 c2 3d 9f 3a 23 3e 4c 11 9b bd b1 61 a1 3b
       0.09504259 0.15940331 -0.075716585 0.004924976
000360 b0 28 b1 bd 39 d3 6a 3d 81 b9 0f 3d 65 d9 98 bd
       -0.08650339 0.057330344 0.03508902 -0.0746334
000370 d9 99 9c bd 2f 08 ab 3b 8c 9a bd 3d 84 6b e1 3d
       -0.076465316 0.0052194814 0.09257993 0.11006835
000380 d8 18 01 3d 21 49 f3 3d 96 aa 1c 3e 8c f7 a0 bd
       0.031517833 0.118791826 0.15299448 -0.07859716
000390 43 db 8a 3d a2 7c 22 3e 93 aa 69 bc 1d 3c c1 3d
       0.06780102 0.15867856 -0.0142618595 0.09435294
0003a0 c7 4b 2b 3d 67 a9 97 bc 06 c1 0e bd 15 7f 2e 3d
       0.041820314 -0.018513395 -0.03485205 0.042601664
0003b0 90 01 81 3a 72 dd 50 3d f9 64 2b bb d0 e9 3e bd
       0.0009842385 0.050992437 -0.0026152714 -0.0466097
0003c0 1f 74 ac 3a f6 ce 53 bd c9 5c 07 3d 24 50 c5 3d
       0.0013157165 -0.051711045 0.03304747 0.09634426
0003d0 c3 1f ad bd cb 01 5b 3d 4a d0 1d 3e 70 90 d0 bb
       -0.08453324 0.053468507 0.15411487 -0.0063648745
0003e0 99 4f e9 3c 4c c0 71 3d 0f 48 cb 3d 73 d2 2e bd
       0.028480338 0.05902128 0.099258535 -0.04268117
0003f0 fb bd 42 3c f6 80 71 3d 91 ab 5f 3d 4f f9 c7 bb
       0.011886115 0.058960877 0.054606978 -0.006102718

lstm.weight_ih_l1 f4 [256, 64]
000000 1d 93 00 3c 3f 29 31 bd e5 1e 47 3d 4e 8d 45 bc
       0.007847575 -0.043252226 0.048613448 -0.012057615
000010 3c 4e 12 3d c4 69 c6 bd 17 59 a1 bd 0c b0 5e 3d
       0.03571914 -0.09688142 -0.07878321 0.05436711
000020 20 7d 9e bd 39 d8 ef 3d a3 46 a0 3d a2 74 79 3d
       -0.077387094 0.11711163 0.07825973 0.060902245
000030 80 20 59 3c 54 06 23 3d 80 97 da bb b5 38 ae 3d
       0.0132523775 0.039800957 -0.0066708922 0.0850691
000040 be d5 e3 3d c6 89 57 bd 96 8d 90 3d e3 a4 81 bd
       0.111247525 -0.052621625 0.070582554 -0.06330278
000050 24 d5 c1 bd 9d 01 a3 bd e6 df 71 bd f5 91 fc 3d
       -0.094644815 -0.07959292 -0.059051417 0.123325266
000060 26 00 89 bd 35 46 08 3d b5 71 73 3d 2a de 05 3e
       -0.066894814 0.03327008 0.05943461 0.1307303
000070 42 87 fb bd 9d 89 36 3d 0c 5b 5f 3d 91 2a 8e bd
       -0.12281658 0.044564832 0.05453019 -0.06941713
000080 b2 33 eb bd a3 39 ca bc a5 7c 19 bd 30 86 38 be
       -0.114844695 -0.024685686 -0.037472386 -0.18019938
000090 b6 70 f0 bd d7 d5 e4 3c 4c 84 2d be f6 79 10 bc
       -0.11740248 0.027933998 -0.16944999 -0.00881814
0000a0 d0 ca 17 3d f8 51 6e bd 4e 16 ad 3a 25 50 c1 3d
       0.03705865 -0.05818364 0.00132055 0.094391145
0000b0 aa 31 0f 3d 66 39 05 bd 5d 7f 43 3e ee 77 7c 3d
       0.034959473 -0.032525443 0.19091554 0.06163781
0000c0 e5 75 3c bc 00 ea fe 3d 44 db 20 3e c5 26 bb 3d
       -0.011502718 0.12446976 0.15708643 0.09138254
0000d0 cf a5 ec 3c 95 65 6d 3d 3d 9e f2 bc 8b 6e 08 bc
       0.028887657 0.057958204 -0.02961647 -0.008327137
0000e0 6c 9b 1a be ef 94 e8 bd a3 63 30 3d 4a 00 22 bd
       -0.15098351 -0.11356532 0.04306377 -0.039551057
0000f0 41 76 78 3d 73 27 20 3e 54 1c ed 3c b8 74 8d bd
       0.06065965 0.15640049 0.028944172 -0.06907028
000100 42 3d 2c be 4f 05 47 3d 82 ab d0 3d 89 50 bb bd
       -0.16820243 0.048589047 0.101889625 -0.0914622
000110 ad 0c 1b 3e bb b7 b2 bc 66 a1 f5 bb 87 2f 86 bd
       0.15141554 -0.021816125 -0.007496047 -0.06552034
000120 03 f3 37 3b de 2a 7d bd 2f 9c 09 bd b1 46 8f 3c
       0.002806843 -0.06180846 -0.033596214 0.017489763
000130 cd 60 89 bd 09 fe 34 bd 3b 99 51 bd c3 a7 3d be
       -0.067079164 -0.04418758 -0.051171523 -0.18521027
000140 5f 95 92 bd 8a 0e 45 3d ed f9 d4 3d 33 59 02 be
       -0.071573965 0.04810957 0.10399232 -0.1272934
000150 b7 55 e6 bd d3 48 a7 3d 81 0b 78 bd 24 d2 57 3d
       -0.112468176 0.08168187 -0.060557846 0.05269064
000160 11 d8 c1 bd c5 2f 33 bd b0 8b 1a 3d 8d bc e4 3d
       -0.094650395 -0.04374673 0.037730873 0.11168776
000170 16 b3 85 bd 65 88 b9 3d 36 bd b9 3d 85 f3 bd bd
       -0.065282986 0.09059218 0.09069292 -0.09274963
000180 08 e9 00 be 13 30 0a be 5d cf 90 3c ab 90 06 be
       -0.12588894 -0.13494901 0.017677004 -0.13141124
000190 5f 91 8e 3d b2 a5 73 3d 8c aa 08 be b3 75 89 3d
       0.06961321 0.05948419 -0.13346308 0.067119025
0001a0 44 83 c8 3b e1 10 b5 3d f0 30 5e bc 20 78 eb bd
       0.0061191637 0.0884111 -0.013561472 -0.114975214
0001b0 a8 61 3a 3e ee e2 fb 3d 93 5c 2c be bc 92 07 3d
       0.18201315 0.12299143 -0.1683219 0.03309892
0001c0 d5 3e 85 bd 3d 75 08 3e 48 ff 6e bd 94 25 d5 3d
       -0.06506125 0.13325973 -0.058348924 0.10407558
0001d0 e1 3f 24 3e 6c fb 59 bc e4 66 1e be 22 55 03 3c
       0.16039993 -0.013304573 -0.15468937 0.008015903
0001e0 78 59 db bd 0f 44 8d 3d 85 cc 3b bd cc df 01 3e
       -0.10710424 0.06897747 -0.045849342 0.12683028
0001f0 b4 91 cf bd 71 33 76 3d 9f 22 ac bc 7f 8f 21 3d
       -0.101352125 0.060107652 -0.021012602 0.03944349
000200 4c e1 ba bd 6e e6 b8 bd 56 e2 9b 3d 79 53 fe 3d
       -0.09125003 -0.09028326 0.076115295 0.12418265
000210 06 ef b1 bd f3 6a 95 3d 31 9a 19 bd 9f 97 49 3d
       -0.08688168 0.072957896 -0.037500564 0.049216863
000220 76 af cc bd 3e b0 b8 bb b1 6f a0 bd 81 4c bb bd
       -0.09994404 -0.005636244 -0.078338034 -0.09145451
000230 09 ab 1a 3e c7 39 05 bd 83 0d 30 bc ad 3b d0 3c
       0.15104307 -0.032525804 -0.010745409 0.02541908
000240 18 95 b1 3d 1c 34 c6 bb e2 22 57 bd 03 ac ce 39
       0.086710155 -0.0060486924 -0.0525235 0.0003941954
000250 01 da 71 bd 35 6c c9 bd e7 4c d3 3d ab b8 58 bb
       -0.059045795 -0.09835092 0.10317402 -0.0033069055
000260 ec 35 d9 3b 56 04 82 3d 16 1d 71 3d ba da da 3c
       0.0066287424 0.06348483 0.05886563 0.026715625
000270 aa 18 ab bd f3 65 28 bd 72 06 37 3d 77 c2 d2 bd
       -0.08354314 -0.04111285 0.04468388 -0.102909975
000280 8f 8b 22 3d 66 da 60 3d 36 98 14 3d 89 c8 4b bc
       0.039683875 0.05489578 0.036277972 -0.012437948
000290 a6 e9 36 3d 65 80 7d bc 20 2e bf bc de 24 7a 3d
       0.04465642 -0.015472506 -0.023337424 0.061070316
0002a0 66 43 4f bd 0b 86 ad bd 57 dc 66 ba 72 b6 a1 3d
       -0.050601386 -0.08472832 -0.0008806637 0.07896127
0002b0 8c a9 97 3d 5f 53 05 3d 45 0c f9 bc cd 24 a4 3d
       0.074053854 0.032550212 -0.030401358 0.08014832
0002c0 5f d1 c7 3d 45 8d a0 3d b7 c7 93 bd 1d 50 aa 3d
       0.09756731 0.07839445 -0.07215827 0.08316062
0002d0 b6 c7 e9 3c 3b 40 e2 3d 83 9d 6f 3d d0 c6 aa 3d
       0.028537612 0.11047407 0.058499824 0.08338702
0002e0 1c 34 88 3d 20 e9 46 bd fb eb a8 3d 2e e8 b1 bd
       0.06650564 -0.04856217 0.08248135 -0.08686863
0002f0 9a 45 1c be a5 15 b1 bd 5d 06 db bd 55 58 8b bc
       -0.15260926 -0.086467065 -0.10694573 -0.017009893
000300 31 eb cc bc d5 bd 2a 3c cc 7b 42 bd c9 93 b0 3d
       -0.025014492 0.010421236 -0.047481343 0.08621938
000310 cd 11 27 3d c3 b2 a9 3a 1a 0f 2b 3c 81 89 11 be
       0.04078846 0.0012946952 0.010440612 -0.1421261
000320 2d 06 53 bd c5 f9 31 3d 8c fe 34 3d 60 43 aa 3c
       -0.05151956 0.04345109 0.044188067 0.02078408
000330 28 55 fa bb e7 b6 7a 3d 89 98 0e be ec 25 ac 3c
       -0.007639546 0.061209586 -0.13925375 0.021014176
000340 84 c2 2f bd ae a3 58 3d 79 9a 86 bd 5e 38 f3 3d
       -0.042910114 0.052890472 -0.06572432 0.118759856
000350 d9 9a 5f 3d c3 d6 16 3e 7d a4 77 bd 7a a7 54 3d
       0.054591034 0.14730363 -0.060459603 0.05191753
000360 55 00 53 3d 31 e1 d5 3d 00 1d a7 bd 7c 8f 98 3d
       0.05151399 0.104433425 -0.08159828 0.074492425
000370 45 49 00 3e b7 34 f4 bd 73 8b b9 3d 04 f0 95 bc
       0.1252795 -0.11924117 0.09059801 -0.018302925
000380 6f cc bc bd 62 8c b1 3d 57 f6 84 3d 16 be a3 3c
       -0.0921868 0.08669354 0.06492298 0.019988101
000390 f0 6e 0b bd b0 77 2c bd d0 0b f8 3c 86 54 e1 3d
       -0.034041345 -0.04210633 0.03027907 0.1100245
0003a0 17 68 0b 3e 92 44 22 bd 53 2f 1d 3c 1b 98 1f bb
       0.13613926 -0.039616175 0.0095938025 -0.0024352137
0003b0 9b 23 99 3c 5d 95 68 bd 31 42 5b 3e 96 f9 c6 bb
       0.018693736 -0.05678307 0.21411969 -0.0060722334
0003c0 4a 5f 27 bd b8 b2 96 bd 42 8d 9c bd ef c4 78 bc
       -0.04086236 -0.07358307 -0.0764413 -0.015183671
0003d0 0f 64 1f bc 6d 01 58 3d ed 1c 02 3e 21 52 3d 3c
       -0.009728446 0.052735735 0.12706347 0.011555226
0003e0 7a 92 a8 bd b2 c8 e1 3d ff 2f 86 bd 16 49 8d 3d
       -0.08231063 0.11024608 -0.06552123 0.06898706
0003f0 fc f8 95 3c 32 93 a9 bd ab 9a 5a 3d 5e 6a 05 be
       0.018307202 -0.082800284 0.05337016 -0.13028857

lstm.weight_hh_l1 f4 [256, 64]
000000 c2 df 9a bd 8e 80 74 bd b0 c0 4d bd 61 39 8c bd
       -0.0756221 -0.05969291 -0.05023259 -0.06846882
000010 0a 0b 67 bd 40 7f 8d 3d 19 27 fb 3b 37 d4 26 3e
       -0.056407012 0.06909037 0.007664573 0.16291891
000020 15 df c8 3d b4 86 57 3a 1e ff 99 bc 66 d8 12 be
       0.098081745 0.00082216715 -0.018798407 -0.14340362
000030 70 1e d2 3a 58 e2 56 bd a9 40 7d 3d 57 ff e4 3d
       0.00160308 -0.052461952 0.061829243 0.11181515
000040 71 d8 6e bd e4 13 13 bd a2 7f 65 bd 5f 88 d3 3d
       -0.058311883 -0.03590764 -0.056029923 0.10328745
000050 30 2c 6d 3d 9d 79 18 be b2 2b d3 bd 8b 5e 96 bd
       0.05790347 -0.14890142 -0.103110686 -0.073422514
000060 17 a0 e4 bd 02 42 14 3d 7f cb df 3d f7 4d d2 bd
       -0.11163347 0.036195762 0.10927486 -0.10268777
000070 c9 48 0b bd b5 bc d5 3d 41 11 ab 3d b5 bb 42 3c
       -0.03400496 0.10436384 0.083529 0.011885573
000080 a7 e8 ee 3d 08 cf 25 bd a5 07 d5 3d a1 bd 29 bd
       0.11665469 -0.040480644 0.10401849 -0.04144061
000090 62 4d d8 3d 53 3a b7 3d 90 58 7c bd b1 0a 9a 3a
       0.105616346 0.08946671 -0.061607897 0.0011752454
0000a0 22 de e6 3b 63 60 42 3d 69 56 43 3d 35 9e fd bc
       0.0070455233 0.047455203 0.04768983 -0.030959228
0000b0 f2 8a 04 3e 8a da 70 bc 45 97 83 3c 15 16 56 bd
       0.12943628 -0.014700541 0.016063342 -0.052267153
0000c0 ca 85 c7 3d 11 71 9b bd 84 c6 07 be bb c6 04 be
       0.09742315 -0.07589925 -0.13259321 -0.12966435
0000d0 54 28 7b 3d f9 f7 89 bd af 4e 5d bc a8 0a bb 3c
       0.061317757 -0.0673675 -0.013507529 0.02283223
0000e0 73 cf 53 bd c7 56 cc 3d 0a 28 7f 3d 6a 3e 67 bd
       -0.05171151 0.09977489 0.062294044 -0.056456007
0000f0 a9 de 64 3d 16 2d c1 bd b8 c0 29 3e 43 33 a7 bc
       0.055876408 -0.094324276 0.16577423 -0.020410186
000100 7e 92 3c bd 80 e4 a6 bd b6 49 20 3d fe 73 6c bd
       -0.046038143 -0.08149052 0.039132796 -0.057727806
000110 0b 37 1f be a2 08 4d bd e1 2b ca 3d 63 8f 0f be
       -0.15548341 -0.05005706 0.098716505 -0.14019541
000120 eb bb 26 3b 91 ee 05 3d a6 9c c9 bd f8 52 98 bd
       0.0025441598 0.032698218 -0.098443314 -0.074377
000130 c0 e1 05 3e 62 8c 88 3d 48 3f b2 bc c9 aa 0d 3e
       0.13074398 0.06667401 -0.02175869 0.1383468
000140 fe 97 8a 3d f7 27 a9 3d 85 6d 1b bd ea 39 15 3e
       0.067672715 0.08259576 -0.037946243 0.14572874
000150 15 ea a2 3d 9c ff 8d 3d 74 b8 01 3d d6 7d c9 bd
       0.07954804 0.06933519 0.03167005 -0.098384544
000160 6b c4 f7 3c 50 59 66 3d 55 64 c2 bd 3d 9f c0 3c
       0.030245027 0.05623752 -0.09491793 0.02351343
000170 34 e3 3b bd 40 30 f8 3c 03 ad e6 bd 92 8a da ba
       -0.045870975 0.030296445 -0.11263468 -0.0016673377
000180 f4 63 07 be e9 63 11 bd b3 6c 6c bc 9a 9f 25 be
       -0.13221723 -0.035495672 -0.014430213 -0.16174164
000190 84 0b 4e 3c 76 ad 98 3d 8d 17 f6 3d 75 56 c0 3d
       0.012575988 0.0745496 0.12016211 0.0939149
0001a0 95 44 08 be e5 a9 03 bb 39 bc b6 bd 9a c7 b3 bd
       -0.13307412 -0.0020090279 -0.089226194 -0.08778305
0001b0 94 cb c1 3d 53 82 f6 3d d1 02 cf bb c2 41 87 bd
       0.094626576 0.12036576 -0.0063174744 -0.06604339
0001c0 71 87 80 bd b6 86 56 bd 41 ef 1a 3e f7 65 83 3d
       -0.062758334 -0.052374564 0.1513033 0.064159326
0001d0 9f 3d cb 3d e8 77 29 3d 16 48 f0 3d 62 61 16 3e
       0.09923863 0.041374117 0.11732499 0.14685586
0001e0 fa 17 08 3e 07 4c a1 3d 8f cc 64 3d 1a 24 64 3d
       0.13290396 0.07875829 0.055859145 0.05569849
0001f0 5e 42 38 bd 2c c6 e2 bd ee 71 c7 bd 45 ca 51 3d
       -0.044985168 -0.110729545 -0.09738527 0.05121829
000200 df 48 73 bd 34 3a 5c 3d ac 8a 44 3c c4 df 59 bd
       -0.059395667 0.053766444 0.011995953 -0.053191915
000210 bb d8 05 be f2 10 ef 3b 7c b4 a3 3d cb 06 1d 3d
       -0.13070957 0.007295721 0.07993409 0.038336556
000220 be 37 de 3d 77 2a c0 bb 3f ec 27 bd 3b 30 52 3d
       0.10850476 -0.005864437 -0.040996786 0.051315527
000230 60 64 00 be 42 6e c8 bd 14 29 b3 3d f9 59 bf 3c
       -0.1253829 -0.09786655 0.087480694 0.023358332
000240 36 fa 16 bd 61 9d 92 3d 22 e1 ff bb 38 ca 84 bd
       -0.036859713 0.07158924 -0.0078088203 -0.06483883
000250 ac f9 a0 bd 97 66 c3 bd e3 4a cc 3d 6b 32 f0 3d
       -0.07860121 -0.09541052 0.09975221 0.117283665
000260 06 f3 ca 3d d0 a3 b0 bd 11 f8 35 be d4 e2 9c 3d
       0.09909634 -0.08624995 -0.17770411 0.076604515
000270 d9 ed 00 bc 6b 7f a2 3d b8 d4 01 3c b0 40 7e bc
       -0.007869207 0.07934459 0.007924251 -0.015518352
000280 13 8e 1c 3d 20 ba 08 3d 02 3d e1 3d 91 8a 46 3c
       0.03822143 0.033380628 0.109979644 0.012117998
000290 83 27 48 3c f8 45 a6 bd 71 9f f7 3c 2c 53 e7 bd
       0.012216452 -0.08118814 0.030227395 -0.11295161
0002a0 80 5c 77 3d 1e de 77 bc dc b8 df 3c 84 64 7c 3c
       0.06039095 -0.01512864 0.027309828 0.015404824
0002b0 f0 49 87 3d 30 c7 b0 bd d1 52 9e 3c fa 1f e3 3c
       0.06605899 -0.08631742 0.0193266 0.027725209
0002c0 5c bc 31 bd 41 de 0e 3e 14 d7 5f 3d f9 cd 6c bd
       -0.043392524 0.1395197 0.054648474 -0.05781362
0002d0 52 67 df 3d 0f 5d 37 3d 34 6d 48 3d e5 54 e8 3d
       0.10908379 0.044766482 0.04893227 0.11344317
0002e0 94 cc b3 bd 6b 3d 94 bd e7 b1 4c bb 87 60 de 3d
       -0.087792546 -0.07238277 -0.0031233968 0.10858255
0002f0 b5 ea 7e bb 50 3f ac 3d db d0 70 3d cb 63 ed bd
       -0.003889722 0.084105134 0.05879293 -0.115912996
000300 42 e2 dd bc a5 86 25 3e 9f 87 7f bd fe ca 18 3d
       -0.027085427 0.16164644 -0.062385198 0.037302963
000310 79 db 10 bd b1 98 a4 3d 32 a3 4e bd b1 3a 63 3d
       -0.035365555 0.08036936 -0.050448604 0.055475894
000320 a4 ed 0b bc e8 9f c1 bd 44 12 a1 3d da 5a 86 bd
       -0.008540545 -0.09454328 0.07864812 -0.06560297
000330 16 be e9 3c 11 e4 21 bd 2c bf 80 bc 43 5f d1 bc
       0.028533023 -0.03952414 -0.015716158 -0.02555812
000340 7f e8 99 ba c0 5d cf bb d3 06 ff 3c 84 54 ca 3d
       -0.0011742263 -0.0063283145 0.031131184 0.09879401
000350 d3 9a c3 3d ff 14 08 3d 0f bc 26 bd 63 08 84 bb
       0.09551015 0.03322315 -0.04070669 -0.00402932
000360 94 d9 76 bd 3d c6 bd bd 39 28 90 3d 2a f4 82 bc
       -0.060266092 -0.092663266 0.07038922 -0.015985567
000370 02 3b 48 bb 2e 2f dc 3d 15 ff fb 3c 0d 8b a5 bd
       -0.003055275 0.10751186 0.030761281 -0.080831625
000380 c4 35 0f bd 33 fd be bd 21 5c 15 bd d4 6a a0 bd
       -0.034963384 -0.09325638 -0.036464814 -0.07832876
000390 cc d7 2e bd c1 b9 d8 3d 01 aa 5e 3c a6 5d e7 3b
       -0.04268627 0.10582305 0.013590337 0.0070607243
0003a0 da bc 9d bd e9 3c 76 3d 1e 67 1d bd 94 c2 26 bd
       -0.07702036 0.060116682 -0.03842842 -0.040712908
0003b0 11 a4 44 3c 58 5a c4 3b 9c 19 c8 3c 47 34 49 3d
       0.012002007 0.005992215 0.024426274 0.04912212
0003c0 a8 54 ab bc 74 6d b3 bd 83 a2 12 be 93 f8 56 bd
       -0.02091439 -0.08761111 -0.14319806 -0.052483153
0003d0 2c 61 0e 3e 07 32 3b 3d fa 5c 66 bd ce 4c c9 3c
       0.13904256 0.045702007 -0.056241013 0.024572756
0003e0 fb aa 07 be df 48 cf 3d 76 c9 22 bc 91 cb 2b bc
       -0.13248818 0.10121321 -0.009935727 -0.010485546
0003f0 35 bb b0 bd b2 2f 3b 3b be 7f 28 3e 59 d6 7b bc
       -0.08629457 0.0028562364 0.1645498 -0.015370929

lstm.bias_ih_l1 f4 [256]
000000 74 a0 32 3d 4e 60 f3 3d 93 22 ff bc 3f b0 08 bd
       0.04361005 0.11883603 -0.031144416 -0.033371206
000010 7a 52 7d bd f7 0f de 3d 44 8e 3a 3d aa 2c 04 3e
       -0.061846234 0.10842889 0.04554583 0.12907663
000020 c8 c4 c8 3d 02 de 9e 3d 37 00 40 3d e1 f7 f7 bd
       0.09803158 0.077571884 0.046875205 -0.12107826
000030 79 0f 46 3c be 7a f9 bd d1 9a 09 be 12 82 06 bc
       0.01208865 -0.12181614 -0.13437964 -0.008209722
000040 35 f1 e9 3a 8d d0 00 bd b3 a9 c0 3c a4 88 30 39
       0.0017848375 -0.03144889 0.023518419 0.0001683557
000050 73 29 9c bd c7 cb 08 3e f6 47 e1 3c 85 2e ca bd
       -0.07625093 0.13358985 0.027500134 -0.09872154
000060 1a 9c 8d 3d 4e 54 25 3d 08 a6 0f be 76 84 a7 3c
       0.0691454 0.040363602 -0.1402818 0.020448904
000070 2d b1 56 3d 15 6d 2a 3c ea 79 44 3c 1b 75 bc bd
       0.05241506 0.010401984 0.011991957 -0.092020236
000080 85 4b 0c bd 29 84 13 bd 2d 49 9a 3d 50 7f 88 bd
       -0.03425171 -0.03601471 0.075334884 -0.06664908
000090 43 fd 47 3b 65 22 d1 bd 66 44 58 3d dc 68 0d bd
       0.0030515946 -0.10211638 0.052799605 -0.03452383
0000a0 31 8d dd bd 44 23 97 bd 12 3d 54 3d ea 0f 23 3b
       -0.10817946 -0.07379773 0.051816054 0.0024881312
0000b0 9b d0 8c bd e3 3e 02 3d 23 d4 81 bd 70 3f 45 3d
       -0.06875726 0.031798255 -0.0633929 0.0481562
0000c0 c8 2b 22 bd 76 93 a0 3d 53 2a a8 3d 5f 1a d9 bd
       -0.039592534 0.07840626 0.08211198 -0.10600733
0000d0 86 52 b5 3d b4 2e fd bc 46 96 69 3c 54 8d 9c 3c
       0.08853631 -0.030906059 0.014257019 0.01911036
0000e0 f6 9a 12 3d 14 80 e6 3d ee f6 c9 bd 87 50 91 3d
       0.035792314 0.11254898 -0.09861551 0.070954375
0000f0 42 d1 41 3c 95 70 d1 3d 1a 61 b4 3d 53 4e c6 3d
       0.011829676 0.102265514 0.08807583 0.09682908
000100 9f 07 31 be 7d dd 3a bd cf e6 d8 bd 4e 97 08 bd
       -0.17288063 -0.045621384 -0.10590898 -0.03334742
000110 ad 5f 58 bc 65 6e e3 bd 95 1f a7 bd e8 9e 19 bd
       -0.013206405 -0.111050405 -0.08160321 -0.03750506
000120 0a 55 1f bc b1 33 c0 bb 13 df 14 be d8 6f 83 bd
       -0.009724865 -0.005865537 -0.14538221 -0.06417817
000130 66 7b 46 3d 03 5e 57 3d 79 19 db bd 20 8b fc 3c
       0.048457526 0.05257989 -0.10698218 0.030828059
000140 d1 9e 25 3d a5 29 d2 3a 43 f0 b6 bd f6 31 10 be
       0.040434662 0.001603414 -0.08932545 -0.14081559
000150 34 73 a6 bd 54 10 9a bd d3 59 78 bd f9 2f b2 3d
       -0.08127442 -0.075226456 -0.060632538 0.08700556
000160 1c ba 81 bd a8 36 82 3d 82 8a 53 bd ae 98 5f bd
       -0.06334326 0.06358081 -0.051645763 -0.054588966
000170 54 dc ea 3d db f7 53 bd 45 57 bf bc 22 81 59 3d
       0.114678055 -0.051750045 -0.023357043 0.053101666
000180 6b c9 9c 3d 25 2c 04 3e d3 6c 49 bd 8e 81 8c bb
       0.07655605 0.12907465 -0.04917605 -0.004287905
000190 6e 73 a9 bd a1 75 6c bd f3 ec fb bb c5 61 b7 bd
       -0.082739696 -0.057729367 -0.0076881587 -0.08954195
0001a0 92 eb 69 bc 0b 9c 39 3d bb c2 3c bd d9 05 06 be
       -0.014277356 0.04531483 -0.046084147 -0.13088168
0001b0 36 5c 1b 3d e4 b5 2f 3d ea 6f c1 bc 4f 39 46 bd
       0.037929736 0.042898074 -0.023612935 -0.048394497
0001c0 67 3f 98 3d cc e4 9b bc 12 9d b8 3d 1e 90 da bc
       0.07433968 -0.019029997 0.09014334 -0.026680049
0001d0 70 1c 1d be 75 b9 a3 bc ad f6 53 3c 0b 37 cf 3c
       -0.1534288 -0.019985894 0.01293723 0.025294801
0001e0 c8 71 d9 bd fd fe ae 3d c4 d0 4f bd 30 45 55 3d
       -0.10617405 0.08544729 -0.050736204 0.052067935
0001f0 0b 14 ba bd e0 c6 bd bb 10 b0 04 3c be 99 5d b9
       -0.09085854 -0.00579153 0.008098617 -0.00021133476
000200 09 4c 96 3c 7b 35 f9 3d ae 1b 76 3c 82 45 6c bd
       0.018346803 0.12168404 0.015021248 -0.057683475
000210 88 04 40 bd e2 96 1b 3d 23 f3 8a bc 81 30 92 bd
       -0.04687932 0.03798569 -0.01696164 -0.07138158
000220 ae 3a 8a 3d 4c 1b df 3d 71 0f 56 3c ed b1 b0 3c
       0.067494735 0.10893878 0.013065205 0.021569217
000230 33 e3 93 bb 63 2c db 3c b6 df 95 bd 42 41 c9 bd
       -0.0045131682 0.026754564 -0.0731806 -0.098269
000240 4c bb 93 bd c7 89 08 3c c5 62 af 3d ca bf ae 3d
       -0.072134584 0.00833363 0.08563761 0.085326746
000250 56 61 f3 3c a4 63 50 bc 08 12 c7 bc a3 b6 e7 bd
       0.0297095 -0.012719069 -0.02430059 -0.11314132
000260 43 e9 aa bc d3 d3 43 bc e4 61 b5 3d 49 2e 33 3d
       -0.020863181 -0.011952358 0.08856562 0.043745313
000270 c2 7b f2 bb 01 10 e6 bc f9 c7 03 3d 39 dc 2a bd
       -0.007400007 -0.028083803 0.03217313 -0.041713927
000280 db 4e ed bc fe f1 b7 bd ea 0c c8 bd da d7 90 bd
       -0.028968265 -0.08981703 -0.09768088 -0.070724204
000290 94 21 e7 3d ec 1d dd 3c d7 b0 77 3d 2a ff 80 3c
       0.112857014 0.026991807 0.060471382 0.015746672
0002a0 84 ca 93 bc 4c 33 fd 3d 77 70 8e 3d b9 d9 ea 3c
       -0.018040903 0.123633 0.06955045 0.028668271
0002b0 5c bf aa bc 04 1c a5 3d 4f 81 fc bd 63 c6 ac 3c
       -0.0208432 0.08061984 -0.12329351 0.021090692
0002c0 8a ef a4 bd 17 67 2e bc 10 ac 59 3d 99 87 ad 3d
       -0.08053501 -0.010644696 0.053142607 0.08473129
0002d0 ac 5e 96 3d 47 88 a0 bb ff 97 8e 3d d8 c1 44 3d
       0.07342276 -0.004899058 0.06962585 0.048036426
0002e0 25 75 89 3d 19 27 d3 3d e9 79 aa bd b1 b7 d5 3d
       0.06711797 0.10310192 -0.08324034 0.10435427
0002f0 49 df 5e 3d ca af 8b bd e1 a9 15 bb 47 60 81 3d
       0.05441216 -0.068206385 -0.0022836851 0.063171916
000300 42 2e 96 3d 74 e3 f2 3d 15 3a 7a bb d1 1a e1 bd
       0.07333042 0.118597895 -0.0038181592 -0.10991443
000310 95 18 0f bd dd 2b 59 3c 29 46 d1 bd 3a f5 f8 3c
       -0.034935553 0.013255087 -0.1021846 0.03039037
000320 87 36 a1 3d 5e ee 46 3c dc 17 5e bd 42 ed 94 3c
       0.078717284 0.012141792 -0.054221973 0.01817954
000330 52 a3 83 3d 18 94 a7 bd b6 f0 97 bd 1f 1d f1 3c
       0.06427635 -0.081825435 -0.07418959 0.029432831
000340 f3 80 e0 3c 87 07 3d bd 01 a9 45 3d 2b 6e f1 3d
       0.027405238 -0.046149757 0.048256878 0.11788591
000350 99 47 c9 bb a7 67 b8 3d 90 96 f3 bd 27 d8 99 bd
       -0.0061425683 0.09004145 -0.11893952 -0.07511931
000360 ec 06 a1 3b 6f 9b fa bb 05 05 d6 bd a0 a3 05 3d
       0.004914155 -0.0076479237 -0.10450176 0.032626748
000370 9a 4c 30 bd cf b0 1c bc 18 5c 25 3e 0d 7e a2 3d
       -0.043041803 -0.009563639 0.16148412 0.079341985
000380 e1 91 62 3d 7d 4c f4 bc 9b 13 38 3c 8e 25 95 3d
       0.055314902 -0.029821629 0.011235143 0.072825536
000390 df cb 25 bd 0e c0 72 3d 79 a2 bb 3c f4 3a bf 3d
       -0.04047763 0.05926519 0.022904621 0.09337416
0003a0 36 29 86 3a 42 86 8d 3c 98 f9 e2 bc 45 4b d2 bd
       0.001023567 0.017275933 -0.027706906 -0.10268263
0003b0 9b d1 b1 3d 16 10 03 be fb e5 b4 bd 5a f2 04 be
       0.08682557 -0.12799105 -0.08832928 -0.12983075
0003c0 0f ba e3 3d dc 25 be 3d cc 83 99 bd 8f 24 77 3c
       0.11119472 0.09284565 -0.074958414 0.0150844
0003d0 dd 8a 31 3d ab 6e 5f bd 0d 94 be 3d 6b a8 2a 3e
       0.04334532 -0.0545489 0.09305582 0.16665809
0003e0 4a 40 94 bd 07 de d3 bd 95 10 1e 3d 5e 1a 04 bd
       -0.07238825 -0.10345083 0.038590033 -0.03225171
0003f0 7e c3 91 3d fd cf 96 3c 51 03 c8 3d 91 5a 9a bd
       0.07117365 0.018409723 0.097662576 -0.075368054
