artifacts/lstm/20260130_194552/best_model.pt (torch, 260344 bytes, 13 tensors)

lstm.weight_ih_l0 f4 [256, 7]
000000 df d1 2e 3d 43 12 05 be 3f 7a 84 3d 30 80 8c bd
       0.042680617 -0.12995248 0.06468629 -0.06860387
000010 cf 16 18 3d 86 e9 19 bd 78 95 87 3d 52 4f 27 3d
       0.037131127 -0.03757622 0.06620306 0.04084713
000020 31 a7 07 3c 72 89 01 3e 43 ed 1b be 1d c8 fb bc
       0.008279608 0.12650087 -0.15227227 -0.03073507
000030 a2 b6 34 3d 6d 28 33 bd 31 fb ce 3d 68 9a bd 3c
       0.044119485 -0.043739725 0.10106505 0.023144916
000040 00 ac aa 3d 86 a8 e4 bd 4f 2f af 3d 23 9b af bd
       0.08333588 -0.11164956 0.08553945 -0.08574512
000050 03 e1 63 bd d6 58 e1 bd 6f 11 4f 3d 30 09 da 3c
       -0.05563451 -0.11003272 0.050553735 0.026615709
000060 24 f8 17 3e 8c d6 d4 3c 67 f3 9b bb cd 83 fb 3c
       0.14840752 0.02598121 -0.0047592404 0.030702496
000070 b1 1c 14 3d a2 bd 2b be 91 04 38 be d4 d6 dc bd
       0.036160175 -0.16771558 -0.17970492 -0.10783163
000080 96 f9 9a bd 0d 87 7b bd 1b 60 21 3c 9f d6 1c bd
       -0.07567136 -0.06140809 0.0098495735 -0.038290616
000090 55 47 10 bd af 23 30 3d b5 33 90 3d 1d de 3e bd
       -0.035224278 0.04300278 0.07041112 -0.046598542
0000a0 bb 50 1a 3e 4c c5 05 3b 6e d4 8f 3d 66 51 5c bc
       0.15069859 0.0020411788 0.070229396 -0.013447141
0000b0 4f f0 ac 3d 38 e6 90 bd 14 a6 03 bd fa 85 d8 bc
       0.08444273 -0.07075161 -0.032140806 -0.026431073
0000c0 14 ab 8f bd 8b c4 ad 3d 52 74 64 3c 1d 44 f9 bd
       -0.070150524 0.08484753 0.013943749 -0.12171195
0000d0 02 d4 3a bd 76 3f 50 be 9f ee a0 3d 74 e6 0f be
       -0.045612343 -0.20336708 0.07858013 -0.14052755
0000e0 f0 8f 0e be db a0 eb b6 3f 98 33 be ef 07 db bd
       -0.13922095 -7.022272e-06 -0.17538546 -0.106948726
0000f0 cf ed cd bc c8 83 60 bd c3 5e fa bd 94 3b c7 bd
       -0.02513781 -0.054813176 -0.122251056 -0.097281605
000100 c7 44 f5 3d b8 b0 98 3d 5d 57 df bc b0 14 15 3e
       0.11976009 0.074555814 -0.027263338 0.14558673
000110 0e 83 ab 3d 7a ec 37 3b 96 3e 13 be 4a fe 3e be
       0.08374606 0.0028064535 -0.14379343 -0.18651691
000120 e9 fa 96 3c b9 7e 8b bd 94 04 8f bc 80 24 74 bd
       0.01843019 -0.0681128 -0.017458238 -0.05960512
000130 3a d0 0a be f9 1d 07 be d0 1f 8b 3d 46 9c 5a 3d
       -0.13555995 -0.13195027 0.06793177 0.05337169
000140 b4 78 c1 bd dd a7 76 be 51 38 a2 ba 68 9d e3 bd
       -0.094468504 -0.24087472 -0.0012376403 -0.11114007
000150 e3 ac b8 bd 9f 3c 78 3d f7 7f 02 bd 6a 5f ae bd
       -0.090173505 0.060604688 -0.031860318 -0.085142925
000160 70 22 30 3d 0a 91 0a 3d 7d 99 15 3d 4f 8d c1 3d
       0.043001592 0.033829726 0.03652333 0.094507806
000170 43 95 81 3c 65 0b aa bd 7a 91 2d be cb c7 2f be
       0.015818244 -0.083029546 -0.16950026 -0.17166059
000180 cc 28 c1 3d f4 4b 3a be 74 91 cf bd df 37 8b bd
       0.094316095 -0.18193036 -0.10135165 -0.06797766
000190 c4 06 17 bd 49 a7 82 bd 13 1d 0d 3d ad 76 9c bd
       -0.036871687 -0.06379563 0.034451555 -0.07639823
0001a0 48 66 74 bd f2 f9 37 be 9b 68 de 3d 50 83 0f be
       -0.059667856 -0.1796644 0.10859796 -0.14014935
0001b0 16 06 40 be a0 c6 2d 3d 1e cc e0 bd 9e c0 84 bd
       -0.18752322 0.04242575 -0.10976432 -0.06482051
0001c0 1f c4 81 be b2 d6 c2 3d 16 f5 4b be cc bb 9b bd
       -0.2534494 0.09513606 -0.19917712 -0.07604179
0001d0 18 39 0b 3e 2e 41 65 3d bf 20 e4 3b 49 9b 0f 3e
       0.13595998 0.055970363 0.0069619115 0.1402408
0001e0 47 8e 41 be bb 6c 27 3e 1f 3f f2 bd 64 5e e4 bd
       -0.18901931 0.16350071 -0.11828446 -0.11150816
0001f0 ef 8b 00 3e 72 24 7c bd 1d c2 9a bd 56 bf 77 3d
       0.1255338 -0.061558194 -0.075565554 0.060485207
000200 ff ad 39 3d b2 8a a6 bd c6 aa da bc cb ad e6 bb
       0.04533195 -0.08131923 -0.02669276 -0.0070397607
000210 cd a2 c2 bc 0c 0e 11 3d a7 47 d5 3d 5f d9 7e 3e
       -0.02375927 0.035413787 0.10414057 0.24887608
000220 b4 3f ed bd a8 d2 8d bd 25 f8 f4 3c 63 8c 3b 3e
       -0.11584416 -0.06924945 0.02990348 0.18315272
000230 ee 33 b4 bd 0c 81 db bd 26 8f 72 3c 53 f0 b0 3d
       -0.08798967 -0.10717973 0.014804637 0.08639588
000240 a4 68 2f bd ae 87 05 3e 25 e9 8c 3d b2 2b 61 3d
       -0.042824402 0.13040039 0.06880406 0.05497331
000250 72 bf 58 bd cc f3 87 bd 77 81 a1 bd ad 8f fb 3d
       -0.05291695 -0.066382974 -0.078860216 0.12283263
000260 a3 79 b5 3b 2c b6 2c be fb 11 dc 38 c3 47 0c be
       0.005538182 -0.16866368 0.000104937666 -0.1369925
000270 69 a2 0a be 23 d4 54 be 0f a4 00 be 2f 4b a1 3d
       -0.13538517 -0.20784049 -0.12562583 0.07875668
000280 ed 06 d8 bc bd f1 32 bd 53 cb 56 3c 1b fe ec 3c
       -0.02637049 -0.04368757 0.01311 0.02892976
000290 fa 8f 19 bd 1f 06 ec bd 77 4a 0b 3c 0f f7 80 bd
       -0.037490822 -0.11524605 0.0085016405 -0.06297123
0002a0 91 d0 70 3d 05 4d 7c bd 12 15 c7 bd e2 86 10 bd
       0.058792654 -0.06159689 -0.09720816 -0.035284884
0002b0 9f 5d 18 be 6c e6 ab bc 49 8d 38 be 6e 3b 10 bd
       -0.14879464 -0.020983897 -0.18022646 -0.035212927
0002c0 19 b1 f3 3d 9b bb b8 3d db ad d0 bc 6e 9d 01 3e
       0.11899013 0.09020158 -0.025473526 0.12657711
0002d0 ab 94 91 bc 0a 3a 53 3c 5c b0 24 bd 39 cf 6a bb
       -0.017771086 0.012892256 -0.040207252 -0.003582908
0002e0 de 4c 18 3e 96 10 f2 bb 61 86 4c 3d 6e 04 dd 3d
       0.14873073 -0.007387231 0.04993284 0.107918605
0002f0 a1 15 bc bb 15 cb c3 bc dc 06 16 bd 88 51 88 3d
       -0.005739883 -0.023900548 -0.036627635 0.06656176
000300 11 98 ec 3c b4 02 8f bd 0a 8e d3 3d 22 18 c9 3d
       0.028881105 -0.069829375 0.10329826 0.09819056
000310 5c fc 80 3d 82 67 46 be 48 2a ac bd d2 ae 2c 3d
       0.06298134 -0.19375423 -0.08406502 0.04215891
000320 42 09 f9 bc d6 fa 0c be 66 b9 02 3e 3f ff 09 be
       -0.030399922 -0.13767561 0.12766036 -0.13476275
000330 39 70 0f be 07 ff 97 3d 0e 3f cd bd 7b 6d 2e 3c
       -0.14007653 0.074216895 -0.10021792 0.010646219
000340 1d 34 e4 bd 49 3f 5e bd 65 6d 5b bd 24 a3 84 3a
       -0.11142752 -0.054259572 -0.053571124 0.001011942
000350 78 ac 8b 3d 6a 2a fa 3d f3 0a 1c 3e 8b d9 47 3d
       0.06820005 0.12215121 0.15238552 0.04879145
000360 62 56 99 3c 34 b3 87 bd d1 94 d5 3d 5e c2 94 bb
       0.018717948 -0.06625977 0.10428775 -0.004539772
000370 70 95 a0 bd 4d ac 10 bc f3 93 30 3d ba a7 88 bd
       -0.07841003 -0.008830142 0.043109845 -0.06672616
000380 52 f3 6c bd 19 7f 0e 3e 36 51 21 bd c7 66 1a be
       -0.057849236 0.13915671 -0.03938409 -0.15078269
000390 af 7b cf bd 5a 67 3a 3d ed af f9 3d bf 56 5c bd
       -0.10131013 0.04550872 0.12191758 -0.053793665
0003a0 a5 70 0c bd 6e 9e 71 bd fa 7a 3b bc cd 68 d2 bd
       -0.034287114 -0.05898898 -0.011442894 -0.102738954
0003b0 55 40 62 3d e3 6b b9 bd 9a 38 8f bc 4f fe 2f 3e
       0.055237133 -0.09053781 -0.017483044 0.17186855
0003c0 23 80 ec bd c9 0c 99 bd 17 13 db bc 95 b7 69 3d
       -0.11547878 -0.07473142 -0.026742501 0.057059843
0003d0 ca db 85 bd c8 f9 ef bd 76 e1 16 be cf 7d 1d be
       -0.06536062 -0.11717564 -0.14734444 -0.15380023
0003e0 6b 9a 62 be 5d 2b 49 3d b8 07 0b 3b 92 99 15 be
       -0.22129218 0.04911362 0.0021214318 -0.14609364
0003f0 67 4d 87 3d 16 e9 b6 bd bc 59 09 bd 05 a2 35 bd
       0.0660656 -0.08931176 -0.033532843 -0.044343967

lstm.weight_hh_l0 f4 [256, 64]
000000 be 8e c0 3c a4 2e 0f 3c d7 87 cc bd fd 2c 07 3e
       0.023505565 0.008739147 -0.09986847 0.13200755
000010 0f fc 94 3d e6 f0 20 bd 31 d3 47 3e be 7c 8c 3d
       0.07274639 -0.03929224 0.19514157 0.0685973
000020 1c be 11 be 4c d1 7f bd a1 cb 95 bd c1 f7 2f bd
       -0.14232677 -0.06245546 -0.0731423 -0.042960886
000030 82 a6 fb bd ff 87 c5 3d c0 b3 86 3d 6b 54 56 3b
       -0.12287618 0.0964508 0.06577253 0.0032704126
000040 f8 ce 80 bd 28 6a a7 3d 62 c7 55 bc 63 61 db 3c
       -0.06289476 0.081745446 -0.013048025 0.026779836
000050 e6 af 9b bd 26 24 8e 3b 70 7f c4 3c 1e f4 41 3d
       -0.07601909 0.0043378053 0.023986548 0.04735195
000060 ea 99 34 bc 79 9e c6 3d 84 1c 26 bd 9c 7c 90 bd
       -0.011023024 0.09698195 -0.04055454 -0.07055017
000070 65 4d c8 bd 50 f5 a9 bd a7 af 04 3e 25 e9 05 3d
       -0.09780387 -0.08298743 0.12957631 0.032693047
000080 7d a6 d0 bd 97 47 5c 3d 48 75 aa 3d 35 2e 83 bc
       -0.10188005 0.05377921 0.08323151 -0.016013244
000090 6a 8d 12 3e ac 37 47 bb c7 9a f8 3d dc ec d3 3c
       0.14311758 -0.0030398173 0.121388964 0.02586978
0000a0 d1 98 21 3e 81 8b aa bd 20 32 9f 3d 85 00 00 3d
       0.15780951 -0.083273895 0.077732325 0.031250495
0000b0 df 65 ad bd c6 14 0b bd 0f db 84 3d b4 e3 62 bd
       -0.08466696 -0.033955358 0.064870946 -0.055392936
0000c0 13 6d 17 3d 9c 10 48 bd 7f f5 62 bd 0f 56 81 bd
       0.036969256 -0.048843965 -0.055409905 -0.063152425
0000d0 a8 ae 5d bd 47 2b e3 3b 02 c8 3a be 73 4d 8e bd
       -0.054121643 0.0069326493 -0.1824036 -0.06948366
0000e0 df a7 20 bd 02 75 c0 bd 2f 79 98 bd 0a 38 03 3e
       -0.039222594 -0.093973175 -0.07444989 0.12814346
0000f0 11 1d 91 bd 58 92 83 3d 58 04 67 3d 93 d6 0f be
       -0.07085622 0.06424397 0.056400627 -0.14046697
000100 29 f6 03 3e 22 f4 2c 3c eb 2d 9a bd 0e 29 72 bd
       0.12886871 0.010556253 -0.075282894 -0.059121184
000110 32 70 68 3c 81 ca e4 bb 5d 08 52 3a 76 76 1c 3e
       0.014186906 -0.006982148 0.00080121105 0.15279564
000120 32 5b e2 bb f5 46 0f 3e da cb 2f be 9d 9e b7 bc
       -0.006907844 0.13991912 -0.17167607 -0.0224145
000130 1c 01 36 be ad 76 2c 3e 8e fb 37 3d ee 3c 01 be
       -0.1777386 0.16842146 0.044917636 -0.12620899
000140 58 0b a2 bd ab dc 1e 3e e4 0f a7 bb 6a 9b fb 3d
       -0.0791232 0.15513866 -0.00509833 0.12285502
000150 cd b2 d7 3d 9e c6 5a 3d e7 2f fc b8 14 2a 5e bd
       0.105321504 0.053412072 -0.00012025219 -0.054239348
000160 43 3b d0 3b e2 fe 93 3d 97 9c ce 3d f9 af 0d 3c
       0.006354721 0.072263494 0.10088461 0.008647912
000170 44 3b f3 bc 4f a6 11 3e b6 c8 cb bd f1 32 47 3d
       -0.029691346 0.14223598 -0.09950392 0.048632566
000180 3d 14 a3 bc 49 cf c0 bd f6 02 e0 bd 18 df 91 ba
       -0.019907111 -0.094145365 -0.10938065 -0.0011129109
000190 0e e6 2a 3e c5 28 cd bd db 15 1f 3e 72 70 22 3e
       0.16689321 -0.10017542 0.15535681 0.15863207
0001a0 39 53 9a 3c e8 89 cf bd 8f 68 84 bd 20 26 f1 3d
       0.018838512 -0.101337254 -0.064652555 0.1177485
0001b0 61 c0 3e 3d f5 10 64 bc 19 a2 75 3c 7b e5 08 be
       0.046570186 -0.0139200585 0.01499226 -0.1336879
0001c0 a3 47 52 bd e2 1f 40 bb 3b 92 50 3d 59 4f 10 3e
       -0.05133785 -0.0029315879 0.050920706 0.14092769
0001d0 22 5d 07 3d 1b 9b dd 3d d4 88 56 3d e0 c5 89 bc
       0.033047803 0.108206 0.052376583 -0.016817987
0001e0 75 fc d8 3d f1 4b 79 bd 78 1d 2a 3b 54 0a 60 3c
       0.10595027 -0.06086344 0.0025957506 0.013674337
0001f0 08 94 dc bc ef b0 a0 bd 9b a5 43 3d ad 34 a8 bd
       -0.026926056 -0.078462474 0.047765356 -0.08213172
000200 92 eb 6a bc 04 86 19 3d b2 b2 e3 bd 0e 6e 12 3e
       -0.014338391 0.037481323 -0.11118068 0.14299795
000210 fa dc fe bd 40 22 29 3d 3a 97 5a bd 72 b7 31 bc
       -0.12444492 0.04129243 -0.053366877 -0.010846959
000220 e4 a9 92 bd c7 f1 c4 bc 99 46 da bd 8d a2 2f bd
       -0.0716131 -0.02404107 -0.10657997 -0.04287963
000230 88 97 3a bb 55 23 9f 3d b2 cc 9a bc d2 ad 0a 3e
       -0.0028471667 0.07770411 -0.018896434 0.1354287
000240 f4 df 24 3e ae 9a 77 bd 95 40 61 bc 0a e6 2a 3e
       0.16101056 -0.06045025 -0.013748308 0.16689315
000250 e3 ce ab 3d 84 21 15 3c ac 27 b5 3c 43 6e be 3d
       0.0838907 0.009102229 0.022113644 0.092983745
000260 98 f7 ce 3c c4 a2 93 bc e5 bb 22 bd a4 47 6d 3d
       0.025264546 -0.018021949 -0.03972997 0.05792965
000270 8d fe a8 3c e3 60 08 3d 00 f9 bc bd d3 16 42 be
       0.020629192 0.033295523 -0.092271805 -0.18954019
000280 6e a2 79 bc f8 d8 14 3b 62 47 47 3d 32 69 60 bd
       -0.01523648 0.0022712331 0.04865206 -0.054787822
000290 a8 02 03 bd e1 4a 29 bd 96 04 c7 3d 8a 22 62 3e
       -0.031984955 -0.041331176 0.097176716 0.22083488
0002a0 a2 05 8b bd 5b 09 14 bd 4a 56 32 bd 66 dd 21 3e
       -0.06788184 -0.036141735 -0.043539323 0.15807113
0002b0 56 a4 3a 3d 54 ac 15 be 41 76 32 3d 65 39 5d 3d
       0.04556688 -0.14616519 0.043569807 0.054009814
0002c0 0f 57 0a be 9a 23 a6 3d db 10 e1 bd bd a4 39 3d
       -0.13509773 0.08112259 -0.10989543 0.045323122
0002d0 27 b6 cb bd d7 b6 6d bd cf c2 1b bd 04 f7 fd bb
       -0.09946852 -0.058035698 -0.03802758 -0.007750394
0002e0 48 43 42 be b2 ca d1 bd 92 ed 84 bd 85 2e 78 bd
       -0.18970978 -0.10243739 -0.064906254 -0.06059124
0002f0 6f e7 8e 3d d5 12 8b 3d b7 3a 30 3e d2 1d 1c 3e
       0.06977736 0.06790701 0.17209898 0.1524575
000300 55 81 a9 bc dd a0 20 bd bd e6 be 3d 5a 5f 5b 3d
       -0.020691553 -0.03921591 0.093213536 0.05355773
000310 f0 cb 90 3d 61 68 05 3c e0 87 b1 3d a2 7b ec 3d
       0.07070148 0.008142562 0.08668494 0.115470186
000320 72 3f e9 bc 7c 19 8b bd a4 a1 cb bc 59 a3 99 bc
       -0.028472636 -0.0679197 -0.02485735 -0.018754648
000330 d9 3f d2 bd ee d5 9b 3d 03 f9 c2 3c bc 50 f7 bd
       -0.10266084 0.07609163 0.023800379 -0.12075946
000340 fd 02 b2 3d 1b 0b 93 bd 96 c2 15 3e 8c d6 24 3d
       0.08691976 -0.071798526 0.1462501 0.04024367
000350 45 bf 0f bd 4d 47 1f bd de d4 b4 bc 12 4f d0 3d
       -0.03509452 -0.038886357 -0.02207416 0.101713315
000360 ef 40 5c bd 8a 91 01 3c d3 6e 19 be 82 9d e2 bd
       -0.053772863 0.007908234 -0.14983682 -0.110651985
000370 eb 6a 88 3d 29 c4 7a 3c 5e d3 ff 3d 38 ec 52 3d
       0.06661018 0.015305557 0.12491487 0.051494807
000380 72 3e 25 bd cd 25 1b 3e 51 c8 5f 3d 17 fb 4b bd
       -0.040342756 0.15151139 0.054634396 -0.049800005
000390 4d c5 95 bd 39 42 a9 bc 91 6a 5d bd dd 73 92 3d
       -0.07313023 -0.02066146 -0.054056708 0.071510054
0003a0 a2 13 92 bb 62 5a 3d bd a9 82 66 bd 4d 4a ad 3d
       -0.004457907 -0.046228774 -0.05627695 0.084614374
0003b0 c9 4a af 3d c3 83 f1 3d f2 be d3 bd 77 d0 07 3e
       0.08559186 0.1179271 -0.10339154 0.13263117
0003c0 9c c1 bd 3d 8f f4 d2 3d 6e 2f 7e 3d 5f 8f c6 bd
       0.09265444 0.10300552 0.06205695 -0.096953146
0003d0 a9 a1 4f 3d b8 97 9b bc f5 fd 08 bc a4 26 ce bd
       0.05069128 -0.018993244 -0.008361329 -0.10065964
0003e0 f4 7e 2b 3d 4d 0b 1f 3c a4 b2 eb bd 6c 1c df bc
       0.04186912 0.009707284 -0.11508682 -0.027235232
0003f0 bc 62 b4 bd 7e 02 02 3d 6d 16 87 3d ab 26 60 3d
       -0.088078946 0.031740658 0.06596074 0.054724377

lstm.bias_ih_l0 f4 [256]
000000 51 ec 03 3e 7d bb f0 3d 4a 5f 1e 3e 7f 5f 04 3e
       0.12883116 0.117545106 0.15466037 0.12927054
000010 0a 5d c0 3b 00 4e 05 be b1 bf a8 bd 67 c3 e4 bd
       0.005870466 -0.13018036 -0.08239687 -0.111700825
000020 f2 eb ac 3d ca 51 0f 3d fa 4b 30 3e cb 25 a5 3d
       0.084434405 0.03499011 0.17216483 0.08063849
000030 50 cf 88 bd da 88 d8 3d 3d 66 42 bc b2 d6 de bd
       -0.06680167 0.10572977 -0.011865196 -0.10880794
000040 50 c0 84 bc fa ce 79 3d e4 d0 fa 3c ab e0 a5 bd
       -0.016204983 0.060988404 0.030617185 -0.08099493
000050 23 80 1d 3e 78 43 5a 3d a7 60 00 3c 0a f6 80 bd
       0.15380912 0.053287 0.007835544 -0.06296928
000060 49 14 c6 3d 9c dd a4 3d 7b 1a af 3d 0f fb f6 3d
       0.09671838 0.08050081 0.085499726 0.120596044
000070 9d ef a3 3d 4b 8b 1e 3d 99 03 ff bc 13 0d 2f bd
       0.08004687 0.03870706 -0.031129645 -0.042737078
000080 e7 1e ba bd ec 3b b5 3c 74 e6 d9 bb 72 26 16 3e
       -0.090879254 0.0221233 -0.0066497866 0.14663103
000090 4c d8 6d 3b f9 75 30 3e 54 a9 f5 3d dd 6a a1 3d
       0.0036292253 0.17232503 0.119951874 0.07881711
0000a0 c6 7d 86 3d 55 02 c4 3d 01 71 0f bd 62 a5 02 3d
       0.06566958 0.09570757 -0.03501988 0.031896003
0000b0 0c 03 a2 3d ef 83 0c 3e ea 4a 56 3e 40 92 6e 3c
       0.079107374 0.13722204 0.20927015 0.014561236
0000c0 05 d5 ac 3d 75 93 ac 3d e4 b0 13 3e f0 a2 a3 3d
       0.08439068 0.08426563 0.14422947 0.07990062
0000d0 f9 94 ee 3d de e6 a3 3d 1e 81 32 bd 39 e0 87 bd
       0.11649508 0.08003019 -0.043580167 -0.06634564
0000e0 f2 d9 b8 3d d5 72 c9 3d e1 ef e0 3d 9f 7a cf bc
       0.09025945 0.098363556 0.10983253 -0.025327025
0000f0 89 20 3e bc 42 ad 25 3d 1c 8c a5 3c 0a 08 73 bd
       -0.011604437 0.040448435 0.02020841 -0.05933384
000100 99 b7 3a bd d3 4c a4 3d f6 8f 36 bc 7a 43 a7 bd
       -0.04558525 0.080224656 -0.011142721 -0.08167167
000110 8d 32 80 bd 15 93 3a 3d e5 70 a1 bd d6 d9 aa bc
       -0.06259642 0.045550425 -0.07882861 -0.020855825
000120 fc 9a 67 3d 6e 8c 6b bd 01 dd 30 3e 40 5a bf 3d
       0.05654429 -0.05750697 0.17271806 0.09343386
000130 97 5b 78 bc bb 79 88 3d dc d7 39 3d ca c1 d8 bd
       -0.0151585555 0.06663843 0.045371875 -0.10583837
000140 7e c8 cb 3d 13 fc 8a 3d 2c 04 13 bd 52 5d 96 3c
       0.0995035 0.067863606 -0.03589265 0.018355045
000150 98 e2 19 3e 2b 24 a8 bd eb 67 06 be ea 94 ba 3c
       0.15027845 -0.082100235 -0.13125579 0.022776086
000160 c3 e0 71 3d e3 87 a2 3d 1f 1d 05 bc cd d8 84 3d
       0.05905224 0.079360746 -0.008124619 0.06486664
000170 e1 70 d1 3c f3 2c 3b bd 86 e1 8e 3d bd 8f e4 3c
       0.02556652 -0.045697164 0.06976609 0.027900571
000180 15 ee cf bd 3c 76 84 bd 02 8a f5 3d d8 69 77 3d
       -0.101528324 -0.06467864 0.119892135 0.060403675
000190 dc d5 ca bb e4 38 96 bd 7a 87 15 3e 31 d0 7a bd
       -0.006190045 -0.0733507 0.14602461 -0.061233703
0001a0 88 29 e5 bd 17 21 fe 3d 62 1a c2 bd d2 33 0f 3d
       -0.11189562 0.12408655 -0.09477688 0.03496153
0001b0 1c 2b 33 bd 55 8c 11 3e cb bd 6c bd 50 5e 8b 3d
       -0.043742284 0.14213689 -0.05779819 0.06805098
0001c0 60 c0 5a bd 5c 80 2a bd 4d db 2b 3d 6f bf b8 bd
       -0.05340612 -0.04162632 0.04195719 -0.09020888
0001d0 a2 2a 54 bb 07 30 d4 3d e1 c4 b0 bd e6 fc 0d bc
       -0.0032374044 0.10360723 -0.08631302 -0.008666253
0001e0 c5 ce 84 bc 8d d1 83 bd 7b 44 9a 3d e6 e8 1b bd
       -0.016211877 -0.06436453 0.07532593 -0.038063906
0001f0 bd e8 53 bb f1 ac 09 3e 54 08 3c bd 12 5c c7 3d
       -0.0032334768 0.13444878 -0.04590638 0.09734358
000200 2d 0e 16 bd 0b 20 85 3c dd e8 0f be 1a 08 cd bd
       -0.036634613 0.01625063 -0.14053674 -0.10011311
000210 d7 26 11 3c a2 75 ce b9 cf 64 48 bc 3b ce 92 3d
       0.008859358 -0.00039379025 -0.012231066 0.071682416
000220 cf fb 1c be 49 df f9 3c 46 70 0b be 41 ac 3f 3d
       -0.15330432 0.030501978 -0.13617048 0.046795134
000230 10 84 76 bd 44 a6 01 be fb d7 75 3d b8 33 8d 3d
       -0.06018454 -0.12661082 0.06002043 0.0689463
000240 51 cc 52 bd 73 d1 8b bd 69 1c ef 3d 87 cf 92 3c
       -0.051464383 -0.06827059 0.11675341 0.017921222
000250 6b e4 db 3d 83 70 fc 3d b3 aa b3 3d 6c 7a ec 3c
       0.10736927 0.123261474 0.08772793 0.028866969
000260 a5 c1 a8 3d 52 b6 cf 3d e6 35 b5 bd d3 c6 5e bc
       0.0824006 0.10142197 -0.08848171 -0.013597208
000270 e4 80 5f bc 66 a4 0b 3e 89 f8 3d bd 14 5d ac bd
       -0.01364157 0.13636932 -0.0463796 -0.08416191
000280 53 ff de 3b aa 3e 9a 3c c2 25 c9 3c 56 5e 5d bc
       0.0068053394 0.018828709 0.024554137 -0.013511261
000290 bf f8 97 3d e4 d3 a9 3d 97 45 ff 3d cb fb e1 3d
       0.074204914 0.08292368 0.12464445 0.11034354
0002a0 27 aa 1d 3d 7d 53 75 bd ce 91 39 bc b1 cc 72 3d
       0.038492348 -0.059894074 -0.011326266 0.05927724
0002b0 f5 19 b5 bd f8 19 f3 3d 0a 67 30 3d c2 3e 6b bd
       -0.088428415 0.118701875 0.043067016 -0.057432897
0002c0 99 d3 20 bd 0c ea ef 3c d9 6a 9d bc 50 aa 48 3c
       -0.039264295 0.029286407 -0.019215988 0.012247637
0002d0 e2 87 b4 bd 0a 20 88 bd c9 7b b8 bd f0 75 33 3c
       -0.0881498 -0.06646736 -0.09007985 0.010953411
0002e0 aa c0 56 3d 3f d5 f8 bd 54 47 2e bd ff 65 08 bc
       0.052429833 -0.121500485 -0.042548493 -0.008325099
0002f0 51 b0 c4 bd 05 c9 15 bd db f6 d2 3c 2a 5c eb bd
       -0.09603942 -0.03656866 0.025752475 -0.11492188
000300 78 ad 1f bd 07 85 74 3d c9 49 f3 bc 26 16 70 bd
       -0.038983792 0.059697177 -0.02969827 -0.058614872
000310 84 72 b4 bd 68 4d 19 3d 55 c8 86 bd e1 a5 48 3d
       -0.088109046 0.037427336 -0.06581179 0.04898632
000320 9d 42 cc bb 3f bf 26 3d 98 57 fd 3d 22 cd cb 3c
       -0.006233527 0.04070973 0.12370223 0.024878088
000330 cb 06 09 3e f2 9a 17 3c fd ec 93 3d 8b 1d 4c bd
       0.13381498 0.00925325 0.07222936 -0.049832862
000340 1a 7d 0d 3e 51 47 d6 bd b6 c2 2d bd 43 7a b2 3c
       0.13817254 -0.10462821 -0.04242202 0.021786815
000350 2a 3a b7 3d 73 5b 71 3b 44 d1 e5 3d dc 9d 86 bd
       0.08946641 0.003682819 0.11221555 -0.06573078
000360 aa 4f 29 bd 32 77 5d bd 8d 10 e1 3b be 28 2b 3d
       -0.04133574 -0.05406875 0.006868428 0.0417869
000370 1a 7a b0 3d 2a 0b 23 3d 57 27 16 3e 17 81 0d 3c
       0.08617039 0.03980557 0.14663444 0.008636734
000380 91 7b 04 bd 3a af 95 3b aa 68 38 bd 38 bf 26 3d
       -0.032344405 0.004568008 -0.04502169 0.040709704
000390 e9 ac 8e 3d 71 39 9b 3c 51 85 7d 3d 45 f9 01 bd
       0.06966574 0.018948289 0.06189472 -0.031731863
0003a0 10 28 08 3d f1 62 4d bc 64 8f 67 bd d6 05 23 bd
       0.03324133 -0.0125357965 -0.056533232 -0.039800487
0003b0 a2 14 15 bd 59 f6 45 bc b7 42 e5 3d c8 be 1d bd
       -0.03639663 -0.01208266 0.111943655 -0.03851202
0003c0 88 18 9f 3d a7 e7 b8 3a 8b 77 25 bc a9 f8 2f 3d
       0.07768351 0.0014107124 -0.010099302 0.04296175
0003d0 b1 a6 b8 3d 41 1b 08 3e 87 a4 c8 3d 08 f3 c5 bc
       0.09016169 0.13291647 0.09797006 -0.024163738
0003e0 d6 d2 14 3d 15 41 d8 3d 56 7c 22 bd 4c a8 df 3b
       0.03633388 0.105592884 -0.039669357 0.0068254825
0003f0 f9 da 92 bc 67 cf da bc c5 63 0d 3e 48 29 36 3d
       -0.01792668 -0.026710225 0.1380759 0.044472963

lstm.bias_hh_l0 f4 [256]
000000 8f 89 7c 3d 42 4d 2b 3d 35 6d bc bc d2 4c b8 3d
       0.061654624 0.041821726 -0.023001293 0.08999027
000010 82 a2 7c bd 5b 45 8c 3d 73 ea f1 3d 2e 12 d7 3c
       -0.061678417 0.06849166 0.11812296 0.026253786
000020 27 df fa 3d f8 5c 84 bd 93 07 f1 3d 01 14 1a 3e
       0.12249594 -0.06463045 0.11769023 0.15046693
000030 03 73 90 3d cc d4 d5 bd 9e 68 1e 3c d6 43 5e bc
       0.07053187 -0.104409784 0.009668497 -0.013565978
000040 cd 1e 0d 3d 61 5f 1f bb b6 b1 cc 3d b5 92 a4 3b
       0.034453202 -0.0024318325 0.09994833 0.0050223717
000050 b9 2e 8f bb 4c b0 02 3e b7 1e 98 ba 36 a2 a7 bd
       -0.0043695834 0.12762564 -0.0011605833 -0.08185236
000060 69 5d 46 3d 3e 36 83 bd 51 8a ca 3d ea e5 15 3e
       0.048428927 -0.0640683 0.09889663 0.14638487
000070 4e 75 f6 3d 85 2c f1 3d 53 7d a9 bc 82 ed 13 bd
       0.12034093 0.117760696 -0.020689642 -0.036115177
000080 2a 8d ae bc a7 be 04 3d e6 e5 11 3e a1 66 b4 bd
       -0.021307547 0.032408383 0.14247856 -0.088086374
000090 36 18 80 bd 59 66 37 3d b2 36 21 3d 43 4b 92 3d
       -0.06254618 0.04477534 0.039358802 0.07143261
0000a0 e7 32 c9 bd a9 93 db 3d 07 42 c1 bd 1a 95 3d bd
       -0.09824162 0.10721523 -0.09436422 -0.046284772
0000b0 07 79 22 bd 22 44 aa 3d 14 c7 57 bc ee 72 c3 3d
       -0.039666202 0.083137766 -0.0131700225 0.095434055
0000c0 fb 69 a7 3d c9 b0 e5 3d 2d 99 39 bd 75 86 d8 3d
       0.08174511 0.1121536 -0.045312095 0.10572521
0000d0 31 44 01 3e be 17 d1 bc fa 36 b7 bd 02 d3 8a 3a
       0.12623669 -0.025524016 -0.08946033 0.001059145
0000e0 2c 09 44 3d 90 1f 2c 3e c3 c0 d5 3b be 25 83 bd
       0.04786031 0.16808915 0.006523223 -0.06403683
0000f0 7b e6 24 3d bf de c5 bc e9 94 82 3d 78 8e d2 bc
       0.040258866 -0.024154065 0.063760586 -0.0257027
000100 8c e2 9b bd f5 7f 07 3e 24 d5 81 bd c0 25 a0 ba
       -0.0761157 0.13232405 -0.063394815 -0.0012218282
000110 21 25 c8 3d b9 7c e1 bd 4f db 9b 3d eb 87 89 bc
       0.09772707 -0.11010117 0.07610189 -0.016788444
000120 8b 11 80 3d 57 0e e1 bd 0c 8f 20 bd ff a3 aa 3c
       0.06253346 -0.10989063 -0.03919892 0.020830153
000130 44 d8 a1 bc 27 54 fe 3d 5c 36 50 3d 9e 22 99 bd
       -0.019756444 0.124183945 0.05083309 -0.07477306
000140 70 01 10 bd bf 24 4c bd c6 bf 63 bd f6 ec f3 bc
       -0.03515762 -0.04983973 -0.05560281 -0.029776078
000150 b7 28 48 3d 56 11 95 3d 29 88 e4 3a eb c3 c3 3d
       0.048866954 0.07278697 0.0017435598 0.09558853
000160 0f 68 eb ba 06 72 69 3d 1f 98 90 bc 9b df 49 3e
       -0.0017960089 0.056993507 -0.017650662 0.19714205
000170 88 e2 53 bd ff ac df 3d a8 8f cc bd 51 b3 0c be
       -0.05172971 0.10921668 -0.09988338 -0.13740279
000180 28 15 6f 3d 40 85 35 3d 50 62 16 3d c0 e9 28 3d
       0.058369786 0.04431653 0.03671485 0.041238546
000190 a6 a6 f4 bc 0f 6e fb 3c da b8 a6 3d 26 e2 ac bc
       -0.02986462 0.030692128 0.081407264 -0.02110393
0001a0 dc 01 86 3d 40 9e e0 bc 8e 7b 0d bd 49 40 e6 ba
       0.065433234 -0.02741921 -0.03454166 -0.0017566766
0001b0 a2 71 c4 3d 5a 55 97 bd d5 c6 02 be b5 e0 ba bc
       0.09591986 -0.073893264 -0.12771161 -0.022812227
0001c0 bf 94 27 3d 27 c3 10 3e df 13 c5 3d 07 60 e5 bc
       0.04091334 0.14136945 0.09622931 -0.027999891
0001d0 1e 72 92 3d 68 d2 32 bd 7d e5 16 3d fe 0a 2c bd
       0.071506724 -0.04365769 0.03683995 -0.04200267
0001e0 82 5c 80 bd 61 e1 1d bb 9f f9 5b 3d 35 cd 2a 3d
       -0.062676445 -0.0024090635 0.053704854 0.041699607
0001f0 17 a4 03 3d 28 48 a6 bd 4b f5 30 bd a8 07 07 bd
       0.03213891 -0.081192315 -0.04320268 -0.032966286
000200 b8 a2 c2 3d ae 5c 31 bd 33 0f b2 bb 8f f4 c5 3d
       0.095036924 -0.043301277 -0.005433941 0.096657865
000210 64 eb a8 bd 96 79 e7 bd 51 75 c3 3d 7e ad 10 3c
       -0.08248022 -0.113024876 0.09543861 0.008830426
000220 06 c5 9a 3d e9 2c a3 bd a5 b2 ca bc dc f2 50 bb
       0.075571105 -0.0796755 -0.024743387 -0.0031883037
000230 06 48 20 3d 6f b3 d0 3d 3f 12 89 3d b8 72 5b bc
       0.039131187 0.10190474 0.06692933 -0.01339405
000240 9e 98 a8 3d 49 f1 0d 3e 28 bc 96 3d b2 5d 8d 3d
       0.082322344 0.13861574 0.07360107 0.069026366
000250 77 58 92 bd a4 55 f9 3d 79 47 c2 bd 27 0d 97 bd
       -0.071457796 0.12174538 -0.094862886 -0.073755555
000260 5e 09 f4 3c 40 d4 d2 3d 23 54 63 bc 23 16 03 be
       0.029789623 0.1029439 -0.01387504 -0.12801413
000270 40 cd c0 bd c1 b7 ad bd c4 5a e8 3c c1 76 3a 3d
       -0.09414148 -0.08482314 0.028363593 0.04552341
000280 1c 0e 9a 3d 36 05 94 bd d2 3c 7b 3d c8 21 4d 3c
       0.075222224 -0.072275564 0.0613373 0.012520261
000290 20 f5 0f 3d fe 00 08 be fe 84 a6 3d f7 e4 e9 bc
       0.03514588 -0.13281628 0.08130835 -0.028551562
0002a0 c8 92 d7 3d fe a8 ac bd 59 7f b3 bd d9 35 ff bc
       0.10526043 -0.0843067 -0.08764524 -0.031153606
0002b0 99 a9 d4 bc a5 f5 20 bc f0 67 4b bc a6 ac 9c bb
       -0.025959777 -0.009824191 -0.012414917 -0.0047813235
0002c0 88 c9 59 3c b3 ce 72 3d 82 8d d8 bd 4c 97 64 3b
       0.013292678 0.059279155 -0.105738655 0.003488022
0002d0 42 9c bb bd 70 fa 97 3b 47 42 ff bc d5 47 ac bd
       -0.09160663 0.004638009 -0.031159533 -0.084121384
0002e0 f6 93 b2 3c d5 47 cb 3d 3a 7a 05 be 0b b7 8b bd
       0.021799069 0.0992581 -0.13034907 -0.06822022
0002f0 79 89 c9 bd 33 07 97 3d 8f 08 19 3d 01 5d d3 bd
       -0.09840674 0.0737442 0.037361678 -0.103204735
000300 11 fb 94 bd ad 03 79 bc 67 01 a1 bd 1b 0f 1f 39
       -0.072744496 -0.01519863 -0.078615956 0.00015169049
000310 f9 27 59 3d e6 31 8f 3b 61 2f 43 bd f0 c9 44 3d
       0.053016637 0.004369962 -0.047652606 0.048044145
000320 92 b4 78 bd 73 b1 c3 bd 5c db 6d 3e 91 f3 38 3e
       -0.06071908 -0.0955533 0.2322821 0.18061663
000330 f8 23 b0 bd 4f e8 07 3d 87 d3 3a 3c b2 d6 15 bd
       -0.086006105 0.03318053 0.011402971 -0.036581703
000340 00 5a ae 3d 19 44 0b 3e e3 08 9c 3d 44 8f bc bc
       0.0851326 0.13600196 0.076188825 -0.023017533
000350 e9 11 f5 3d 64 60 88 bd 88 98 b6 3d d6 7e 9d 3c
       0.11966307 -0.0665901 0.08915812 0.01922552
000360 22 7e ac bd 71 54 af bd 75 b2 a0 3d 6c 03 ec bc
       -0.084224954 -0.08561028 0.07846538 -0.028810225
000370 2e 3b f7 3c 85 f2 54 bd cd c4 97 bc 35 49 83 3b
       0.030179586 -0.051989097 -0.01852646 0.0040065297
000380 1c 93 35 3d 47 6e 18 bd 43 e5 2c bd 9d 6d be bc
       0.044329748 -0.037214544 -0.04221083 -0.023245627
000390 2c 91 b3 3c 41 8f 03 bc ee da 2c bc 9d 62 5c bc
       0.02191981 -0.00802976 -0.010550244 -0.013451246
0003a0 2c 4e fd 3c c9 26 cb 3c 19 d8 ff bd b7 0d f8 3c
       0.030921064 0.024798768 -0.12492389 0.030279977
0003b0 af 9c a3 bc 62 98 2f 3c 72 d1 0a 3e 58 8c fa 3d
       -0.019972173 0.010717483 0.1355646 0.122338
0003c0 42 12 3a 3d e7 6a c5 bc 09 e7 a8 3d cc c9 1b 3c
       0.04542757 -0.024098827 0.082471915 0.009508561
0003d0 a3 fc 39 bd 1a 0e 28 bd b7 c8 86 bd 3d d2 03 3e
       -0.04540695 -0.041029073 -0.06581252 0.12873168
0003e0 08 0b 96 bd cb 23 9e b9 60 24 bc 3d 14 76 94 bd
       -0.07326323 -0.00030162776 0.091866255 -0.07249084
0003f0 33 a4 f3 3d 90 5d 84 3d e4 39 61 bd a1 c8 9c bd
       0.11896553 0.06463158 -0.05498685 -0.076554544

lstm.weight_ih_l1 f4 [256, 64]
000000 8e 60 f9 3d e3 a2 92 bd 9a a8 db 3d d3 f3 e9 bd
       0.121766195 -0.071599744 0.107255176 -0.11423459
000010 1b ed 8c 3d 3b 1c 75 bc 2b 53 0c 3d 69 eb a6 bd
       0.06881162 -0.014960344 0.034259003 -0.0815037
000020 e0 4f 68 3d ed d1 7a bd 45 59 11 3b dd f2 4b be
       0.0567168 -0.061235357 0.0022178453 -0.19916864
000030 0c 83 79 bd 0b 88 05 bd 9c 7b 83 3d 58 d7 e4 3b
       -0.06091599 -0.032600444 0.06420061 0.006983679
000040 90 04 0d be d1 b4 fc 3c 70 f1 9d 3d 99 28 5a bd
       -0.13771272 0.030847939 0.07712066 -0.053261373
000050 a3 ff d7 bd 9d 1b d2 bd 39 61 d4 3c 31 7e 1b 3e
       -0.10546806 -0.10259173 0.025925266 0.15184857
000060 3d a3 b8 3c 7a 61 ae 3d e4 1b 58 3d 3a e8 8c 3d
       0.022538776 0.08514686 0.052760974 0.06880231
000070 25 b5 21 bd ba e0 3c bd 92 2c d3 3d 1f 8e f3 bd
       -0.039479394 -0.046112753 0.103112355 -0.11892342
000080 7a ab da bc 5a 9e 80 bc 85 bd a6 3d a8 9e c4 3c
       -0.026693095 -0.015700508 0.08141617 0.024001434
000090 76 52 4f 3c 58 31 87 3d ab 7a ec bc e0 6f b7 bd
       0.012653938 0.066012084 -0.028867086 -0.08956885
0000a0 a7 41 7e 3c 7a 17 da 3c c0 9c e3 3d fc 0d 21 3b
       0.015518582 0.026622523 0.11113882 0.0024574986
0000b0 96 c1 6e 3d 63 88 a7 bd d0 d7 28 3e c9 b1 17 3d
       0.058290087 -0.081803106 0.16488576 0.037034784
0000c0 64 44 78 bd 0a 25 7b 3d 03 9a cf bd 0e a7 8a 3d
       -0.060612097 0.06131462 -0.10136797 0.067701444
0000d0 5c 42 a9 3d bf a4 38 3e 13 c2 37 3d df 55 50 bd
       0.0826461 0.18031596 0.044862818 -0.050863143
0000e0 04 e4 91 3d 96 23 7e 3d 26 a6 1d bd fc 56 77 bd
       0.07123569 0.062045656 -0.03848853 -0.06038569
0000f0 7c cf 34 3c aa c1 b0 bd f9 fd 87 3c 96 3b 51 3d
       0.011035796 -0.086306885 0.016600596 0.051082216
000100 58 83 af bc 8a c3 8a 3d f0 81 63 bd a2 7c 11 bd
       -0.021424934 0.06775577 -0.05554384 -0.03551925
000110 21 f1 ac 3a dc a5 2e bd d8 8c 40 bd 9c c0 b0 bc
       0.0013194421 -0.042638645 -0.04700932 -0.021576218
000120 11 aa c8 3d 29 0e 01 bd d7 0c 9b 3b c3 84 3d be
       0.097980626 -0.031507645 0.0047317552 -0.18507676
000130 91 f7 d3 3d ce a4 1a bc 83 d9 db 3d 21 b3 b3 3b
       0.10349954 -0.009438707 0.107348464 0.0054840003
000140 e9 be e0 bd 2a fd 49 bd 12 8f eb bd 86 f3 db 3d
       -0.10973913 -0.0493137 -0.11501898 0.10739808
000150 17 95 aa 3c 2a 84 40 3d 65 72 70 3b 8d ea c4 3d
       0.020823045 0.04700104 0.0036689278 0.096150495
000160 9b 7a b3 3d 44 7c 9e bd 50 8e 01 be 4c 4f 9b bd
       0.087636195 -0.077385455 -0.12651944 -0.07583484
000170 22 30 cf 3d 56 2b a0 bd 07 b3 35 3e be 44 77 bc
       0.101166025 -0.07820766 0.17744075 -0.015092073
000180 52 1d 77 bd 20 41 19 3e d2 36 8a 3d 5c e0 f4 3d
       -0.060330696 0.1496625 0.067487374 0.11956856
000190 a1 6b de bc 2f 3e 86 3d 32 f3 61 3d 4b a1 56 bc
       -0.02715093 0.06554829 0.05516357 -0.013099979
0001a0 b4 5c f6 3d ed 91 a1 3d a9 9d 47 3d 5d 8a 1b be
       0.120294005 0.07889161 0.04873434 -0.151895
0001b0 2f 77 55 3d 5c 61 dc bd ec 6e 82 3d 68 63 cb bd
       0.052115615 -0.10760757 0.06368813 -0.099310696
0001c0 ea e9 e1 3c 2a d9 83 bc 1e fe fa 3d ab f3 b3 3c
       0.02757736 -0.016094763 0.122555 0.021966776
0001d0 8f 9e 84 3d 4c 0a 9b bd 7f 0d 89 bd a8 c6 6a 3d
       0.06475555 -0.07570323 -0.06692027 0.05731836
0001e0 86 d9 07 3d a6 dc be 3c da 2c df 3d ba 6f 03 be
       0.03316643 0.023298573 0.10897227 -0.12835589
0001f0 9e 6d 15 3e 89 f6 31 bd 2a 65 28 3b 77 0d e5 bd
       0.14592597 -0.043448005 0.0025695064 -0.11184209
000200 e2 f4 df 3b 7f 5e 08 be 95 2f dd 3d de de 11 bd
       0.006834612 -0.13317297 0.10800091 -0.035612933
000210 cd 24 15 3e 5f dd 94 bd c5 14 b4 3d a1 a6 16 3d
       0.1456482 -0.07268786 0.08793024 0.036780003
000220 84 07 61 3d 45 38 9a bd 1b 1a 62 bd a7 f8 c4 bd
       0.054938808 -0.07530264 -0.055200677 -0.09617739
000230 5e 1f a3 bd be 17 45 bd f7 0b b1 3d 12 d8 b3 bc
       -0.07964967 -0.048118345 0.0864486 -0.021953616
000240 67 74 a9 3d 12 71 c5 bd 14 e0 1b be e1 99 06 3e
       0.08274155 -0.09640707 -0.15222198 0.13144638
000250 ef 77 e1 bd 0c fb 19 bd b0 99 15 3d fa 8b 1c 3d
       -0.11009204 -0.037592933 0.03652352 0.03821943
000260 ee 4b cc 3d 8e 07 b5 bd 37 0f 83 bd 67 98 ba 3d
       0.0997542 -0.088393316 -0.063993864 0.091111
000270 b0 09 1d 3e 8c 08 c0 bd 1a e1 ce bc d0 d4 7b 3d
       0.15335727 -0.0937663 -0.025253821 0.06148225
000280 5c 4d d7 b9 f7 27 bb bd 82 47 51 3c f9 56 02 3e
       -0.00041065633 -0.09138482 0.012773396 0.1272849
000290 c8 70 91 bd f9 1d ad 3d bc af 1b be a1 a2 dd bb
       -0.071015894 0.084529825 -0.15203756 -0.0067637716
0002a0 89 3a 02 3e c7 df d9 3c d6 b7 01 bb ad 5f ad 3c
       0.12717642 0.026595963 -0.0019793413 0.021163786
0002b0 9f ee 1c 3d 9d 82 2f 3d fe 2e e1 bb d0 7d 3b 3d
       0.038313504 0.042849172 -0.006872057 0.04577428
0002c0 98 a4 df 3d db a5 6f bd df b6 ad bd d1 ab cf 3d
       0.10920066 -0.05850778 -0.084821455 0.10140193
0002d0 2f dd 26 3c 18 db 2b 3e 36 df ab 3d 61 bd 68 3c
       0.01018457 0.16782796 0.083921835 0.014205308
0002e0 27 66 0b 3d 17 2d b9 bc 7f e7 20 bd 8d ff 86 bd
       0.034032967 -0.022604508 -0.039283272 -0.06591711
0002f0 9a 01 fc bc 82 37 2e 3d 41 13 b0 3c 3b 42 5c bc
       -0.030762482 0.042533405 0.021493556 -0.013443525
000300 2a dd 96 3d 2e 64 2c bd 24 71 18 be 66 a8 e0 3d
       0.073664024 -0.042087726 -0.1488691 0.109696195
000310 ab 8d 5a 3d 5a 2a a9 bd f7 c0 4f bc 95 dc c7 3d
       0.05335776 -0.08260031 -0.012680284 0.097588696
000320 39 a0 c9 bd 12 af 0b be a5 79 70 3b 96 7c 65 be
       -0.09845013 -0.13641003 0.00366936 -0.22410807
000330 c8 40 aa bd 9a d1 19 3e b7 2b d6 3d e6 a5 b4 3d
       -0.08313137 0.15021363 0.10457557 0.08820705
000340 ec 72 e6 bd bd b3 f0 3c 80 92 e0 bc ed 2d a0 bd
       -0.11252388 0.02938258 -0.027413607 -0.0782126
000350 b8 e8 a1 bd a1 1c 1e 3d d1 88 d3 bc 71 4a bc 3d
       -0.07905716 0.03860152 -0.025822075 0.09193886
000360 18 30 9e 3c 10 aa d2 bd 61 27 2e 3d 27 f5 c8 3d
       0.019310042 -0.10286343 0.042518023 0.09812384
000370 63 4b a7 3d 4c 03 a0 bb 58 86 2f bd 50 a7 3a bd
       0.08168676 -0.0048832055 -0.04285273 -0.045569718
000380 a3 16 f6 3c 5b 03 f9 bd c2 ab 92 3d 28 0d e5 3d
       0.03004009 -0.12158843 0.071616665 0.1118415
000390 fd e2 94 bd fa cf ac 3d 4b d8 2c 3d ee fb 82 bb
       -0.07269857 0.08438106 0.04219846 -0.0039973175
0003a0 16 a6 12 3e c3 ca e0 bc c1 07 3e 3d 9e 03 83 3c
       0.1432117 -0.027440434 0.046394113 0.015992936
0003b0 91 21 05 bc 95 e8 50 bd 27 6c 16 3e 95 ac 0b 3e
       -0.008125679 -0.051003058 0.14689694 0.13640054
0003c0 60 da 2f be 0d fd cb bc d2 a3 ac bd 10 d9 e8 3d
       -0.17173147 -0.024900937 -0.08429684 0.113695264
0003d0 14 a5 a5 bd 16 47 44 3b f4 af 06 bd e3 b1 9f 3d
       -0.08088127 0.0029949597 -0.032882646 0.07797601
0003e0 89 c5 a0 3d 81 fe ff bc ef b7 da bd 63 e8 04 3d
       0.07850177 -0.031249287 -0.10679614 0.032448184
0003f0 ba 23 21 bd cf f0 d8 3d 99 b7 33 bc a3 f1 80 bd
       -0.039340712 0.105928056 -0.010969066 -0.062960885

lstm.weight_hh_l1 f4 [256, 64]
000000 14 bf 01 be 94 ba 48 bc 33 8c a5 bd 6a d3 7c 3d
       -0.12670547 -0.012251515 -0.080833815 0.061725058
000010 9f 2d ac bd e2 40 2a bc f5 f2 39 be 0e 67 cf 3d
       -0.08407139 -0.010391446 -0.18159087 0.10127078
000020 fb c7 07 3e ce f8 80 bd 49 23 fd 3c bf 46 d1 3b
       0.1325988 -0.06297456 0.030900614 0.0063866074
000030 e3 83 83 bd 3e e1 0c 3d fc a8 f9 bd b9 2d 9a bd
       -0.0642164 0.034394495 -0.12190434 -0.07528252
000040 19 df e9 3d 92 91 7e bd 54 d5 63 bd 23 45 1a 3d
       0.114195056 -0.062150545 -0.055623367 0.03766359
000050 71 5a 75 3d e9 2b 19 be 13 13 ac bd be 48 10 be
       0.059900705 -0.14958157 -0.084020756 -0.14090249
000060 30 52 d2 3d f6 21 0f 3d 40 71 ae bd 86 98 5a bd
       0.10269582 0.034944497 -0.085176945 -0.053368114
000070 3d 8d 93 bd ab b8 4c bd c2 4b d7 bd dc 62 c6 bd
       -0.072046734 -0.0499808 -0.105124965 -0.09686825
000080 a7 54 ce 3d d2 2b 14 3d 7f 1a 9f bd df b5 16 be
       0.1007474 0.036174603 -0.077687256 -0.14717816
000090 96 86 4e 3d 3a aa d3 3b 8a cc bc bd 09 f9 52 3d
       0.05042132 0.0064595016 -0.092187 0.05150703
0000a0 d0 62 02 be 7c c3 13 3e 16 35 06 3e 4b 21 e1 bc
       -0.12733006 0.1443004 0.13106188 -0.027481696
0000b0 df 67 b4 bd d0 51 27 3d 88 a2 b9 3d 64 9b 3e 3d
       -0.08808874 0.040849507 0.090642035 0.04653491
0000c0 87 18 91 3c 9d d4 27 be cc 66 fc bd 8c c7 be 3a
       0.01771189 -0.163897 -0.123242944 0.0014555319
0000d0 d4 da ce bd c0 2d 26 3d 7d 3b 7a 3d 60 d6 dc bd
       -0.10100332 0.040570974 0.06109189 -0.10783076
0000e0 41 03 22 3e ad b5 22 3e 6a 19 6c 3d b3 14 cd bd
       0.15821554 0.15889616 0.057641424 -0.10013714
0000f0 53 49 8d 3d c5 c9 10 3d 70 3a 87 3c fc f7 12 3d
       0.06898751 0.035348672 0.016507357 0.035881028
000100 0d db a1 3b 0a ad b8 3c bf b8 88 3d 42 6f d1 bd
       0.004939443 0.022543449 0.066758625 -0.10226299
000110 c0 0e f9 3d 87 95 01 3e cc e4 c0 bd 83 39 5d bd
       0.121610165 0.12654696 -0.094186395 -0.054009926
000120 70 a6 1f bb eb db 83 3d e1 b5 db b6 82 84 4d 3c
       -0.002436068 0.064384304 -6.547882e-06 0.012543799
000130 83 e0 b7 bd 08 ac 97 bd 87 60 8d 3d c3 35 36 bc
       -0.08978369 -0.07405859 0.06903177 -0.011121216
000140 4d b8 5a bd 3b 46 91 bd d0 21 0e 3e eb f1 f7 3d
       -0.05339842 -0.070934735 0.13880086 0.12106689
000150 3e 26 9e 3d 19 eb 97 3b 98 9c 8e 3a 0f 1f 97 3d
       0.07722138 0.00463618 0.0010880409 0.07378971
000160 07 e8 03 bd 56 88 da 3d 4a a0 a1 bd d5 7a c9 bc
       -0.0322037 0.10670535 -0.07891901 -0.024594704
000170 8f 4b 1a 3d 46 93 88 3d 1e 82 36 bd 3a f7 05 be
       0.037669715 0.06668715 -0.044557683 -0.1308259
000180 ba 6f fd 3d ad c9 86 3d 72 9f f5 bd 0a 32 e1 3d
       0.12374826 0.06581435 -0.119933024 0.10995872
000190 36 27 af 3d 58 d3 ad bd 08 8e 04 3c a7 10 80 3d
       0.08552401 -0.08487576 0.0080905035 0.06253176
0001a0 4f 1f a6 bb 42 aa 8c 3c 48 91 0f 3d 7f b0 44 3d
       -0.0050696502 0.017171029 0.03505066 0.048019882
0001b0 b2 30 c6 3d 55 a1 11 bd c7 f6 3f 3d dd 2d 8e 3d
       0.09677257 -0.03555425 0.046866205 0.069423415
0001c0 d8 bc 86 bd 0b de bb bd b7 89 ed bd a2 ef 8e 3d
       -0.06578988 -0.09173211 -0.11598533 0.069793
0001d0 9f 6c af bd 34 5a b7 3d e3 8d bc bc a6 f2 02 3e
       -0.0856564 0.08952752 -0.023016876 0.12787876
0001e0 3f 31 be 3d 84 bb 8a 3d 16 2a ea 3c 8b 3d 98 3d
       0.09286737 0.06774047 0.028584521 0.074336134
0001f0 1c c9 1d bd 76 36 a7 bd 6e 0b 81 bd 8f 14 04 be
       -0.03852187 -0.081646845 -0.06301008 -0.12898467
000200 b0 a5 d0 bd cc 58 d1 3d 75 65 2c bd ee 91 f4 bd
       -0.101878524 0.10222015 -0.042088944 -0.119418964
000210 e3 e4 a3 3d 2b 3e b5 bd c6 be 80 3d 67 66 5e 3b
       0.08002641 -0.08849748 0.06286387 0.0033935548
000220 72 b6 4e 3d f2 11 a6 bd 57 5b 82 3d eb 4f 1f bd
       0.050466962 -0.081088915 0.06365078 -0.038894575
000230 09 af 9d 3d 62 de d2 bd e3 96 2f bb 44 35 33 3d
       0.07699401 -0.102963224 -0.0026792816 0.04375197
000240 dd 81 bc bb 93 b4 4b bd 70 01 ab bd b7 28 ef 3c
       -0.0057527856 -0.049732756 -0.083498836 0.029194219
000250 2a 25 b6 bd 77 0c a5 bd 83 81 ac bd ad a9 4c 3a
       -0.08893807 -0.08059018 -0.0842314 0.0007807266
000260 45 10 e6 bb 56 d0 41 3d fa e0 58 3d 8d 94 bb bd
       -0.0070209824 0.047317825 0.05294893 -0.09159193
000270 0d c3 d8 bd ca db 9e 3d ee 4a d6 bc 77 63 54 bd
       -0.10584078 0.07756765 -0.026158776 -0.05185267
000280 17 a6 e0 3d 12 36 86 bd 15 97 70 bd 63 76 9d 3d
       0.10969179 -0.06553282 -0.058737833 0.07688596
000290 5b 01 87 3d 85 05 2f 3d f1 f5 a1 3d ef 83 b1 3d
       0.065920554 0.042729873 0.07908238 0.086677425
0002a0 59 b2 71 3b c1 58 02 3d b9 0a 10 3d 2d 8c b1 3c
       0.0036879985 0.031822924 0.035166476 0.021673286
0002b0 05 30 ef bd 5a 32 4f bd 74 9d ec 3d 8f f6 c3 bc
       -0.11679081 -0.05058513 0.11553469 -0.02392128
0002c0 bf 0e 5c bd f5 5f 0f be f1 26 1e 3d ee ca 9f 3d
       -0.053725 -0.14001448 0.038611356 0.07802378
0002d0 1f 74 0e be 12 7c 6e 3d cc 1e a4 bd ec dd aa 3d
       -0.13911484 0.05822379 -0.080136865 0.083431095
0002e0 79 cc ec 3d 5d c2 a6 3d 11 ed 4e 3d b7 24 ef bc
       0.115624376 0.081425406 0.050519053 -0.029192312
0002f0 18 eb 83 3d 2f 9a 99 3d 5f 2a 5d bd 52 94 d2 bd
       0.06441325 0.07500111 -0.053995486 -0.10282196
000300 36 86 d6 bd 7f e0 e4 bc e0 88 c1 bd 8a bf cc bc
       -0.104748175 -0.02793908 -0.09449935 -0.024993677
000310 98 0c 8b bc 83 5a 76 bd 5a 38 33 bd 13 5e 6f 3d
       -0.016973779 -0.060144912 -0.043754913 0.058439326
000320 90 8c 13 bc 32 47 25 3e 80 33 eb 3c d4 c5 3b bd
       -0.009005681 0.1614044 0.02871108 -0.04584296
000330 21 76 ff 3c 98 65 a0 bc 40 50 66 3d fa 2e 2d bb
       0.031184258 -0.019579694 0.056228876 -0.0026425705
000340 7c 21 9d 3d 43 3d 78 3d f0 21 46 3d 17 ec 93 bd
       0.07672402 0.0606053 0.04837221 -0.07222765
000350 05 90 a1 3d f2 62 d3 3d ff b2 bd bc e4 65 b6 3d
       0.07888798 0.10321607 -0.023156641 0.08906153
000360 1d 7e 50 bd ae 88 05 be 39 12 a1 bd f1 f4 ac bb
       -0.05090152 -0.1304042 -0.07864804 -0.0052782227
000370 d4 77 56 bd 79 b1 50 bd 7d 9d c5 bd db 0c 6a bd
       -0.05236037 -0.0509505 -0.09649179 -0.057141166
000380 ff ea 94 3d b9 72 50 bd 63 0a 53 bd e2 b2 8e bd
       0.072713844 -0.050890658 -0.051523577 -0.06967713
000390 46 fe a5 bb 34 e5 bb 3c 77 21 df 3c 5f 12 db bd
       -0.005065712 0.022936441 0.027237637 -0.106968634
0003a0 03 95 26 be 5d 90 c9 3d 0b f7 b5 3d 86 46 8f 3d
       -0.16267781 0.09841988 0.0888501 0.06995873
0003b0 a9 d9 90 3c 25 87 88 bd 80 3e b2 3d 12 46 85 3c
       0.017681913 -0.06666402 0.08703327 0.016268764
0003c0 d2 c6 dc 3c 45 2b 64 3c c7 4d cf 3c 2b d7 ca 3d
       0.026950274 0.013926332 0.025305642 0.09904321
0003d0 db 04 e5 bd 83 a0 df bc 39 63 eb 3b c1 df 7f bc
       -0.11182567 -0.027298218 0.007183459 -0.015617312
0003e0 13 c2 96 3d 96 f8 41 bd 39 47 b1 3d 27 f5 ff 3d
       0.073612355 -0.04735621 0.08656163 0.12497931
0003f0 e3 02 c0 bb 3b 7c bc 3d 87 25 6b bd 7b a0 17 be
       -0.005859719 0.092033826 -0.057408836 -0.14807312

lstm.bias_ih_l1 f4 [256]
000000 76 a5 2d bd 79 52 d3 bd 59 27 e9 3d 73 49 98 bd
       -0.042394124 -0.10318465 0.11384458 -0.07435884
000010 b7 43 1e 3e 1a a5 af 3d ba 6f 63 bc 99 31 81 bc
       0.15455519 0.085764125 -0.013881618 -0.01577072
000020 d8 d8 fc bd 2e d7 ce bd 84 9a d3 bd 72 3a 63 3d
       -0.12346047 -0.10099636 -0.10332206 0.05547566
000030 5d 48 58 bd 1c cc 52 bd 3a 7d 90 bd c7 4c ae bc
       -0.052803386 -0.051464185 -0.07055135 -0.021276845
000040 94 07 41 bd 22 f7 5e 3d 37 6f c0 3d f1 36 e8 3d
       -0.047126368 0.054434903 0.093962125 0.11338604
000050 54 85 5d bc 34 d1 89 3d 61 c6 9e 3d 1c e5 c0 bd
       -0.013520557 0.067293555 0.077526815 -0.09418699
000060 c1 fc 9e bb 2d 6d 12 3e 1e ae 53 3d a5 08 f5 3d
       -0.004851908 0.1429946 0.051679723 0.119645394
000070 d6 aa f8 bc 45 1e e5 bc 8b e9 8d bd 44 ff ab 3d
       -0.030354898 -0.027968535 -0.069293104 0.083982974
000080 b6 0d 13 3d 17 e5 89 3d 39 e0 a0 bd b5 05 ca 3c
       0.035901748 0.067331485 -0.07855267 0.024660924
000090 ac b9 ae 3d b0 88 9e bc 03 94 ba bd 38 a3 a3 bd
       0.08531508 -0.019352287 -0.09110262 -0.07990116
0000a0 04 03 86 bd 99 64 90 3d c6 ab 67 bd 19 7c 28 3d
       -0.06543544 0.070504375 -0.0565603 0.041133974
0000b0 2b 3c 85 bd 65 7c d5 bd ed 7d 89 3c 04 f8 e7 bd
       -0.06505617 -0.10424117 0.016783679 -0.11326602
0000c0 5a 8e 53 bd c4 c5 e6 3c 1c 48 99 3d d2 7e 12 3e
       -0.05164943 0.028170474 0.07484457 0.1430619
0000d0 e3 48 76 bd c8 fc 40 bd b7 79 08 be 93 b2 dd bd
       -0.060128104 -0.04711607 -0.1332768 -0.10825076
0000e0 c7 9c 3a 3e 3c 1b 6e 3c ac 2e 91 bc b6 51 18 bb
       0.18223868 0.01453286 -0.01772245 -0.0023242063
0000f0 06 1e 2a bc ce 65 5a 3e b1 54 20 3e 75 dd 71 3b
       -0.010383135 0.21327898 0.15657307 0.003690568
000100 e7 9f cf 3d 14 11 25 bd c4 48 68 bd 08 6f 9b 3c
       0.10137921 -0.04029949 -0.05671002 0.018973842
000110 b1 b3 81 3d 99 f7 66 3d c9 4c c7 3a d1 4a c4 3d
       0.063331015 0.05638847 0.0015205379 0.095845826
000120 da 80 18 be a8 be f3 bd e3 27 e0 bc 01 b1 26 3e
       -0.14892903 -0.11901599 -0.02736277 0.16278459
000130 2c e7 30 3a ec f3 a2 3d 14 58 87 3d 29 07 5c bd
       0.00067483145 0.07956681 0.066085964 -0.053717766
000140 ec 71 26 bd 11 03 e1 3b a6 61 d0 3d 8e a6 bc 3d
       -0.040635988 0.0068668206 0.10174875 0.09211455
000150 78 b5 0a bd ac 20 cc bc 77 c7 0d bc bf 03 cb 3d
       -0.03386447 -0.024917923 -0.008653513 0.09912824
000160 8e 66 8c bc dc a2 9b 3d 53 82 ab 3d 1b 0f dc 3d
       -0.017138746 0.07599422 0.08374467 0.10745069
000170 f3 36 8f bc c8 af a6 3d c2 11 36 3d a2 d7 98 bd
       -0.017482257 0.08138996 0.04445053 -0.07463004
000180 b0 43 fc bd 03 a8 9f 3c 88 b3 9b bd 4b 6d 66 bd
       -0.12317598 0.019489294 -0.07602602 -0.056256574
000190 1b b1 14 3d 3a a5 7b bd 56 e5 34 bd 25 47 98 3c
       0.036301713 -0.06143687 -0.044164024 0.018588612
0001a0 7e 6d ae bd 99 37 18 be 15 c5 d1 bc 2c f3 36 3d
       -0.08516978 -0.14864959 -0.025606671 0.0446655
0001b0 ad 3e 46 3d 42 d5 bb 3d 59 c2 f7 3d b6 25 18 be
       0.048399616 0.09171535 0.12097616 -0.14858136
0001c0 fa 3f b9 3b be e7 08 bd ea be 5d bc 18 24 ac bd
       0.0056533786 -0.03342413 -0.013534287 -0.08405322
0001d0 6f bd 80 3b de e7 43 3d d0 ce 04 be 48 34 3b bd
       0.0039288322 0.047828548 -0.12969518 -0.045704156
0001e0 da a0 bf 3c 6f e7 a7 3d 50 35 af bd c3 60 be 3d
       0.02339213 0.08198439 -0.085550904 0.092957996
0001f0 06 6e f3 bd 4f 36 dd 3d f4 88 c7 bc 96 54 37 bd
       -0.1188622 0.10801374 -0.024357297 -0.0447584
000200 d0 cc 08 3e 2b 33 ce 3d 19 a6 16 3c 36 ae a1 bd
       0.1335938 0.10068353 0.009194874 -0.07894556
000210 d5 05 75 bd 1e 1f 6a 3b 6a 95 4c 3d 88 ac c0 bc
       -0.059820015 0.0035724114 0.04994718 -0.02351977
000220 1a 1a e3 3d d3 3b f6 3d a5 74 21 bc ad 96 4a 3d
       0.11088963 0.12023129 -0.00985447 0.049460102
000230 1d 2b 5b 3d 31 ec 45 bc 64 20 d5 bd a8 56 9d bd
       0.053507913 -0.012080238 -0.10406569 -0.07682544
000240 e2 0d bd 3d 6e a4 4d bd e2 75 86 bd bc 5b a4 bd
       0.092311636 -0.05020564 -0.06565453 -0.080253094
000250 5e cc 34 bd 1d 76 08 bd ad 0e 90 bd 60 de 8d bd
       -0.044140212 -0.033315767 -0.07034049 -0.0692718
000260 27 a3 2e bc 34 76 cf bc 1d a0 f9 3d 2b e6 15 bc
       -0.010659016 -0.025324918 0.12188742 -0.009149115
000270 0d 7e 88 bb b9 7a d4 bb 3c e7 4f bc 65 a5 ef 3d
       -0.004165417 -0.0064843562 -0.012689408 0.117014684
000280 9c f2 ce 3c c5 9d 8d bd 5d 14 09 3d fb 8a 65 bd
       0.02526217 -0.06914858 0.033466686 -0.056040745
000290 92 b5 a6 bd d1 b9 ae bd 3b 72 86 3c 47 07 de bd
       -0.081401005 -0.085315354 0.016411891 -0.10841232
0002a0 c2 5b 89 bd aa 20 38 bd 35 30 bb bd 5b 4c 99 3d
       -0.067069545 -0.044953026 -0.09140054 0.07485267
0002b0 a4 c0 9c bc c9 db 98 3d a0 ba b1 3d 8b 81 bb bb
       -0.019134827 0.07463796 0.08678174 -0.00572223
0002c0 78 f8 51 3d 6b 9d 9c bd 43 5a 13 3d 79 da 85 bd
       0.05126235 -0.076472126 0.035974752 -0.06535811
0002d0 e1 6e 85 bd 6d 49 27 bd 88 51 07 3d b3 c5 98 bc
       -0.06515289 -0.04084151 0.03303674 -0.018648958
0002e0 08 2a c6 bd 53 29 c6 3d 95 37 0b 3d f9 2d d6 3d
       -0.096759856 0.09675851 0.033988554 0.10457987
0002f0 d8 db 81 3d 9d d6 fd 3c ea 90 9b 3c a0 1c 8d 3b
       0.0634076 0.030986125 0.018989999 0.004306391
000300 8e e0 46 bd c8 f0 b9 bd 90 db 9b bc be 90 b8 3d
       -0.048553996 -0.090791285 -0.019025594 0.090119824
000310 4d 85 cf 3d 25 51 36 bd bc 7e 9b bd 0f 96 67 bd
       0.10132847 -0.04451098 -0.07592532 -0.05653959
000320 fe b1 dd bd bc 9c a3 3d f5 2b a1 bd 0a 33 83 3d
       -0.10824965 0.07988879 -0.07869712 0.06406219
000330 53 65 bb bc fc 26 f1 bc a7 05 72 bc f3 68 cf bd
       -0.022875464 -0.029437535 -0.014771855 -0.10127439
000340 5d 0e 6d 3d 68 51 c1 3d 72 28 1c 3e ed 3f 4b 3d
       0.057875026 0.09439355 0.15249804 0.04962151
000350 15 2d 0b 3d 70 43 58 bc 23 ab 8f bd 50 45 f7 3d
       0.03397854 -0.013199672 -0.070150636 0.12073767
000360 ad 6c 29 bd f8 c4 0a 3e 5f 8b e3 bd df 6e 93 3c
       -0.041363407 0.135517 -0.11110567 0.017997203
000370 42 ce 35 3d 78 67 8d bb 7a 32 29 3e 96 cf 9b 3d
       0.044386156 -0.004315313 0.16523162 0.07607953
000380 98 61 ef 3d 4f b8 0e 3a 9d 33 b1 bd 24 96 8d 3c
       0.116885364 0.0005444334 -0.086524226 0.017283507
000390 7e ca de 3d 77 e3 b4 bd 90 48 ce 3d 99 d4 cc bd
       0.10878466 -0.08832448 0.10072434 -0.10001487
0003a0 e9 f3 17 3d 7e b8 bb 3d 9b c4 e6 bd e9 e6 d9 bd
       0.037097845 0.091660485 -0.11267968 -0.10639746
0003b0 1f aa c0 3c c0 ab 6b 3d 16 28 aa 3d c5 f7 0c bd
       0.02351862 0.05753684 0.08308427 -0.03441598
0003c0 81 a2 9f 3d f0 bf 13 3d d0 f7 3d 3d 3f 9d b7 3d
       0.07794667 0.036071718 0.04637891 0.08965539
0003d0 ca c3 d2 3d fa 92 13 3e e4 ef 26 be dc 60 d4 3d
       0.1029125 0.14411536 -0.16302449 0.10370037
0003e0 8d 34 03 3e cc 96 86 bd c8 ad a7 3d 2c 40 05 3b
       0.12813015 -0.06571731 0.08187443 0.002033244
0003f0 68 c3 cc 3d ff 52 c1 bc c0 04 c5 bc 8e 79 59 3d
       0.09998208 -0.023599146 -0.024050117 0.05309444
