artifacts/lstm/20260129_202940/best_model.pt (torch, 326261 bytes, 17 tensors)

lstm.weight_ih_l0 f4 [256, 35]
0.07864141 0.33680165 0.009730434 -0.018922169 0.13903517 -0.10511576 0.023158604 0.1271606
-0.049859814 0.06440759 -0.19465217 -0.15812422 -0.022602912 -0.19686523 -0.09792539 -0.1638686
-0.10829817 0.04302294 -0.07513691 -0.3780115 -0.042033777 -0.20877375 -0.18835913 -0.12045792
0.06284886 0.31857717 0.34217274 0.06860413 -0.07379835 -0.32414263 -0.06549245 -0.19005384
-0.33383712 0.13017683 -0.16840863 0.07764673 0.22451462 0.2818593 0.0682148 -0.0047569126
-0.24887927 0.43093434 0.1171854 0.12237454 0.29235366 0.09282105 0.034851223 0.0820677
-0.048661377 0.102367125 0.2270932 0.09347892 0.02165771 -0.2928455 0.24075973 -0.2221949
-0.15989903 -0.042708576 0.22515255 -0.5074803 -0.1455301 -0.16448057 0.15938224 -0.06638965
0.25863954 -0.23075767 -0.43271595 -0.22391798 -0.26904413 0.24084082 -0.16990578 0.055496473
0.30778784 -0.17478901 0.14486206 0.051958095 -0.087855615 0.102281585 -0.11647326 -0.36491814
0.0630591 0.080575176 -0.053483773 0.35847545 0.10345554 -0.118496835 0.12551756 -0.0838415
0.00045770127 -0.064751625 -0.0055075446 -0.20304193 -0.16091685 -0.15246479 0.33666852 -0.024286155
-0.64390296 0.19822672 -0.48959726 0.33062604 -0.17199917 -0.21896724 -0.1316734 0.048760414
-0.055972937 0.12295227 -0.22341979 -0.37565848 0.04603075 -0.028537096 -0.15112466 -0.005193272
0.08266658 -0.095772386 0.41886687 0.07913019 -0.30107978 0.14773604 -0.31000322 0.018969951
0.05255807 -0.19810979 -0.18302676 -0.04527474 0.32453412 -0.31304246 -0.043168772 0.0462066
0.128769 -0.16301085 0.012060724 -0.2906861 -0.2627891 -0.22796845 0.23920564 -0.22896273
-0.05324015 0.06688084 0.24474792 -0.20459466 -0.28909054 -0.2649476 0.25249958 0.01596839
-0.0053107995 -0.019630838 0.047180567 -0.1295095 0.057976987 -0.23883022 0.05308308 0.07726345
-0.14176 0.21300063 -0.11198461 -0.052271977 0.06937093 -0.23633014 0.09990677 0.12535591
-0.29694152 -0.38653016 -0.11941458 -0.10480693 0.025366278 0.0058138645 -0.41146955 -0.015680688
-0.5445242 0.23652339 -0.39220664 0.25049338 -0.38830215 0.053528145 -0.123613045 -0.14473525
-0.15705793 0.029542707 -0.080755435 -0.06540052 -0.04007332 0.14032492 -0.0063042664 -0.3362013
0.08705806 -0.035203923 0.22417688 0.022445446 -0.33812702 0.011733827 -0.25941175 -0.16438675
0.22453508 -0.16151032 -0.30835 -0.092049554 -0.25920618 0.09485764 0.15432958 -0.027784608
-0.14830802 -0.26027605 0.024997255 -0.4375528 0.28610045 -0.1370404 0.25090188 -0.48583198
0.19639407 0.019767415 0.16788101 0.22635533 -0.15804303 -0.07184365 0.06264174 -0.016600579
-0.2312758 0.22048354 -0.013848309 0.012575741 0.073789746 -0.27258644 -0.069922216 -0.16316475
-0.5288241 -0.089125 -0.1508358 -0.21107726 0.08669597 -0.021093652 -0.14503086 -0.101367764
0.05047111 0.1962871 -0.20699495 -0.01895272 -0.36980343 0.06764825 0.12272827 0.1451707
0.014177662 -0.32105148 -0.08276206 0.21685193 -0.2072233 0.09296082 0.2051644 0.013501663
0.18329474 0.054940414 -0.307983 -0.35272777 -0.1314397 -0.38870528 0.12957738 0.034538202
00000000: bf0e a13d 4471 ac3e 666c 1f3c aa02 9bbc
00000010: 3c5f 0e3e ee46 d7bd 1db7 bd3c 6336 023e
00000020: ce39 4cbd 20e8 833d e652 47be 51eb 21be
00000030: be29 b9bc 0a97 49be 1b8d c8bd 2ccd 27be
00000040: 6ecb ddbd d338 303d 61e1 99bd b98a c1be
00000050: 9c2b 2cbd c9c8 55be 37e1 40be a4b2 f6bd
00000060: e7b6 803d 8c1c a33e 4431 af3e 5280 8c3d
00000070: 9723 97bd 06f6 a5be e820 86bd 799d 42be
00000080: b3ec aabe 134d 053e 5073 2cbe 4005 9f3d
00000090: 29e7 653e dd4f 903e 33b4 8b3d e0df 9bbb
000000a0: 35da 7ebe 6da3 dc3e e6fe ef3d 819f fa3d
000000b0: 61af 953e f618 be3d 28c0 0e3d 1c13 a83d
000000c0: 2751 47bd dba5 d13d 1f8b 683e e071 bf3d
000000d0: 836b b13c d8ef 95be b889 763e 0f87 63be
000000e0: 92bc 23be 30ef 2ebd 648e 663e 3bea 01bf
000000f0: d805 15be 986d 28be 1935 233e 4cf7 87bd
00000100: 676c 843e bd4b 6cbe f28c ddbe c14a 65be
00000110: 27c0 89be fa9e 763e c8fb 2dbe 4550 633d
00000120: 5e96 9d3e e4fb 32be b856 143e 03d2 543d
00000130: a5ed b3bd 0279 d13d 8889 eebd 8dd6 babe
00000140: 2125 813d 9904 a53d cd11 5bbd 188a b73e
00000150: 80e0 d33d 78ae f2bd ad87 003e 18b5 abbd
00000160: a0f7 ef39 809c 84bd a278 b4bb 39ea 4fbe
00000170: 63c7 24be bb1f 1cbe d15f ac3e c2f3 c6bc
00000180: d3d6 24bf f2fb 4a3e 7eac fabe d147 a93e
00000190: 8d20 30be f338 60be 64d5 06be 00b9 473d
000001a0: e143 65bd 66ce fb3d 28c8 64be 4f56 c0be
000001b0: bd8a 3c3d a1c6 e9bc 6cc0 1abe 532c aabb
000001c0: 194d a93d 5024 c4bd b875 d63e 020f a23d
000001d0: 2127 9abe 1e48 173e beb8 9ebe df66 9b3c
000001e0: 2147 573d 4bdd 4abe 5e6b 3bbe 0172 39bd
000001f0: 5629 a63e 1a47 a0be bdd1 30bd 2243 3d3d
00000200: 05dc 033e 51ec 26be 589a 453c cfd4 94be
00000210: 4b8c 86be 9070 69be 53f2 743e 3575 6abe
00000220: 5812 5abd d2f8 883d 339f 7a3e 4381 51be
00000230: ad03 94be 36a7 87be a047 813e 24d0 823c
00000240: 3706 aebb dad0 a0bc 6940 413d 239e 04be
00000250: 4779 6d3d e98f 74be a56d 593d 4d3c 9e3d
00000260: 8929 11be d61c 5a3e 3058 e5bd 241b 56bd
00000270: 5912 8e3d 8700 72be ec9b cc3d 4d5d 003e
00000280: b808 98be 48e7 c5be a28f f4bd 04a5 d6bd
00000290: f1cc cf3c 3b82 be3b 23ac d2be c974 80bc
000002a0: f065 0bbf 3033 723e 4fcf c8be ab40 803e
000002b0: 8acf c6be 5440 5b3d d628 fdbd 7a35 14be
000002c0: cbd3 20be 8c03 f23c 1b63 a5bd b5f0 85bd
000002d0: ec23 24bd 56b1 0f3e 0594 cebb 9422 acbe
000002e0: 7f4b b23d fd31 10bd a08e 653e 83df b73c
000002f0: fc1e adbe 3d3f 403c 9ed1 84be 0055 28be
00000300: 86ec 653e f662 25be 0de0 9dbe 7a84 bcbd
00000310: acb6 84be b944 c23d 9308 1e3e 8c9c e3bc
00000320: 0fde 17be e742 85be 0bc7 cc3c ec06 e0be
00000330: c27b 923e 5254 0cbe 3676 803e f8be f8be
00000340: 871b 493e 46ef a13c 00e9 2b3e b1c9 673e
00000350: 08d6 21be c322 93bd 504a 803d f0fd 87bc
00000360: 90d3 6cbe 70c6 613e 05e4 62bc 7b0a 4e3c
00000370: 141f 973d 7390 8bbe 6133 8fbd a914 27be
00000380: 0461 07bf 2b87 b6bd b374 1abe a324 58be
00000390: a88d b13d 98cc acbc f882 14be e799 cfbd
000003a0: cbba 4e3d 7cff 483e 7cf6 53be bc42 9bbc
000003b0: e056 bdbe 2a8b 8a3d f658 fb3d a1a7 143e
000003c0: 6d49 683c dc60 a4be 287f a9bd 6f0e 5e3e
000003d0: 5832 54be 3e62 be3d 9e16 523e 1436 5d3c
000003e0: 9eb1 3b3e 3309 613d f3af 9dbe bc98 b4be
000003f0: 2198 06be 6104 c7be efaf 043e ee77 0d3d

lstm.weight_hh_l0 f4 [256, 64]
-0.00089057913 -0.27286136 -0.2105856 -0.071824595 -0.1735565 0.018124683 0.1591927 -0.17963903
-0.13210785 -0.22510734 -0.13673227 -0.1127441 -0.16233414 -0.06424734 0.020941077 0.12025989
0.06833893 -0.23700194 -0.11109721 0.13503067 0.02914327 -0.12052665 0.17595841 -0.10804246
0.08435612 -0.11367855 0.12137176 -0.3197786 -0.37152466 0.01387371 0.03288112 0.18970478
-0.048418116 -0.20815203 0.017763602 -0.118394904 0.25489533 0.0040110657 0.0830671 0.016080085
-0.18641421 -0.1336028 0.010221908 -0.42822742 -0.09304642 -0.16336586 0.03067958 -0.14174812
0.3035127 -0.0055971965 0.1889275 0.030491168 -0.08642799 -0.26921242 -0.011321751 -0.09635855
0.24443188 -0.07298846 0.15388505 -0.26777095 -0.04152368 -0.23266639 -0.015370956 0.036363393
0.17774676 0.041343268 -0.010592182 0.29788998 -0.047016963 0.03155379 -0.03570916 0.38057587
0.19462645 0.014298881 0.2717677 0.3027726 0.22893777 0.022525864 -0.10776214 0.1395389
-0.024583146 -0.068418734 0.38162926 -0.012717275 -0.2598203 -0.08342286 -0.03326662 0.060301807
-0.09232745 0.17793272 -0.15171772 0.001583846 -0.2655639 -0.23884463 0.26968482 -0.34257764
0.08599964 0.24439204 0.004822828 -0.006299026 -0.062989466 -0.28586835 -0.06947821 -0.03937316
-0.04554599 -0.048614975 -0.040921684 -0.11139645 -0.07442773 -0.2899204 0.42661348 -0.043154754
0.14288998 0.07992283 -0.14345828 0.19105838 -0.0105967 0.34758157 0.05218127 -0.021067355
-0.13486749 -0.13986513 0.18860376 0.2517683 0.1058835 0.18472582 -0.19704111 -0.4022576
0.14532556 0.12679893 -0.22941053 -0.110705644 0.13809203 0.14929542 0.041702487 -0.061305307
-0.26886877 0.15680158 -0.1595987 0.01468354 -0.163939 0.21829425 -0.20074248 0.1511506
-0.10257124 -0.22739144 0.13293147 -0.01619146 0.09679357 -0.27246347 -0.1076228 -0.11178495
-0.023775477 -0.39081177 0.044671476 -0.096386515 -0.061741576 -0.18605523 -0.09306842 -0.06673544
0.09635671 0.33642384 0.07181117 -0.0016235134 -0.14113925 0.04897211 0.16937746 -0.00041675533
-0.058938526 -0.10520171 0.31834495 -0.17334352 -0.2132221 -0.11099983 -0.18602584 0.119013645
-0.15996937 -0.17782265 -0.12207021 -0.13738005 -0.009520717 0.030969368 -0.00931223 -0.12075199
-0.050010238 -0.073954925 0.04258697 -0.012435398 -0.3474868 -0.14019777 0.14304224 0.0023088523
-0.293404 -0.2367026 -0.3893402 -0.2699487 -0.12929475 0.20330293 -0.44050777 -0.16474837
0.39843103 -0.15416929 0.28357807 -0.1391339 -0.12185402 0.18582986 -0.047404394 0.066299506
-0.17449123 -0.010925265 0.46810502 0.28632855 -0.46136177 0.18047474 -0.25225922 0.19566981
-0.31496912 0.10254286 -0.14780612 0.054883525 0.030404044 -0.2937374 0.07384554 -0.15596317
0.21308845 0.0583075 -0.019715222 -0.286136 -0.013890169 -0.021390304 0.18329857 -0.35219857
0.039607596 -0.11892049 0.0049838405 -0.23121333 0.23348713 0.38943854 0.43052217 -0.25945607
-0.13104309 0.043432117 -0.2555505 0.25477856 0.040554218 0.35823455 0.07937573 -0.1389022
0.04845176 -0.18544635 0.09686357 -0.111420795 0.42792267 0.2929703 -0.17540601 -0.4479066
00000000: c175 69ba 7cb4 8bbe c0a3 57be c618 93bd
00000010: ccb8 31be 377a 943c 6903 233e 4bf3 37be
00000020: 4847 07be 8a82 66be 8b03 0cbe 61e6 e6bd
00000030: ec3a 26be 1c94 83bd 9f8c ab3c d14a f63d
00000040: 48f5 8b3d a3b0 72be ef86 e3bd 7b45 0a3e
00000050: debd ee3c add6 f6bd 712e 343e 5e45 ddbd
00000060: e7c2 ac3d 4dd0 e8bd c291 f83d 05ba a3be
00000070: 7b38 bebe 8f4e 633c 5aae 063d f841 423e
00000080: 1352 46bd ce25 55be f984 913c 0779 f2bd
00000090: a481 823e 426f 833b 151f aa3d 62ba 833c
000000a0: 5ee3 3ebe 2ccf 08be ca79 273c a040 dbbe
000000b0: 1f8f bebd 6149 27be be53 fb3c 6b26 11be
000000c0: 0466 9b3e b068 b7bb 3676 413e 9dc8 f93c
000000d0: 2801 b1bd 36d6 89be de7e 39bc a257 c5bd
000000e0: 5a4c 7a3e f97a 95bd 0b94 1d3e 4619 89be
000000f0: bc14 2abd 1940 6ebe 76d6 7bbc c8f1 143d
00000100: 3f03 363e 8f57 293d d58a 2dbc 0985 983e
00000110: dc94 40bd 8c3e 013d c543 12bd d7da c23e
00000120: 284c 473e db45 6a3c 2325 8b3e 0305 9b3e
00000130: aa6e 6a3e 2988 b83c 66b2 dcbd 49e3 0e3e
00000140: 9862 c9bc 1f1f 8cbd e964 c33e 1e5c 50bc
00000150: 2b07 85be 9bd9 aabd 9442 08bd 07ff 763d
00000160: 2d16 bdbd ff33 363e e45b 1bbe 0e99 cf3a
00000170: fef7 87be b093 74be 2114 8a3e 5666 afbe
00000180: 9420 b03d e841 7a3e d008 9e3b 0f68 cebb
00000190: 9f00 81bd 565d 92be 974a 8ebd c045 21bd
000001a0: 6f8e 3abd 7f20 47bd 7f9d 27bd d223 e4bd
000001b0: 916d 98bd 7270 94be 156d da3e 0ac3 30bd
000001c0: c051 123e 95ae a33d bae6 12be cfa4 433e
000001d0: c89d 2dbc 36f6 b13e 07bc 553d 7295 acbc
000001e0: b41a 0abe ce38 0fbe 5821 413e c6e7 803e
000001f0: 73d9 d83d c428 3d3e 25c5 49be b5f4 cdbe
00000200: 39d0 143e 94d7 013e 98ea 6abe a4b9 e2bd
00000210: ff67 0d3e e6e0 183e 3ad0 2a3d 461b 7bbd
00000220: 2ba9 89be 9890 203e d76d 23be 3b93 703c
00000230: a0df 27be 8788 5f3e 708f 4dbe 39c7 1a3e
00000240: df10 d2bd 4dd9 68be 301f 083e f4a3 84bc
00000250: b53b c63d 5580 8bbe 5869 dcbd 82ef e4bd
00000260: cac4 c2bc 7b18 c8be 70f9 363d 4b66 c5bd
00000270: bce4 7cbd 4385 3ebe a89a bebd 97ac 88bd
00000280: ab56 c53d bf3f ac3e bc11 933d 12cc d4ba
00000290: cf86 10be fb96 483d 4971 2d3e f47f dab9
000002a0: 8669 71bd fe73 d7bd 1cfe a23e f780 31be
000002b0: e556 5abe e153 e3bd 8f7d 3ebe 6dbd f33d
000002c0: 03cf 23be 2417 36be f2ff f9bd 5bad 0cbe
000002d0: c8fc 1bbc 79b3 fd3c 5392 18bc d24c f7bd
000002e0: 89d7 4cbd ae75 97bd ad6f 2e3d d7bd 4bbc
000002f0: cae9 b1be 0190 0fbe aa79 123e 1d50 173b
00000300: 0d39 96be 2b62 72be 9957 c7be b736 8abe
00000310: d865 04be a52e 503e 3c8a e1be ccb3 28be
00000320: 27ff cb3e 8ede 1dbe 2531 913e 1e79 0ebe
00000330: 9a8e f9bd 2f4a 3e3e 1c2b 42bd 09c8 873d
00000340: d4ad 32be e2ff 32bc 76ab ef3e a899 923e
00000350: 9c37 ecbe 5fce 383e 1f28 81be ab5d 483e
00000360: a243 a1be fe01 d23d 7d5a 17be 8ccd 603d
00000370: e711 f93c c064 96be 553c 973d cfb4 1fbe
00000380: dc33 5a3e d8d3 6e3d d181 a1bc 6b80 92be
00000390: 9793 63bc b83a afbc 9fb2 3b3e 5f53 b4be
000003a0: 933b 223d 968c f3bd 7c4f a33b 30c3 6cbe
000003b0: 4017 6f3e 7d64 c73e 676d dc3e 6dd7 84be
000003c0: 2930 06be e0e5 313d 84d7 82be 5672 823e
000003d0: 2e1c 263d 856a b73e be8f a23d 613c 0ebe
000003e0: 5a75 463d a6e5 3dbe 6860 c63d 9630 e4bd
000003f0: ae18 db3e 3400 963e a29d 33be 0454 e5be

lstm.bias_ih_l0 f4 [256]
-0.14607002 -0.09155398 -0.06399519 -0.08556067 -0.21846056 -0.14659896 -0.1314094 -0.0887774
-0.05924202 -0.103234075 -0.08968832 -0.051211156 -0.04700645 -0.16801699 -0.15969762 -0.16332805
-0.181149 -0.068752296 -0.19815868 -0.05123119 -0.13755102 -0.110056594 -0.14578396 -0.037920173
-0.24106108 -0.110463016 -0.10867579 -0.04891051 -0.14759652 -0.053089105 -0.0645547 -0.25602698
-0.06915798 -0.049853835 -0.23303652 -0.08098667 -0.045105 -0.06757587 -0.16806132 -0.097552076
-0.12459847 -0.10438098 -0.19183613 -0.10012035 -0.14947051 -0.030317733 0.039835002 -0.06612681
-0.13566203 -0.13034451 -0.11499752 -0.17927639 0.005265068 -0.034691345 -0.15833972 -0.17378056
-0.060644593 -0.009183648 -0.16097367 -0.048019424 -0.13724868 -0.13021876 -0.16065124 -0.20917633
0.018645905 -0.14208533 -0.09882914 -0.05056527 0.026692502 -0.08973417 -0.13176513 0.09828735
-0.040417235 -0.02909807 -0.16029644 -0.13638581 -0.08422947 -0.15045995 0.15883784 -0.04829488
-0.17349198 -0.04212955 -0.058071896 -0.2527906 0.04398867 -0.00026057925 -0.06642122 0.089648075
-0.15484229 0.11377858 -0.16872454 0.1260773 0.10578147 -0.05823452 -0.06308522 -0.049499664
-0.26829892 -0.11399936 -0.18389441 -0.26682845 0.015701395 0.010803166 0.016666159 -0.07170179
-0.008643472 0.033097778 -0.038084928 -0.051760226 0.03085376 0.021316696 -0.08725068 -0.072464146
-0.06903784 -0.20489316 -0.14801152 -0.08826691 0.22131287 0.15664344 0.014567499 -0.14503407
0.13832885 0.16569999 -0.017103208 0.26635855 -0.11120476 -0.11624343 -0.080005616 -0.1200239
-0.11965004 0.08983277 0.17532043 -0.0799186 0.18312185 -0.0837172 0.006167614 0.031446386
-0.122694075 0.09345344 -0.112748265 0.089856006 0.11227132 -0.07238463 -0.03941348 0.05307944
-0.11443667 0.014855254 -0.12374125 -0.13693973 0.07606705 -0.033416815 0.08866832 -0.18830517
0.056881085 -0.084823936 -0.0059058513 -0.124054894 -0.05949228 0.016563617 -0.18889919 -0.07019787
0.0014539958 0.14581226 0.07969362 -0.010067755 -0.093711376 0.11641074 -0.123314336 0.11882756
0.15420958 -0.09980114 0.014431677 0.058343794 0.008276242 0.015127181 0.043193154 0.11303462
-0.105852224 0.0069966814 -0.014737101 -0.051665157 -0.08086799 -0.07764018 -0.12815145 0.16487038
-0.11532145 -0.10857869 0.05047095 0.011746164 -0.04966282 -0.09097171 0.038171705 0.08943859
-0.13815673 -0.044758644 -0.009797693 -0.099575154 -0.13839702 -0.13822776 -0.09979697 -0.0049325745
-0.047378633 -0.03943047 -0.117761694 -0.079787776 -0.16692367 -0.12571624 0.013545459 -0.09455608
-0.20143381 -0.2180329 -0.12439974 -0.034471657 -0.13437954 0.0035272508 -0.08170087 -0.026740354
-0.22315696 -0.100303724 -0.16108598 -0.03151874 0.05962094 -0.04137084 -0.05339569 -0.11407264
-0.08900002 -0.082985215 -0.15491997 -0.04313399 -0.08147342 -0.075644426 -0.15940131 0.0049731755
-0.04494217 -0.1137472 -0.18090378 -0.07022503 -0.03155477 -0.11702479 0.06515064 0.027163701
-0.1650112 -0.14032914 -0.102104865 -0.100139484 -0.028399939 0.008589829 -0.1189908 -0.07753661
-0.08660816 -0.0058691343 -0.04053338 -0.06486356 -0.08739923 -0.089338526 -0.09418936 -0.13675176
00000000: 6193 15be a780 bbbd e90f 83bd 6f3a afbd
00000010: 20b4 5fbe 0a1e 16be 3090 06be edd0 b5bd
00000020: c3a7 72bd 636c d3bd 83ae b7bd cac2 51bd
00000030: d689 40bd a50c 2cbe c687 23be 783f 27be
00000040: 207f 39be 01ce 8cbd 1cea 4abe ccd7 51bd
00000050: 2dda 0cbe 5a65 e1bd 6448 15be 2f52 1bbd
00000060: b7d8 76be 6f3a e2bd 6a91 debd 6356 48bd
00000070: 8b23 17be f673 59bd 4135 84bd f815 83be
00000080: b3a2 8dbd 8933 4cbd 20a1 6ebe 57dc a5bd
00000090: 05c0 38bd 3865 8abd 4418 2cbe 62c9 c7bd
000000a0: 7c2d ffbd b2c5 d5bd b170 44be e60b cdbd
000000b0: cc0e 19be e55c f8bc 072a 233d 7e6d 87bd
000000c0: fdea 0abe 0879 05be d283 ebbd 3b94 37be
000000d0: 9786 ac3b 8318 0ebd cf23 22be 88f3 31be
000000e0: 7766 78bd 0377 16bc 48d6 24be 04b0 44bd
000000f0: eb8a 0cbe 1158 05be c281 24be 5232 56be
00000100: 4cbf 983c d17e 11be ef66 cabd 871d 4fbd
00000110: 3caa da3c 8cc6 b7bd 70ed 06be e14a c93d
00000120: 8b8c 25bd 135f eebc c024 24be b9a8 0bbe
00000130: 8080 acbd 2c12 1abe 63a6 223e dad0 45bd
00000140: e2a7 31be 0990 2cbd ccdc 6dbd c56d 81be
00000150: 772d 343d 5b9e 88b9 d907 88bd 6999 b73d
00000160: fa8e 1ebe bf04 e93d 20c6 2cbe 681a 013e
00000170: f5a3 d83d 5287 6ebd d332 81bd 29c0 4abd
00000180: 7a5e 89be 7f78 e9bd d14e 3cbe bd9d 88be
00000190: 36a0 803c c3ff 303c 7887 883c 63d8 92bd
000001a0: 599d 0dbc 8991 073d f1fe 1bbd 8802 54bd
000001b0: 06c1 fc3c 5aa0 ae3c 7cb0 b2bd 1568 94bd
000001c0: b663 8dbd 83cf 51be 5590 17be 48c5 b4bd
000001d0: d79f 623e 2367 203e 85ac 6e3c d083 14be
000001e0: 14a6 0d3e 42ad 293e 071c 8cbc 2660 883e
000001f0: 52bf e3bd 0911 eebd fcd9 a3bd 17cf f5bd
00000200: 150b f5bd 3efa b73d 3387 333e 5dac a3bd
00000210: 4b84 3b3e ec73 abbd b219 ca3b edcd 003d
00000220: 0847 fbbd 8464 bf3d 90e8 e6bd 6d06 b83d
00000230: 81ee e53d 653e 94bd 0770 21bd d469 593d
00000240: c65d eabd 7463 733c 0d6c fdbd ee39 0cbe
00000250: 0bc9 9b3d 12e0 08bd bc97 b53d 12d3 40be
00000260: 24fc 683d 2cb8 adbd df85 c1bb 7e10 febd
00000270: 2dae 73bd 6cb0 873c ca6e 41be e7c3 8fbd
00000280: 0194 be3a cf4f 153e 6936 a33d 3af3 24bc
00000290: c0eb bfbd c168 ee3d 3a8c fcbd dd5b f33d
000002a0: 1ee9 1d3e 8a64 ccbd d772 6c3c e7f9 6e3d
000002b0: 1399 073c ffd7 773c 4eeb 303d b27e e73d
000002c0: 0dc9 d8bd 6b44 e53b e273 71bc d89e 53bd
000002d0: 1e9e a5bd d101 9fbd 223a 03be c8d3 283e
000002e0: a72d ecbd 815e debd a0ba 4e3d fc72 403c
000002f0: 3e6b 4bbd 604f babd ef59 1c3d 942b b73d
00000300: f578 0dbe d754 37bd 8186 20bc 0fee cbbd
00000310: f3b7 0dbe 948b 0dbe 5b62 ccbd 6fa1 a1bb
00000320: 1910 42bd d881 21bd 0b2d f1bd c667 a3bd
00000330: 0aee 2abe c2bb 00be c6ed 5d3c 9ea6 c1bd
00000340: aa44 4ebe 0444 5fbe 4ac5 febd 2732 0dbd
00000350: ca9a 09be 7329 673b c952 a7bd 960e dbbc
00000360: 4283 64be 0a6c cdbd b9f3 24be cb19 01bd
00000370: 1635 743d 7874 29bd 70b5 5abd eb9e e9bd
00000380: a445 b6bd 27f4 a9bd 57a3 1ebe 44ad 30bd
00000390: 89db a6bd 77eb 9abd 193a 23be 05f6 a23b
000003a0: 4815 38bd 4bf4 e8bd d73e 39be 24d2 8fbd
000003b0: 933f 01bd b1aa efbd b36d 853d 6986 de3c
000003c0: b2f8 28be 71b2 0fbe 5b1c d1bd ee15 cdbd
000003d0: fda6 e8bc 5bbc 0c3c 73b1 f3bd 84cb 9ebd
000003e0: 9e5f b1bd de51 c0bb 5406 26bd 30d7 84bd
000003f0: 5efe b2bd 1ef7 b6bd 5ae6 c0bd a708 0cbe

lstm.bias_hh_l0 f4 [256]
-0.14607002 -0.09155398 -0.06399519 -0.08556067 -0.21846056 -0.14659896 -0.1314094 -0.0887774
-0.05924202 -0.103234075 -0.08968832 -0.051211156 -0.04700645 -0.16801699 -0.15969762 -0.16332805
-0.181149 -0.068752296 -0.19815868 -0.05123119 -0.13755102 -0.110056594 -0.14578396 -0.037920173
-0.24106108 -0.110463016 -0.10867579 -0.04891051 -0.14759652 -0.053089105 -0.0645547 -0.25602698
-0.06915798 -0.049853835 -0.23303652 -0.08098667 -0.045105 -0.06757587 -0.16806132 -0.097552076
-0.12459847 -0.10438098 -0.19183613 -0.10012035 -0.14947051 -0.030317733 0.039835002 -0.06612681
-0.13566203 -0.13034451 -0.11499752 -0.17927639 0.005265068 -0.034691345 -0.15833972 -0.17378056
-0.060644593 -0.009183648 -0.16097367 -0.048019424 -0.13724868 -0.13021876 -0.16065124 -0.20917633
0.018645905 -0.14208533 -0.09882914 -0.05056527 0.026692502 -0.08973417 -0.13176513 0.09828735
-0.040417235 -0.02909807 -0.16029644 -0.13638581 -0.08422947 -0.15045995 0.15883784 -0.04829488
-0.17349198 -0.04212955 -0.058071896 -0.2527906 0.04398867 -0.00026057925 -0.06642122 0.089648075
-0.15484229 0.11377858 -0.16872454 0.1260773 0.10578147 -0.05823452 -0.06308522 -0.049499664
-0.26829892 -0.11399936 -0.18389441 -0.26682845 0.015701395 0.010803166 0.016666159 -0.07170179
-0.008643472 0.033097778 -0.038084928 -0.051760226 0.03085376 0.021316696 -0.08725068 -0.072464146
-0.06903784 -0.20489316 -0.14801152 -0.08826691 0.22131287 0.15664344 0.014567499 -0.14503407
0.13832885 0.16569999 -0.017103208 0.26635855 -0.11120476 -0.11624343 -0.080005616 -0.1200239
-0.11965004 0.08983277 0.17532043 -0.0799186 0.18312185 -0.0837172 0.006167614 0.031446386
-0.122694075 0.09345344 -0.112748265 0.089856006 0.11227132 -0.07238463 -0.03941348 0.05307944
-0.11443667 0.014855254 -0.12374125 -0.13693973 0.07606705 -0.033416815 0.08866832 -0.18830517
0.056881085 -0.084823936 -0.0059058513 -0.124054894 -0.05949228 0.016563617 -0.18889919 -0.07019787
0.0014539958 0.14581226 0.07969362 -0.010067755 -0.093711376 0.11641074 -0.123314336 0.11882756
0.15420958 -0.09980114 0.014431677 0.058343794 0.008276242 0.015127181 0.043193154 0.11303462
-0.105852224 0.0069966814 -0.014737101 -0.051665157 -0.08086799 -0.07764018 -0.12815145 0.16487038
-0.11532145 -0.10857869 0.05047095 0.011746164 -0.04966282 -0.09097171 0.038171705 0.08943859
-0.13815673 -0.044758644 -0.009797693 -0.099575154 -0.13839702 -0.13822776 -0.09979697 -0.0049325745
-0.047378633 -0.03943047 -0.117761694 -0.079787776 -0.16692367 -0.12571624 0.013545459 -0.09455608
-0.20143381 -0.2180329 -0.12439974 -0.034471657 -0.13437954 0.0035272508 -0.08170087 -0.026740354
-0.22315696 -0.100303724 -0.16108598 -0.03151874 0.05962094 -0.04137084 -0.05339569 -0.11407264
-0.08900002 -0.082985215 -0.15491997 -0.04313399 -0.08147342 -0.075644426 -0.15940131 0.0049731755
-0.04494217 -0.1137472 -0.18090378 -0.07022503 -0.03155477 -0.11702479 0.06515064 0.027163701
-0.1650112 -0.14032914 -0.102104865 -0.100139484 -0.028399939 0.008589829 -0.1189908 -0.07753661
-0.08660816 -0.0058691343 -0.04053338 -0.06486356 -0.08739923 -0.089338526 -0.09418936 -0.13675176
00000000: 6193 15be a780 bbbd e90f 83bd 6f3a afbd
00000010: 20b4 5fbe 0a1e 16be 3090 06be edd0 b5bd
00000020: c3a7 72bd 636c d3bd 83ae b7bd cac2 51bd
00000030: d689 40bd a50c 2cbe c687 23be 783f 27be
00000040: 207f 39be 01ce 8cbd 1cea 4abe ccd7 51bd
00000050: 2dda 0cbe 5a65 e1bd 6448 15be 2f52 1bbd
00000060: b7d8 76be 6f3a e2bd 6a91 debd 6356 48bd
00000070: 8b23 17be f673 59bd 4135 84bd f815 83be
00000080: b3a2 8dbd 8933 4cbd 20a1 6ebe 57dc a5bd
00000090: 05c0 38bd 3865 8abd 4418 2cbe 62c9 c7bd
000000a0: 7c2d ffbd b2c5 d5bd b170 44be e60b cdbd
000000b0: cc0e 19be e55c f8bc 072a 233d 7e6d 87bd
000000c0: fdea 0abe 0879 05be d283 ebbd 3b94 37be
000000d0: 9786 ac3b 8318 0ebd cf23 22be 88f3 31be
000000e0: 7766 78bd 0377 16bc 48d6 24be 04b0 44bd
000000f0: eb8a 0cbe 1158 05be c281 24be 5232 56be
00000100: 4cbf 983c d17e 11be ef66 cabd 871d 4fbd
00000110: 3caa da3c 8cc6 b7bd 70ed 06be e14a c93d
00000120: 8b8c 25bd 135f eebc c024 24be b9a8 0bbe
00000130: 8080 acbd 2c12 1abe 63a6 223e dad0 45bd
00000140: e2a7 31be 0990 2cbd ccdc 6dbd c56d 81be
00000150: 772d 343d 5b9e 88b9 d907 88bd 6999 b73d
00000160: fa8e 1ebe bf04 e93d 20c6 2cbe 681a 013e
00000170: f5a3 d83d 5287 6ebd d332 81bd 29c0 4abd
00000180: 7a5e 89be 7f78 e9bd d14e 3cbe bd9d 88be
00000190: 36a0 803c c3ff 303c 7887 883c 63d8 92bd
000001a0: 599d 0dbc 8991 073d f1fe 1bbd 8802 54bd
000001b0: 06c1 fc3c 5aa0 ae3c 7cb0 b2bd 1568 94bd
000001c0: b663 8dbd 83cf 51be 5590 17be 48c5 b4bd
000001d0: d79f 623e 2367 203e 85ac 6e3c d083 14be
000001e0: 14a6 0d3e 42ad 293e 071c 8cbc 2660 883e
000001f0: 52bf e3bd 0911 eebd fcd9 a3bd 17cf f5bd
00000200: 150b f5bd 3efa b73d 3387 333e 5dac a3bd
00000210: 4b84 3b3e ec73 abbd b219 ca3b edcd 003d
00000220: 0847 fbbd 8464 bf3d 90e8 e6bd 6d06 b83d
00000230: 81ee e53d 653e 94bd 0770 21bd d469 593d
00000240: c65d eabd 7463 733c 0d6c fdbd ee39 0cbe
00000250: 0bc9 9b3d 12e0 08bd bc97 b53d 12d3 40be
00000260: 24fc 683d 2cb8 adbd df85 c1bb 7e10 febd
00000270: 2dae 73bd 6cb0 873c ca6e 41be e7c3 8fbd
00000280: 0194 be3a cf4f 153e 6936 a33d 3af3 24bc
00000290: c0eb bfbd c168 ee3d 3a8c fcbd dd5b f33d
000002a0: 1ee9 1d3e 8a64 ccbd d772 6c3c e7f9 6e3d
000002b0: 1399 073c ffd7 773c 4eeb 303d b27e e73d
000002c0: 0dc9 d8bd 6b44 e53b e273 71bc d89e 53bd
000002d0: 1e9e a5bd d101 9fbd 223a 03be c8d3 283e
000002e0: a72d ecbd 815e debd a0ba 4e3d fc72 403c
000002f0: 3e6b 4bbd 604f babd ef59 1c3d 942b b73d
00000300: f578 0dbe d754 37bd 8186 20bc 0fee cbbd
00000310: f3b7 0dbe 948b 0dbe 5b62 ccbd 6fa1 a1bb
00000320: 1910 42bd d881 21bd 0b2d f1bd c667 a3bd
00000330: 0aee 2abe c2bb 00be c6ed 5d3c 9ea6 c1bd
00000340: aa44 4ebe 0444 5fbe 4ac5 febd 2732 0dbd
00000350: ca9a 09be 7329 673b c952 a7bd 960e dbbc
00000360: 4283 64be 0a6c cdbd b9f3 24be cb19 01bd
00000370: 1635 743d 7874 29bd 70b5 5abd eb9e e9bd
00000380: a445 b6bd 27f4 a9bd 57a3 1ebe 44ad 30bd
00000390: 89db a6bd 77eb 9abd 193a 23be 05f6 a23b
000003a0: 4815 38bd 4bf4 e8bd d73e 39be 24d2 8fbd
000003b0: 933f 01bd b1aa efbd b36d 853d 6986 de3c
000003c0: b2f8 28be 71b2 0fbe 5b1c d1bd ee15 cdbd
000003d0: fda6 e8bc 5bbc 0c3c 73b1 f3bd 84cb 9ebd
000003e0: 9e5f b1bd de51 c0bb 5406 26bd 30d7 84bd
000003f0: 5efe b2bd 1ef7 b6bd 5ae6 c0bd a708 0cbe

lstm.weight_ih_l1 f4 [256, 64]
0.07569844 -0.4692346 0.07894915 -0.26427376 0.059154887 -0.14323795 -0.0071288217 0.29987207
-0.2663053 0.03768654 -0.2995517 0.3896842 -0.048397336 -0.17447802 -0.25938463 0.100297935
-0.01451771 -0.012908627 -0.1455435 -0.1341322 0.055549186 -0.06394235 0.09483356 -0.17857806
-0.10728966 -0.1308253 0.11614008 0.03640691 -0.16518816 0.026866194 -0.12464824 -0.018757848
-0.18516418 -0.4473477 -0.17879383 0.19255884 0.005778767 0.09623759 -0.1825126 0.2274125
0.06364029 -0.08927676 0.018524943 0.103718296 0.17123635 -0.08468293 -0.36483482 -0.15086414
-0.048496157 -0.24380733 0.0013481262 -0.061635412 -0.115224406 0.16877116 0.09027884 -0.028886372
0.010075652 -0.11567418 -0.11753452 -0.049313106 -0.10767548 -0.2538883 0.28049645 0.2720485
0.067747094 0.15348549 0.049546883 -0.1358293 0.12659018 -0.19773893 -0.026864653 -0.029922836
-0.028421363 -0.061216738 -0.02642033 0.065726526 -0.045401335 0.0024201851 0.08409996 -0.090718135
0.11074357 6.837335e-05 0.05925246 0.060564995 0.17278558 -0.13162732 -0.14397487 -0.07208053
0.0886518 0.15554777 0.1470413 -0.05872552 -0.223675 0.0047986307 0.04416027 0.018930923
-0.34097052 -0.09945804 0.2417335 -0.21830069 -0.14910726 -0.0735068 -0.051567517 -0.09634304
-0.042529292 -0.14490351 0.11518157 0.19801527 0.20708022 -0.35737598 0.16359247 -0.02881436
-0.25681353 -0.07663979 -0.09011723 0.1551505 0.12186291 -0.117178015 0.21157679 -0.05191008
0.063591465 -0.07099482 0.13511439 -0.12026101 -0.16592523 0.3401196 0.10033686 -0.005478697
0.13419573 -0.19974262 0.10987432 -0.09383561 0.017641839 -0.110471874 -0.031743385 -0.13087632
-0.19198489 -0.034447473 -0.030563988 0.24669904 -0.037117183 -0.09320764 0.012751128 0.03508363
0.0039949836 0.027720697 0.13484626 0.07603395 0.05103683 -0.12321105 0.15219009 0.121545404
-0.095273525 -0.095447086 0.075237855 -0.13462679 -0.3199972 0.06809302 -0.036535446 -0.17096493
-0.25223666 -0.15642893 -0.006137838 -0.04790114 0.049571868 -0.21755645 -0.11931923 0.038964022
0.08446332 -0.3196676 -0.025489233 0.024442088 -0.061566744 -0.52432454 -0.06470673 0.1541121
-0.1810622 0.07354524 0.321144 -0.2545849 -0.10509217 0.058303986 0.09611854 0.05600244
-0.0032265887 -0.07892515 0.014316505 0.13803051 -0.08929126 -0.10949916 0.06693789 0.18483233
-0.10133569 -0.55211806 0.11888875 -0.017423175 -0.07613796 -0.29180953 -0.14846964 0.0154442955
0.076778986 -0.11059108 0.036349863 0.2989995 -0.20914702 -0.16234109 0.1695821 0.19367827
-0.14216754 0.023748044 0.0867814 0.039357826 -0.11973075 0.0008542338 0.003712844 0.12962142
0.046037808 -0.13620214 -0.13121058 -0.2769671 0.17323568 -0.016850134 0.048874196 0.0132338675
-0.014395796 -0.18542017 -0.19324234 0.25565788 0.15339647 0.061323967 -0.19061524 0.13704431
0.167832 -0.25722796 -0.18766332 -0.21481156 0.15642646 0.022524664 0.015600397 -0.11482753
-0.04981476 -0.048252854 0.2467511 -0.1990035 -0.026284112 -0.0068269284 -0.24702501 0.16829468
-0.008308446 -0.056120846 -0.04562725 0.06557398 -0.0021300765 -0.15305018 0.07111816 0.056799192
00000000: c907 9b3d 843f f0be 18b0 a13d e44e 87be
00000010: 654c 723d f8ac 12be e498 e9bb d588 993e
00000020: 2b59 88be 345d 1a3d d75e 99be b084 c73e
00000030: 493c 46bd 5eaa 32be 10ce 84be 0169 cd3d
00000040: b0db 6dbc b57e 53bc 5b09 15be f459 09be
00000050: 8b87 633d 35f4 82bd 1938 c23d 2bdd 36be
00000060: aeba dbbd 11f7 05be dada ed3d 691f 153d
00000070: 1627 29be 7e16 dc3c 9447 ffbd 0faa 99bc
00000080: ae9b 3dbe c20a e5be bb15 37be 252e 453e
00000090: d05b bd3b 3718 c53d 95e4 3abe d3de 683e
000000a0: d755 823d bcd6 b6bd 9fc1 973c 426a d43d
000000b0: 9558 2f3e 3e6e adbd a1cb babe 217c 1abe
000000c0: e8a3 46bd a1a8 79be 9cb3 b03a 6a75 7cbd
000000d0: c6fa ebbd 59d2 2c3e 1de4 b83d 1da3 ecbc
000000e0: 5914 253c 96e6 ecbd f0b5 f0bd 8afc 49bd
000000f0: f684 dcbd a6fd 81be 3b9d 8f3e f149 8b3e
00000100: fdbe 8a3d 4d2b 1d3e acf1 4a3d d616 0bbe
00000110: dba0 013e 137c 4abe 4313 dcbc bc20 f5bc
00000120: ebd3 e8bc 67be 7abd 736f d8bc a19b 863d
00000130: c0f6 39bd f89b 1e3b 9a3c ac3d 6eca b9bd
00000140: 86cd e23d aa63 8f38 b5b2 723d 0013 783d
00000150: b4ee 303e 50c9 06be 266e 13be f59e 93bd
00000160: 138f b53d ea47 1f3e ff91 163e 2c8a 70bd
00000170: 0f0b 65be d53d 9d3b 66e1 343d 0615 9b3c
00000180: b093 aebe a8b0 cbbd fd88 773e 378a 5fbe
00000190: 93af 18be bc8a 96bd 7638 53bd 804f c5bd
000001a0: 3233 2ebd 9661 14be 51e4 eb3d 84c4 4a3e
000001b0: d60c 543e fcf9 b6be c984 273e 180c ecbc
000001c0: 107d 83be 52f5 9cbd 628f b8bd c6df 1e3e
000001d0: 4393 f93d 07fb efbd 96a7 583e aa9f 54bd
000001e0: 3e3c 823d bb65 91bd 6d5b 0a3e 684b f6bd
000001f0: 4ee8 29be 2824 ae3e 697d cd3d a486 b3bb
00000200: 9b6a 093e 5489 4cbe ca05 e13d e22c c0bd
00000210: 9e85 903c 143f e2bd 5a05 02bd 7104 06be
00000220: b097 44be cb18 0dbd 5461 fabc ac9e 7c3e
00000230: 3008 18bd a6e3 bebd 1bea 503c dab3 0f3d
00000240: 5ae8 823b 8416 e33c 2315 0a3e b0b7 9b3d
00000250: ff0b 513d 1356 fcbd b8d7 1b3e ccec f83d
00000260: c41e c3bd c379 c3bd 4e16 9a3d 9bdb 09be
00000270: acd6 a3be 5a74 8b3d 31a6 15bd 6e11 2fbe
00000280: 2a25 81be e82e 20be eb1f c9bb fc33 44bd
00000290: df0b 4b3d 1ec7 5ebe a45d f4bd bd98 1f3d
000002a0: 1bfb ac3d 79ab a3be ccce d0bc c63a c83c
000002b0: 692d 7cbd 223a 06bf f684 84bd 90cf 1d3e
000002c0: 5f68 39be e39e 963d fd6c a43e f458 82be
000002d0: 903a d7bd 29d0 6e3d ccd9 c43d d162 653d
000002e0: 2d75 53bb 82a3 a1bd c68f 6a3c df57 0d3e
000002f0: 56de b6bd 1841 e0bd bc16 893d b044 3d3e
00000300: 1689 cfbd 9c57 0dbf f27b f33d 0cbb 8ebc
00000310: 38ee 9bbd 0f68 95be 6d08 18be 120a 7d3c
00000320: 4d3e 9d3d 937d e2bd 98e3 143d 7616 993e
00000330: a32a 56be be3c 26be eea6 2d3e 9953 463e
00000340: 5e94 11be 428b c23c 72ba b13d ac35 213d
00000350: 6535 f5bd a9ee 5f3a 3053 733b 7abb 043e
00000360: 2492 3c3d 9378 0bbe 115c 06be a2ce 8dbe
00000370: b264 313e 4b09 8abc 4f30 483d ddd2 583c
00000380: 58dc 6bbc c9de 3dbe 52e1 45be 97e5 823e
00000390: f713 1d3e d72e 7b3d a430 43be 5855 0c3e
000003a0: 27dc 2b3e 62b3 83be d02a 40be 90f7 5bbe
000003b0: 422e 203e a585 b83c cf98 7f3c b22a ebbd
000003c0: 900a 4cbd c9a4 45bd 52ac 7c3e 93c7 4bbe
000003d0: c751 d7bc 6db4 dfbb 20f4 7cbe 7155 2c3e
000003e0: 2620 08bc f9de 65bd a4e3 3abd a74b 863d
000003f0: c198 0bbb 30b9 1cbe 66a6 913d 45a6 683d

lstm.weight_hh_l1 f4 [256, 64]
0.02196693 0.0022904237 -0.08574935 -0.19729222 -0.2034322 0.061009366 0.119892076 -0.031048628
-0.17544171 0.02480179 -0.24715401 -0.056042437 0.3000457 -0.08464734 0.18500167 0.11180121
-0.044078607 -0.014789008 -0.019390553 -0.024077035 -0.120272905 0.06426107 -0.16370265 -0.06556455
0.0028720822 -0.09903392 -0.059824944 -0.13651869 0.1269512 -0.067430764 0.0017075357 0.008733202
-0.18818034 0.035485927 -0.067851014 0.028085606 0.09695736 -0.018506529 0.2246354 -0.01458994
-0.034697395 0.06957832 -0.09610331 -0.11805704 0.049587533 0.18334183 -0.047784746 -0.1534396
-0.015687225 -0.17789821 -0.13928887 0.00015916412 0.17076437 -0.15696877 -0.177283 0.07324642
-0.007668885 -0.12952428 0.0990173 -0.19592918 0.08595998 0.091133885 -0.037836835 -0.20934665
-0.15168238 -0.05773659 0.0061474843 0.07375791 -0.22139496 0.12353953 -0.035901755 -0.007159718
0.014510558 0.044949196 0.13007797 -0.04827243 -0.004038759 -0.17805453 -0.05180741 0.06306207
-0.014543699 -0.08170903 -0.094187684 -0.06989768 0.09907438 -0.17802565 -0.04447405 0.012427727
-0.036808494 0.08025118 -0.04646806 0.10710302 0.055063073 0.07665273 0.015126849 0.07608917
-0.049598932 0.053406574 0.0046689026 0.103430316 0.10692258 0.05958373 -0.091012105 0.06586959
0.11343452 -0.01766776 0.17498319 -0.014787654 0.045950416 0.03629014 0.18247013 -0.030418655
0.059870567 -0.10999101 -0.025475282 0.059326123 0.12790586 -0.23480564 0.020121485 0.023640057
-0.12429184 -0.024810646 -0.0031402742 -0.09503589 0.03686236 0.057078075 0.0013356111 0.016213398
-0.20968072 -0.0132796485 -0.05012599 -0.043840032 0.13848796 -0.16159752 0.11687022 -0.0021591156
-0.007192517 0.24838941 0.024843577 -0.21290922 0.08429121 -0.068897635 -0.06630621 0.07874408
-0.05949099 -0.20625477 -0.108493306 -0.097655274 0.06634932 -0.08369346 0.022065593 0.12716566
-0.040070955 0.08657831 -0.088977054 -0.14339732 0.12237285 0.040587667 0.021038793 0.17625557
-0.030010335 0.12199746 -0.008446721 0.17250374 0.18037727 -0.20971636 -0.030508706 0.02893165
0.15710151 0.05681485 -0.071653366 -0.1314236 0.13708042 0.17036049 0.009454562 -0.09123532
0.045758408 0.04245894 -0.059618775 -0.06132237 0.0773227 0.052387428 0.0918165 0.13930559
-0.21219528 -0.14354417 0.010041923 0.22410066 -0.05709272 0.10443473 -0.19657874 -0.19336395
-0.17007723 0.19179954 -0.18358044 0.17497328 0.08749751 -0.2522254 -0.08328385 0.023823498
0.036184784 0.12790738 -0.019361034 0.09063787 0.26541755 0.04503373 -0.08191689 0.13836202
-0.011370655 -0.14831309 0.06354905 0.050328393 0.054137517 -0.24519907 -0.24092047 -0.0016561133
-0.022889404 0.123451866 -0.14095017 -0.062165704 -0.11098768 -0.15552224 0.05136922 0.02334403
-0.10337623 -0.07981188 -0.22734645 0.027784584 0.20116478 -0.19747375 0.24862297 0.020240128
0.05058978 0.18909393 -0.15470812 -0.081984214 -0.21753056 0.21047251 0.04805903 0.21171412
0.108991385 -0.0759406 0.070201665 0.06483915 0.1075322 -0.028663088 0.18487974 -0.06259328
-0.09157585 -0.08082421 0.00069886126 0.21546616 -0.1849809 0.12362282 -0.17511088 -0.2100326
00000000: fef3 b33c ef1a 163b 5b9d afbd f906 4abe
00000010: 8850 50be f5e4 793d fa89 f53d b159 febc
00000020: fea6 33be 202d cb3c f115 7dbe c18c 65bd
00000030: 979f 993e 965b adbd 1471 3d3e 08f8 e43d
00000040: c58b 34bd 984d 72bc f0d8 9ebc 343d c5bc
00000050: a451 f6bd 4f9b 833d aba1 27be b546 86bd
00000060: 8b39 3c3b 4cd2 cabd 000b 75bd 8ecb 0bbe
00000070: 7fff 013e 2419 8abd 64cf df3a b415 0f3c
00000080: 59b2 40be b159 113d 79f5 8abd c913 e63c
00000090: 9591 c63d 019b 97bc d306 663e a50a 6fbc
000000a0: db1e 0ebd 147f 8e3d d0d1 c4bd e4c7 f1bd
000000b0: 4c1c 4b3d f6bd 3b3e f0b9 43bd 451f 1dbe
000000c0: 7f82 80bc f32a 36be bea1 0ebe 4be5 2639
000000d0: dbdc 2e3e 6cbc 20be ad89 35be 3802 963d
000000e0: 454b fbbb 03a2 04be 95c9 ca3d a9a1 48be
000000f0: c90b b03d 67a4 ba3d ccfa 1abd f85e 56be
00000100: a052 1bbe 347d 6cbd d670 c93b 630e 973d
00000110: 5cb5 62be 4b02 fd3d b80d 13bd 119c eabb
00000120: b1bd 6d3c a61c 383d 2933 053e 50b9 45bd
00000130: 9157 84bb ed53 36be 0234 54bd b026 813d
00000140: b248 6ebc 1057 a7bd 79e5 c0bd 8426 8fbd
00000150: 82e7 ca3d 5b4c 36be 6c2a 36bd aa9d 4b3c
00000160: 81c4 16bd bb5a a43d 4b55 3ebd d458 db3d
00000170: d189 613d 1bfc 9c3d 9ad6 773c a4d4 9b3d
00000180: 4028 4bbd dac0 5a3d 98fd 983b 46d3 d33d
00000190: 3afa da3d 120e 743d 8e64 babd a3e6 863d
000001a0: 5c50 e83d fabb 90bc cb2e 333e eb47 72bc
000001b0: 8136 3c3d f8a4 143d 73d9 3a3e 8b30 f9bc
000001c0: d73a 753d f742 e1bd 8ab1 d0bc f3ff 723d
000001d0: c1f9 023e e470 70be d0d5 a43c cba8 c13c
000001e0: b88c febd b23f cbbc 0fcd 4dbb 2da2 c2bd
000001f0: fcfc 163d b3ca 693d ac0f af3a f6d1 843c
00000200: 8bb6 56be e292 59bc e950 4dbd 9b91 33bd
00000210: cacf 0d3e d279 25be a759 ef3d f37f 0dbb
00000220: 35af ebbb cb59 7e3e c284 cb3c e004 5abe
00000230: dfa0 ac3d 341a 8dbd 8dcb 87bd 9444 a13d
00000240: d3ac 73bd 7334 53be bd31 debd 7dff c7bd
00000250: 27e2 873d 7a67 abbd e7c2 b43c b737 023e
00000260: 7121 24bd f84f b13d 9a39 b6bd bfd6 12be
00000270: 9e9e fa3d 413f 263d 8c59 ac3c 577c 343e
00000280: 3cd8 f5bc ced9 f93d 1e64 0abc d2a4 303e
00000290: d2b4 383e e3bf 56be 65ed f9bc 1102 ed3c
000002a0: 38df 203e b0b6 683d 00bf 92bd e893 06be
000002b0: cf5e 0c3e fb72 2e3e 4fe7 1a3c 95d9 babd
000002c0: 2b6d 3b3d 6de9 2d3d d132 74bd 2a2d 7bbd
000002d0: 5d5b 9e3d 3394 563d 4a0a bc3d 20a6 0e3e
000002e0: b849 59be 3efd 12be e186 243c a57a 653e
000002f0: 0eda 69bd e0e1 d53d f04b 49be 3301 46be
00000300: ba28 2ebe 1967 443e 83fc 3bbe 322c 333e
00000310: e531 b33d b023 81be b990 aabd 7f29 c33c
00000320: 7f36 143d 27fa 023e 089b 9ebc 59a0 b93d
00000330: cfe4 873e 4a75 383d 0bc4 a7bd c6ae 0d3e
00000340: fc4b 3abc 63df 17be 0126 823d 2525 4e3d
00000350: 4dbf 5d3d 7715 7bbe dbb3 76be f111 d9ba
00000360: 8f82 bbbc 55d4 fc3d 3e55 10be 77a1 7ebd
00000370: 824d e3bd 3941 1fbe 8868 523d fb3b bf3c
00000380: ebb6 d3bd 6974 a3bd 82cd 68be 7f9c e33c
00000390: 24fe 4d3e 8f36 4abe 0597 7e3e a0ce a53c
000003a0: 3b37 4f3d d7a1 413e ce6b 1ebe 57e7 a7bd
000003b0: 55c0 5ebe 1b86 573e 8cd9 443d 96cb 583e
000003c0: e036 df3d bf86 9bbd e4c5 8f3d 63ca 843d
000003d0: d839 dc3d dace eabc 1d51 3d3e e830 80bd
000003e0: 1f8c bbbd 2a87 a5bd c933 373a 29a3 5c3e
000003f0: a26b 3dbe f62d fd3d 4450 33be c912 57be

lstm.bias_ih_l1 f4 [256]
-0.008177961 0.019849362 -0.14782271 -0.33616692 -0.4142049 -0.34144732 -0.2136469 -0.19643027
-0.072616994 -0.0900324 -0.010706087 -0.22105744 -0.33269295 -0.3965458 -0.23632796 -0.45426846
-0.3496108 -0.13308701 -0.1476526 -0.30734873 -0.17245512 -0.10607202 -0.28131756 -0.09365301
-0.26564607 -0.1111761 -0.51748085 -0.26850057 -0.1229717 -0.10269217 -0.18972857 -0.061816707
-0.13490799 -0.41499728 -0.2207266 -0.22644076 -0.30152535 -0.36010045 -0.31683668 -0.3183717
-0.1063794 -0.3291585 -0.22131124 -0.46204087 -0.35641646 -0.21695575 -0.20473072 -0.32587487
-0.16933961 -0.39522433 -0.32022852 -0.31368005 -0.2141598 -0.3514196 -0.34184948 -0.13851735
-0.0437263 -0.44322005 -0.21231632 -0.10277883 0.025638476 -0.5400175 -0.30636653 -0.15906984
-0.08991942 0.22762075 0.017876362 -0.2935865 -0.20211494 -0.27105784 -0.030604046 -0.0138310185
0.0029407805 0.22413214 0.16875805 0.04127052 -0.22893608 -0.14057066 -0.30124205 -0.2338551
-0.07418502 -0.005313309 0.07726918 0.011546237 -0.035829347 0.07058346 -0.31749058 0.15933985
-0.0009355266 0.16033985 -0.30512905 -0.06063884 -0.15961999 -0.07883395 0.03008526 0.177795
-0.05636388 -0.17258114 -0.1917247 -0.16952236 -0.052580886 -0.22826414 -0.3405204 0.01713496
0.28739765 -0.09865627 -0.14962512 -0.32285887 -0.16269033 -0.0035245325 -0.020355664 -0.0696459
0.1497462 -0.23291257 -0.1384709 -0.1340983 0.0734562 -0.18853046 -0.13544285 0.15684281
0.021959476 -0.3417174 0.0398436 0.17588723 -0.04833233 -0.39524177 -0.18893021 -0.06696401
0.125561 -0.020409692 -0.009093577 -0.036542498 0.008111029 0.028047834 -0.045625202 0.028476488
-0.004647344 -0.020194469 0.022153739 0.06856192 -0.12223783 -0.017940206 -0.0032356626 0.03685439
-0.015267061 0.015264069 0.037803914 0.015256665 0.018557193 -0.039246827 -0.010802797 -0.024846243
0.019450817 -0.013393276 -0.0010213258 0.08689771 0.020619284 0.016909115 -0.060379297 -0.02780748
-0.03157373 -0.015328433 0.09780539 0.07976714 -0.025180392 0.01662754 -0.023634795 0.0018116158
0.015363619 -0.0036072782 -0.007925061 -0.06938268 0.031896338 -0.15223473 0.024335664 -0.0009271313
-0.021866752 -0.0026941865 0.0070593 -0.06364753 -0.15448374 0.011356332 -0.017257892 -0.03274298
0.13026369 -0.009425301 0.08741326 -0.051567595 0.1045531 -0.0038505963 0.08224469 0.06094696
0.023097416 0.08427132 -0.15943608 -0.35583082 -0.40712565 -0.36890352 -0.19803372 -0.19857687
-0.096835345 -0.029936025 -0.057469483 -0.2146398 -0.354593 -0.41199762 -0.25152585 -0.47973993
-0.36697015 -0.18775637 -0.04726808 -0.25487202 -0.20750722 -0.14929907 -0.29661402 -0.084891334
-0.28964627 -0.041544 -0.52023464 -0.26973167 -0.13110113 -0.034230947 -0.049769282 -0.014417667
-0.15846474 -0.43019477 -0.23984295 -0.22629015 -0.31284407 -0.32742527 -0.29954046 -0.33120576
-0.054641876 -0.27747062 -0.22100905 -0.47453713 -0.34269395 -0.25032544 -0.18979383 -0.2544583
-0.121190116 -0.3936341 -0.30693573 -0.31256312 -0.18584447 -0.32688728 -0.35099462 -0.084709436
0.016158031 -0.4760761 -0.13675073 -0.042380758 0.059306648 -0.54315454 -0.29377487 -0.08406816
00000000: dbfc 05bc 219b a23c d65e 17be 121e acbe
00000010: aa12 d4be 2fd2 aebe 41c6 5abe 0425 49be
00000020: 38b8 94bd e862 b8bd 9568 2fbc e25c 62be
00000030: bb56 aabe 0d08 cbbe f5ff 71be e095 e8be
00000040: 3000 b3be f647 08be 3e32 17be d05c 9dbe
00000050: 1398 30be 4a3c d9bd db08 90be 26cd bfbd
00000060: c302 88be 4cb0 e3bd a079 04bf e878 89be
00000070: 96d8 fbbd 4650 d2bd 3548 42be 8433 7dbd
00000080: 5225 0abe 867a d4be 2706 62be 16e0 67be
00000090: 8861 9abe 165f b8be 6b38 a2be 9e01 a3be
000000a0: 71dd d9bd 7787 a8be 6a9f 62be 9f90 ecbe
000000b0: 387c b6be a629 5ebe eea4 51be 12d9 a6be
000000c0: 5d67 2dbe d85a cabe fef4 a3be ac9a a0be
000000d0: b54c 5bbe 45ed b3be e506 afbe 7ed7 0dbe
000000e0: 591a 33bd bded e2be 7369 59be b57d d2bd
000000f0: c807 d23c 963e 0abf 13dc 9cbe 34e3 22be
00000100: ac27 b8bd 6a15 693e 7371 923c f850 96be
00000110: 38f7 4ebe 18c8 8abe 56b5 fabc 7f9b 62bc
00000120: 1cba 403b e582 653e e9ce 2c3e 470b 293d
00000130: 386e 6abe c1f1 0fbe 663c 9abe b677 6fbe
00000140: 51ee 97bd 441b aebb 4e3f 9e3d 6e2c 3d3c
00000150: cbc1 12bd 108e 903d 208e a2be fc29 233e
00000160: 213e 75ba 2130 243e e039 9cbe 6f60 78bd
00000170: 6c73 23be b273 a1bd 5d75 f63c e40f 363e
00000180: d0dd 66bd 1cb9 30be 7b53 44be 4597 2dbe
00000190: 0e5f 57bd 13be 69be b158 aebe 9e5e 8c3c
000001a0: c925 933e 4c0c cabd 5437 19be c24d a5be
000001b0: 4b98 26be d8fb 66bb ecc0 a6bc 82a2 8ebd
000001c0: 1157 193e a280 6ebe 51cb 0dbe 1151 09be
000001d0: 3470 963d 210e 41be 88b1 0abe 679b 203e
000001e0: 5ce4 b33c 95f5 aebe 0b33 233d c81b 343e
000001f0: 1ff8 45bd 215d cabe ec76 41be 6d24 89bd
00000200: 1093 003e 3a32 a7bc 3afd 14bc 96ad 15bd
00000210: 1fe4 043c 92c4 e53c 7ee1 3abd 8647 e93c
00000220: bf48 98bb df6e a5bc c27b b53c 316a 8c3d
00000230: d457 fabd 57f7 92bc 690d 54bb a1f4 163d
00000240: b222 7abc 2516 7a3c 47d8 1a3d 17f7 793c
00000250: 4105 983c 48c1 20bd 37fe 30bc 598a cbbc
00000260: 5257 9f3c 796f 5bbc 02de 85ba 6df7 b13d
00000270: c6e9 a83c fc84 8a3c 4850 77bd 83cc e3bc
00000280: 7553 01bd 1c24 7bbc 314e c83d f45c a33d
00000290: 1c47 cebc 7b36 883c c29d c1bc bd73 ed3a
000002a0: b0b7 7b3c 1668 6cbb 1dd8 01bc 8218 8ebd
000002b0: bca5 023d 6ce3 1bbe 965b c73c ba0a 73ba
000002c0: e721 b3bc f390 30bb b351 e73b a359 82bd
000002d0: fc30 1ebe e90f 3a3c 6c60 8dbc 811d 06bd
000002e0: d863 053e 946c 1abc b905 b33d 8b38 53bd
000002f0: f01f d63d 495a 7cbb e76f a83d 85a3 793d
00000300: cb36 bd3c 7196 ac3d 3643 23be 752f b6be
00000310: c672 d0be ece0 bcbe 5ac9 4abe bc57 4bbe
00000320: 9c51 c6bd 653c f5bc 1f65 6bbd 89ca 5bbe
00000330: 378d b5be 5af1 d2be ffc7 80be 79a0 f5be
00000340: 83e3 bbbe 3543 40be 2d9c 41bd 967e 82be
00000350: c67c 54be dbe1 18be cbdd 97be 82db adbd
00000360: 844c 94be 0b2a 2abd 192e 05bf 451a 8abe
00000370: 603f 06be c035 0cbd e0da 4bbd 1438 6cbc
00000380: 9544 22be 7d42 dcbe 6499 75be 9bb8 67be
00000390: 192d a0be 49a4 a7be 5e5d 99be cd93 a9be
000003a0: 29d0 5fbd a110 8ebe 3250 62be 88f6 f2be
000003b0: 9575 afbe a82a 80be 5059 42be 5c48 82be
000003c0: 8632 f8bd 698a c9be ae26 9dbe 4608 a0be
000003d0: 034e 3ebe c55d a7be 91b5 b3be 247c adbd
000003e0: d95d 843c 3fc0 f3be 6208 0cbe 7297 2dbd
000003f0: 87eb 723d 2d0c 0bbf a969 96be ed2b acbd

lstm.bias_hh_l1 f4 [256]
-0.008177961 0.019849362 -0.14782271 -0.33616692 -0.4142049 -0.34144732 -0.2136469 -0.19643027
-0.072616994 -0.0900324 -0.010706087 -0.22105744 -0.33269295 -0.3965458 -0.23632796 -0.45426846
-0.3496108 -0.13308701 -0.1476526 -0.30734873 -0.17245512 -0.10607202 -0.28131756 -0.09365301
-0.26564607 -0.1111761 -0.51748085 -0.26850057 -0.1229717 -0.10269217 -0.18972857 -0.061816707
-0.13490799 -0.41499728 -0.2207266 -0.22644076 -0.30152535 -0.36010045 -0.31683668 -0.3183717
-0.1063794 -0.3291585 -0.22131124 -0.46204087 -0.35641646 -0.21695575 -0.20473072 -0.32587487
-0.16933961 -0.39522433 -0.32022852 -0.31368005 -0.2141598 -0.3514196 -0.34184948 -0.13851735
-0.0437263 -0.44322005 -0.21231632 -0.10277883 0.025638476 -0.5400175 -0.30636653 -0.15906984
-0.08991942 0.22762075 0.017876362 -0.2935865 -0.20211494 -0.27105784 -0.030604046 -0.0138310185
0.0029407805 0.22413214 0.16875805 0.04127052 -0.22893608 -0.14057066 -0.30124205 -0.2338551
-0.07418502 -0.005313309 0.07726918 0.011546237 -0.035829347 0.07058346 -0.31749058 0.15933985
-0.0009355266 0.16033985 -0.30512905 -0.06063884 -0.15961999 -0.07883395 0.03008526 0.177795
-0.05636388 -0.17258114 -0.1917247 -0.16952236 -0.052580886 -0.22826414 -0.3405204 0.01713496
0.28739765 -0.09865627 -0.14962512 -0.32285887 -0.16269033 -0.0035245325 -0.020355664 -0.0696459
0.1497462 -0.23291257 -0.1384709 -0.1340983 0.0734562 -0.18853046 -0.13544285 0.15684281
0.021959476 -0.3417174 0.0398436 0.17588723 -0.04833233 -0.39524177 -0.18893021 -0.06696401
0.125561 -0.020409692 -0.009093577 -0.036542498 0.008111029 0.028047834 -0.045625202 0.028476488
-0.004647344 -0.020194469 0.022153739 0.06856192 -0.12223783 -0.017940206 -0.0032356626 0.03685439
-0.015267061 0.015264069 0.037803914 0.015256665 0.018557193 -0.039246827 -0.010802797 -0.024846243
0.019450817 -0.013393276 -0.0010213258 0.08689771 0.020619284 0.016909115 -0.060379297 -0.02780748
-0.03157373 -0.015328433 0.09780539 0.07976714 -0.025180392 0.01662754 -0.023634795 0.0018116158
0.015363619 -0.0036072782 -0.007925061 -0.06938268 0.031896338 -0.15223473 0.024335664 -0.0009271313
-0.021866752 -0.0026941865 0.0070593 -0.06364753 -0.15448374 0.011356332 -0.017257892 -0.03274298
0.13026369 -0.009425301 0.08741326 -0.051567595 0.1045531 -0.0038505963 0.08224469 0.06094696
0.023097416 0.08427132 -0.15943608 -0.35583082 -0.40712565 -0.36890352 -0.19803372 -0.19857687
-0.096835345 -0.029936025 -0.057469483 -0.2146398 -0.354593 -0.41199762 -0.25152585 -0.47973993
-0.36697015 -0.18775637 -0.04726808 -0.25487202 -0.20750722 -0.14929907 -0.29661402 -0.084891334
-0.28964627 -0.041544 -0.52023464 -0.26973167 -0.13110113 -0.034230947 -0.049769282 -0.014417667
-0.15846474 -0.43019477 -0.23984295 -0.22629015 -0.31284407 -0.32742527 -0.29954046 -0.33120576
-0.054641876 -0.27747062 -0.22100905 -0.47453713 -0.34269395 -0.25032544 -0.18979383 -0.2544583
-0.121190116 -0.3936341 -0.30693573 -0.31256312 -0.18584447 -0.32688728 -0.35099462 -0.084709436
0.016158031 -0.4760761 -0.13675073 -0.042380758 0.059306648 -0.54315454 -0.29377487 -0.08406816
00000000: dbfc 05bc 219b a23c d65e 17be 121e acbe
00000010: aa12 d4be 2fd2 aebe 41c6 5abe 0425 49be
00000020: 38b8 94bd e862 b8bd 9568 2fbc e25c 62be
00000030: bb56 aabe 0d08 cbbe f5ff 71be e095 e8be
00000040: 3000 b3be f647 08be 3e32 17be d05c 9dbe
00000050: 1398 30be 4a3c d9bd db08 90be 26cd bfbd
00000060: c302 88be 4cb0 e3bd a079 04bf e878 89be
00000070: 96d8 fbbd 4650 d2bd 3548 42be 8433 7dbd
00000080: 5225 0abe 867a d4be 2706 62be 16e0 67be
00000090: 8861 9abe 165f b8be 6b38 a2be 9e01 a3be
000000a0: 71dd d9bd 7787 a8be 6a9f 62be 9f90 ecbe
000000b0: 387c b6be a629 5ebe eea4 51be 12d9 a6be
000000c0: 5d67 2dbe d85a cabe fef4 a3be ac9a a0be
000000d0: b54c 5bbe 45ed b3be e506 afbe 7ed7 0dbe
000000e0: 591a 33bd bded e2be 7369 59be b57d d2bd
000000f0: c807 d23c 963e 0abf 13dc 9cbe 34e3 22be
00000100: ac27 b8bd 6a15 693e 7371 923c f850 96be
00000110: 38f7 4ebe 18c8 8abe 56b5 fabc 7f9b 62bc
00000120: 1cba 403b e582 653e e9ce 2c3e 470b 293d
00000130: 386e 6abe c1f1 0fbe 663c 9abe b677 6fbe
00000140: 51ee 97bd 441b aebb 4e3f 9e3d 6e2c 3d3c
00000150: cbc1 12bd 108e 903d 208e a2be fc29 233e
00000160: 213e 75ba 2130 243e e039 9cbe 6f60 78bd
00000170: 6c73 23be b273 a1bd 5d75 f63c e40f 363e
00000180: d0dd 66bd 1cb9 30be 7b53 44be 4597 2dbe
00000190: 0e5f 57bd 13be 69be b158 aebe 9e5e 8c3c
000001a0: c925 933e 4c0c cabd 5437 19be c24d a5be
000001b0: 4b98 26be d8fb 66bb ecc0 a6bc 82a2 8ebd
000001c0: 1157 193e a280 6ebe 51cb 0dbe 1151 09be
000001d0: 3470 963d 210e 41be 88b1 0abe 679b 203e
000001e0: 5ce4 b33c 95f5 aebe 0b33 233d c81b 343e
000001f0: 1ff8 45bd 215d cabe ec76 41be 6d24 89bd
00000200: 1093 003e 3a32 a7bc 3afd 14bc 96ad 15bd
00000210: 1fe4 043c 92c4 e53c 7ee1 3abd 8647 e93c
00000220: bf48 98bb df6e a5bc c27b b53c 316a 8c3d
00000230: d457 fabd 57f7 92bc 690d 54bb a1f4 163d
00000240: b222 7abc 2516 7a3c 47d8 1a3d 17f7 793c
00000250: 4105 983c 48c1 20bd 37fe 30bc 598a cbbc
00000260: 5257 9f3c 796f 5bbc 02de 85ba 6df7 b13d
00000270: c6e9 a83c fc84 8a3c 4850 77bd 83cc e3bc
00000280: 7553 01bd 1c24 7bbc 314e c83d f45c a33d
00000290: 1c47 cebc 7b36 883c c29d c1bc bd73 ed3a
000002a0: b0b7 7b3c 1668 6cbb 1dd8 01bc 8218 8ebd
000002b0: bca5 023d 6ce3 1bbe 965b c73c ba0a 73ba
000002c0: e721 b3bc f390 30bb b351 e73b a359 82bd
000002d0: fc30 1ebe e90f 3a3c 6c60 8dbc 811d 06bd
000002e0: d863 053e 946c 1abc b905 b33d 8b38 53bd
000002f0: f01f d63d 495a 7cbb e76f a83d 85a3 793d
00000300: cb36 bd3c 7196 ac3d 3643 23be 752f b6be
00000310: c672 d0be ece0 bcbe 5ac9 4abe bc57 4bbe
00000320: 9c51 c6bd 653c f5bc 1f65 6bbd 89ca 5bbe
00000330: 378d b5be 5af1 d2be ffc7 80be 79a0 f5be
00000340: 83e3 bbbe 3543 40be 2d9c 41bd 967e 82be
00000350: c67c 54be dbe1 18be cbdd 97be 82db adbd
00000360: 844c 94be 0b2a 2abd 192e 05bf 451a 8abe
00000370: 603f 06be c035 0cbd e0da 4bbd 1438 6cbc
00000380: 9544 22be 7d42 dcbe 6499 75be 9bb8 67be
00000390: 192d a0be 49a4 a7be 5e5d 99be cd93 a9be
000003a0: 29d0 5fbd a110 8ebe 3250 62be 88f6 f2be
000003b0: 9575 afbe a82a 80be 5059 42be 5c48 82be
000003c0: 8632 f8bd 698a c9be ae26 9dbe 4608 a0be
000003d0: 034e 3ebe c55d a7be 91b5 b3be 247c adbd
000003e0: d95d 843c 3fc0 f3be 6208 0cbe 7297 2dbd
000003f0: 87eb 723d 2d0c 0bbf a969 96be ed2b acbd
